runtime data/model60_save.pt (torch, 33285 bytes, 8 tensors)

GNN.adjacency_matrix f4 [80, 80]
000000 00 00 80 bf 4b c1 83 3f 00 00 80 bf 00 00 80 bf
       -1.0 1.0293363 -1.0 -1.0
000010 00 00 80 bf 00 00 80 bf 00 00 80 bf 00 00 80 bf
       -1.0 -1.0 -1.0 -1.0
000020 00 00 80 bf 00 00 80 bf 00 00 80 bf 00 00 80 bf
       -1.0 -1.0 -1.0 -1.0
000030 00 00 80 bf 00 00 80 bf 00 00 80 bf 00 00 80 bf
       -1.0 -1.0 -1.0 -1.0
000040 00 00 80 bf 00 00 80 bf 00 00 80 bf 00 00 80 bf
       -1.0 -1.0 -1.0 -1.0
000050 00 00 80 bf 00 00 80 bf 00 00 80 bf 00 00 80 bf
       -1.0 -1.0 -1.0 -1.0
000060 00 00 80 bf 00 00 80 bf 00 00 80 bf 00 00 80 bf
       -1.0 -1.0 -1.0 -1.0
000070 00 00 80 bf 00 00 80 bf 00 00 80 bf 00 00 80 bf
       -1.0 -1.0 -1.0 -1.0
000080 00 00 80 bf 00 00 80 bf 00 00 80 bf 00 00 80 bf
       -1.0 -1.0 -1.0 -1.0
000090 00 00 80 bf 00 00 80 bf 00 00 80 bf 00 00 80 bf
       -1.0 -1.0 -1.0 -1.0
0000a0 00 00 80 bf 00 00 80 bf 00 00 80 bf 00 00 80 bf
       -1.0 -1.0 -1.0 -1.0
0000b0 00 00 80 bf 00 00 80 bf 00 00 80 bf 00 00 80 bf
       -1.0 -1.0 -1.0 -1.0
0000c0 00 00 80 bf 00 00 80 bf 00 00 80 bf 00 00 80 bf
       -1.0 -1.0 -1.0 -1.0
0000d0 00 00 80 bf 00 00 80 bf 00 00 80 bf 00 00 80 bf
       -1.0 -1.0 -1.0 -1.0
0000e0 00 00 80 bf 00 00 80 bf 00 00 80 bf 00 00 80 bf
       -1.0 -1.0 -1.0 -1.0
0000f0 00 00 80 bf 00 00 80 bf 00 00 80 bf 00 00 80 bf
       -1.0 -1.0 -1.0 -1.0
000100 00 00 80 bf 00 00 80 bf 00 00 80 bf 00 00 80 bf
       -1.0 -1.0 -1.0 -1.0
000110 00 00 80 bf 00 00 80 bf 00 00 80 bf 00 00 80 bf
       -1.0 -1.0 -1.0 -1.0
000120 00 00 80 bf 00 00 80 bf 00 00 80 bf 00 00 80 bf
       -1.0 -1.0 -1.0 -1.0
000130 00 00 80 bf 00 00 80 bf 00 00 80 bf 00 00 80 bf
       -1.0 -1.0 -1.0 -1.0
000140 2d 47 54 3f 00 00 80 bf 00 00 80 bf 00 00 80 bf
       0.82921106 -1.0 -1.0 -1.0
000150 00 00 80 bf 00 00 80 bf 00 00 80 bf 00 00 80 bf
       -1.0 -1.0 -1.0 -1.0
000160 00 00 80 bf c7 af 44 3f 00 00 80 bf 00 00 80 bf
       -1.0 0.76830715 -1.0 -1.0
000170 00 00 80 bf 00 00 80 bf 00 00 80 bf 00 00 80 bf
       -1.0 -1.0 -1.0 -1.0
000180 00 00 80 bf 00 00 80 bf 00 00 80 bf 00 00 80 bf
       -1.0 -1.0 -1.0 -1.0
000190 00 00 80 bf 00 00 80 bf 00 00 80 bf 00 00 80 bf
       -1.0 -1.0 -1.0 -1.0
0001a0 00 00 80 bf 00 00 80 bf 00 00 80 bf 00 00 80 bf
       -1.0 -1.0 -1.0 -1.0
0001b0 00 00 80 bf 00 00 80 bf 00 00 80 bf 00 00 80 bf
       -1.0 -1.0 -1.0 -1.0
0001c0 00 00 80 bf 00 00 80 bf 00 00 80 bf 00 00 80 bf
       -1.0 -1.0 -1.0 -1.0
0001d0 00 00 80 bf 00 00 80 bf 00 00 80 bf 00 00 80 bf
       -1.0 -1.0 -1.0 -1.0
0001e0 00 00 80 bf 00 00 80 bf 00 00 80 bf 00 00 80 bf
       -1.0 -1.0 -1.0 -1.0
0001f0 00 00 80 bf 00 00 80 bf 00 00 80 bf 00 00 80 bf
       -1.0 -1.0 -1.0 -1.0
000200 00 00 80 bf 00 00 80 bf 00 00 80 bf 00 00 80 bf
       -1.0 -1.0 -1.0 -1.0
000210 00 00 80 bf 00 00 80 bf 00 00 80 bf 00 00 80 bf
       -1.0 -1.0 -1.0 -1.0
000220 00 00 80 bf 00 00 80 bf 00 00 80 bf 00 00 80 bf
       -1.0 -1.0 -1.0 -1.0
000230 00 00 80 bf 00 00 80 bf 00 00 80 bf 00 00 80 bf
       -1.0 -1.0 -1.0 -1.0
000240 00 00 80 bf 00 00 80 bf 00 00 80 bf 00 00 80 bf
       -1.0 -1.0 -1.0 -1.0
000250 00 00 80 bf 00 00 80 bf 00 00 80 bf 00 00 80 bf
       -1.0 -1.0 -1.0 -1.0
000260 00 00 80 bf 00 00 80 bf 00 00 80 bf 00 00 80 bf
       -1.0 -1.0 -1.0 -1.0
000270 00 00 80 bf 00 00 80 bf 00 00 80 bf 00 00 80 bf
       -1.0 -1.0 -1.0 -1.0
000280 00 00 80 bf 00 00 80 bf 00 00 80 bf 00 00 80 bf
       -1.0 -1.0 -1.0 -1.0
000290 00 00 80 bf 00 00 80 bf 00 00 80 bf 00 00 80 bf
       -1.0 -1.0 -1.0 -1.0
0002a0 00 00 80 bf 00 00 80 bf 00 00 80 bf 00 00 80 bf
       -1.0 -1.0 -1.0 -1.0
0002b0 00 00 80 bf 00 00 80 bf 00 00 80 bf 00 00 80 bf
       -1.0 -1.0 -1.0 -1.0
0002c0 00 00 80 bf 00 00 80 bf 00 00 80 bf 00 00 80 bf
       -1.0 -1.0 -1.0 -1.0
0002d0 00 00 80 bf 00 00 80 bf 00 00 80 bf 00 00 80 bf
       -1.0 -1.0 -1.0 -1.0
0002e0 00 00 80 bf 00 00 80 bf 00 00 80 bf 00 00 80 bf
       -1.0 -1.0 -1.0 -1.0
0002f0 00 00 80 bf 00 00 80 bf 00 00 80 bf 00 00 80 bf
       -1.0 -1.0 -1.0 -1.0
000300 00 00 80 bf 00 00 80 bf 00 00 80 bf 00 00 80 bf
       -1.0 -1.0 -1.0 -1.0
000310 00 00 80 bf 00 00 80 bf 00 00 80 bf 00 00 80 bf
       -1.0 -1.0 -1.0 -1.0
000320 00 00 80 bf 00 00 80 bf 00 00 80 bf 00 00 80 bf
       -1.0 -1.0 -1.0 -1.0
000330 00 00 80 bf 00 00 80 bf 00 00 80 bf 00 00 80 bf
       -1.0 -1.0 -1.0 -1.0
000340 00 00 80 bf 00 00 80 bf 00 00 80 bf 00 00 80 bf
       -1.0 -1.0 -1.0 -1.0
000350 00 00 80 bf 00 00 80 bf 00 00 80 bf 00 00 80 bf
       -1.0 -1.0 -1.0 -1.0
000360 00 00 80 bf 00 00 80 bf 00 00 80 bf 00 00 80 bf
       -1.0 -1.0 -1.0 -1.0
000370 00 00 80 bf 00 00 80 bf 00 00 80 bf 00 00 80 bf
       -1.0 -1.0 -1.0 -1.0
000380 00 00 80 bf 00 00 80 bf 00 00 80 bf 00 00 80 bf
       -1.0 -1.0 -1.0 -1.0
000390 00 00 80 bf 00 00 80 bf 00 00 80 bf 00 00 80 bf
       -1.0 -1.0 -1.0 -1.0
0003a0 00 00 80 bf 00 00 80 bf 00 00 80 bf 00 00 80 bf
       -1.0 -1.0 -1.0 -1.0
0003b0 00 00 80 bf 00 00 80 bf 00 00 80 bf 00 00 80 bf
       -1.0 -1.0 -1.0 -1.0
0003c0 00 00 80 bf 00 00 80 bf 00 00 80 bf 00 00 80 bf
       -1.0 -1.0 -1.0 -1.0
0003d0 00 00 80 bf 00 00 80 bf 00 00 80 bf 00 00 80 bf
       -1.0 -1.0 -1.0 -1.0
0003e0 00 00 80 bf 00 00 80 bf 00 00 80 bf 00 00 80 bf
       -1.0 -1.0 -1.0 -1.0
0003f0 00 00 80 bf 00 00 80 bf 00 00 80 bf 00 00 80 bf
       -1.0 -1.0 -1.0 -1.0

GNN.self_temp_w f4 [80]
000000 55 18 66 3f 9a 3c 71 3f a0 e9 a4 3f 73 e8 8f 3f
       0.8988088 0.94233096 1.2883797 1.1242813
000010 e4 31 90 3f 2e e6 70 3f 65 e5 44 3f 4b a4 43 3f
       1.1265225 0.94101226 0.7691253 0.76422566
000020 57 c1 52 3f 24 1b 62 3f f0 e6 9d 3f 88 b6 a0 3f
       0.82326263 0.88322663 1.2336102 1.2555704
000030 f7 2a 76 3f 66 c8 7a 3f f5 82 46 3f a8 c9 8c 3f
       0.9615931 0.97962034 0.77543575 1.0999041
000040 7d 9f 52 3f 55 d4 47 3f 30 1f 44 3f 6e 4e 55 3f
       0.8227461 0.7805837 0.7661009 0.833228
000050 ff 46 6b 3f 30 b7 81 3f 2c 9c 9f 3f be 01 79 3f
       0.91905206 1.0134029 1.2469535 0.97268283
000060 63 c6 4a 3f 3b f3 4e 3f c1 56 51 3f 8e fd 5a 3f
       0.79208964 0.8083989 0.81773 0.85543144
000070 62 c2 6c 3f cd 56 a4 3f 53 d9 a1 3f 5e eb 51 3f
       0.92484105 1.283899 1.2644447 0.81999767
000080 8f ec 49 3f ff 32 79 3f b0 79 9d 3f d1 90 58 3f
       0.78876585 0.9734344 1.2302761 0.8459597
000090 80 14 56 3f 1a 7b 57 3f d3 99 4f 3f 70 45 54 3f
       0.8362503 0.84172213 0.8109409 0.82918453
0000a0 60 5d 53 3f 6c d4 46 3f 43 74 4a 3f ed 37 50 3f
       0.82564354 0.7766788 0.7908365 0.81335336
0000b0 ec 64 57 3f 7b 33 99 3f b4 13 50 3f 57 eb 44 3f
       0.8413837 1.1968836 0.81280065 0.769216
0000c0 ab 83 44 3f b5 2c 6a 3f d2 9f a2 3f 19 9f a5 3f
       0.7676341 0.9147447 1.2705023 1.2939178
0000d0 32 69 6f 3f e2 5c 56 3f 7d f1 66 3f ef c2 71 3f
       0.9351989 0.8373548 0.9021223 0.9443807
0000e0 5e 9a 67 3f 28 fb 7c 3f 4d 80 a1 3f fc 38 a6 3f
       0.9046992 0.98820734 1.2617279 1.298614
0000f0 8f b6 9e 3f 93 58 7a 3f 31 07 98 3f 7a 4e 6a 3f
       1.2399462 0.97791404 1.1877195 0.91525996
000100 d6 eb 50 3f b2 42 5e 3f 0e ee a2 3f d8 bd 60 3f
       0.8160986 0.8682052 1.2728899 0.8778968
000110 cd 82 91 3f 55 0d 69 3f d3 67 52 3f 8d c7 55 3f
       1.1368042 0.9103597 0.82189673 0.83507615
000120 6f 5e 91 3f fa 57 49 3f ac 2c 48 3f ec 53 4d 3f
       1.1356944 0.78649867 0.78193164 0.8020618
000130 2d 0c a2 3f fa 70 99 3f 2d 3c 6a 3f 21 8d a1 3f
       1.2659966 1.1987603 0.9149807 1.2621194

GNN.other_temp_w f4 [80]
000000 51 57 8d 3e eb 59 2a 3e cd cc 4c 3e cd cc 4c 3e
       0.2760568 0.16635863 0.2 0.2
000010 cd cc 4c 3e c5 47 7f 3e aa c7 ef 3d 42 f9 0c 3e
       0.2 0.24929722 0.11708005 0.1376696
000020 56 53 f3 3d 40 84 57 3e cd cc 4c 3e cd cc 4c 3e
       0.118811294 0.21046543 0.2 0.2
000030 a6 70 79 3e 0a d7 7b 3e 49 15 23 3e cd cc 4c 3e
       0.24359378 0.2459375 0.15926088 0.2
000040 c0 87 57 3e 58 34 1b 3e 52 41 0a 3e 79 3a 54 3e
       0.21047878 0.15156686 0.1350148 0.2072543
000050 17 92 06 3e dc e4 5f 3e cd cc 4c 3e b8 56 8a 3e
       0.13141666 0.21864647 0.2 0.27019286
000060 00 e9 10 3e 17 0a 43 3e 3e e7 44 3e d0 5f 60 3e
       0.14151382 0.19046818 0.19228837 0.2191155
000070 cc 50 a6 3e cd cc 4c 3e cd cc 4c 3e 2c 2a 22 3e
       0.32483518 0.2 0.2 0.158364
000080 d6 1a 09 3e 88 16 90 3e cd cc 4c 3e 85 fb 20 3e
       0.13389143 0.2814219 0.2 0.15720947
000090 7c 07 4e 3e a6 a8 44 3e e2 3c 09 3e 85 ef 6a 3e
       0.20120043 0.1920496 0.13402131 0.22942932
0000a0 b9 9b 4d 3e 3a 37 26 3e e1 f7 34 3e 33 9f 16 3e
       0.20078935 0.16232005 0.17672683 0.14709167
0000b0 e7 a6 2a 3e cd cc 4c 3e ed f1 11 3e c6 96 0d 3e
       0.1666523 0.2 0.14252444 0.13827047
0000c0 af c0 19 3e 6e 56 95 3e cd cc 4c 3e cd cc 4c 3e
       0.15014909 0.29167503 0.2 0.2
0000d0 5d 41 a5 3e fb 5f 58 3e c9 57 8b 3e f5 e1 71 3e
       0.3227643 0.21130364 0.27215412 0.23621352
0000e0 75 27 1a 3e 9a 08 2f 3e cd cc 4c 3e cd cc 4c 3e
       0.15054114 0.17093125 0.2 0.2
0000f0 cd cc 4c 3e 80 f4 73 3e cd cc 4c 3e ec ea 82 3e
       0.2 0.23823738 0.2 0.25569856
000100 61 5b 4a 3e 2a 7f 3f 3e cd cc 4c 3e db 0d 83 3e
       0.19761421 0.18700853 0.2 0.25596508
000110 cd cc 4c 3e c2 c4 96 3e e5 73 42 3e 64 0f 5e 3e
       0.2 0.2944699 0.18989523 0.21685559
000120 cd cc 4c 3e 0a 0a 2d 3e b4 ae 29 3e 3d 0d 3d 3e
       0.2 0.16898361 0.1657055 0.18462081
000130 cd cc 4c 3e cd cc 4c 3e a7 33 8a 3e cd cc 4c 3e
       0.2 0.2 0.26992533 0.2

INN.linear_list.0.weight f4 [20, 19]
000000 98 d6 8a be 82 b8 e0 3d fd 00 c3 3d 3f 92 06 3e
       -0.27116847 0.10972692 0.09521673 0.13141726
000010 42 9f 3a be f7 c4 79 bd 72 73 c9 3c 98 c4 77 3d
       -0.18224815 -0.060978856 0.024591181 0.06049022
000020 1b 1a f9 3c 50 d1 f6 3d fa e6 11 be 6f 77 64 3d
       0.030407956 0.12051642 -0.14248267 0.055777963
000030 46 02 88 be 29 a7 b1 bd 7e 5f 0b be 32 11 fb 3d
       -0.26564234 -0.086744614 -0.13610646 0.12259139
000040 93 b7 94 3d c5 6d 03 be 5f ce 11 be 5d 16 c8 bd
       0.072615765 -0.12834843 -0.1423888 -0.097698905
000050 d1 38 24 3e 0f 02 d4 bd b4 2b 16 bf dc 7c 36 be
       0.16037299 -0.10351955 -0.58660436 -0.17821068
000060 eb e4 94 3d b7 f6 0b 3e 55 4c 15 bd f9 09 0d bd
       0.07270225 0.13668333 -0.03644975 -0.03443334
000070 18 a1 f1 3c 57 08 1c bd 7d 21 69 be da 97 10 bd
       0.02949576 -0.03809389 -0.22766681 -0.035301067
000080 f8 6d e6 3d 0c a2 0e be d1 96 3d bd 35 bf 9f bd
       0.112514436 -0.13929003 -0.046286408 -0.07800142
000090 7a a3 d4 3d b2 07 6f 3e 2f b8 14 bf bd 88 fe bd
       0.10382743 0.2334278 -0.5809354 -0.124284245
0000a0 e5 4e 74 be 87 6f b7 3d 12 93 77 bd 9d cd 77 be
       -0.23858221 0.08956819 -0.06044299 -0.24199529
0000b0 7b 59 b4 3c e0 c2 5c 3a fd ac 81 bd e9 06 55 3d
       0.022015324 0.00084213726 -0.06331823 0.052008543
0000c0 5c d6 8a 3e dc e0 60 be f6 13 34 be 8e 80 c3 3e
       0.27116668 -0.21960777 -0.1758574 0.38184017
0000d0 06 57 ae 3d 3d 26 80 3d 9e 63 c3 3c 11 e4 d1 3d
       0.08512692 0.062572934 0.023851212 0.10248578
0000e0 8d b1 2d 3d 01 c1 2c bf 48 7f e1 bd 3f 8f 33 3e
       0.042405654 -0.67482 -0.11010605 0.17535113
0000f0 94 56 9c 3e 0d e6 44 be 34 c4 0d 3d 8e cf 04 be
       0.30534804 -0.19228382 0.034610942 -0.12969801
000100 e4 d7 27 bc 67 59 0e 3d 46 8c a1 bd c5 8e ad 3e
       -0.010244343 0.03475323 -0.07888083 0.33897987
000110 5c 8a 88 be 1e f0 ab 3d 1a 66 aa bd 61 bf 0e 3e
       -0.2666806 0.08395408 -0.083202556 0.13940193
000120 01 15 d8 bd 0d 1f cd 3d db be 13 bd 44 af ec bd
       -0.10550881 0.10015688 -0.036070686 -0.11556867
000130 6c bb 84 3e 7c 47 4e be 7c 76 64 be a9 bb 60 3c
       0.25924242 -0.20144457 -0.22310823 0.013716617
000140 a0 1e eb 3b 11 c4 03 3e 70 61 52 bd 92 37 e1 bc
       0.0071752816 0.12867762 -0.051362455 -0.027492318
000150 33 c7 c6 bc 72 07 83 bc 56 ff f1 3e 86 48 4d be
       -0.024264907 -0.015994761 0.47265118 -0.20047197
000160 8c da 8b 3e 50 d2 ab 3e b2 37 b1 3e 00 5c a1 3e
       0.27315176 0.33558893 0.34612805 0.31515503
000170 a3 94 13 3c 2f fa ae 3d 22 1c 09 bd fd e3 1c 3f
       0.009007606 0.085438125 -0.033474095 0.6128538
000180 c4 46 dc 3e 5c 9b c0 3d 06 ab 1c be 5d 59 af 3e
       0.4302274 0.094046324 -0.15299615 0.34247866
000190 10 50 73 3e 86 c9 dd bc 90 39 06 3e 50 95 31 be
       0.2376101 -0.027073633 0.13107896 -0.17342114
0001a0 c2 6b 05 3f 90 a0 1a 3e 83 e0 6e 3e d2 00 b4 bd
       0.5211755 0.15100312 0.23327832 -0.08789219
0001b0 f1 9e 58 3e cd e1 bb 3d ab 14 7b 3d 14 06 06 3d
       0.21154381 0.091739275 0.061299007 0.03272064
0001c0 50 e6 08 3e 23 fa 01 bd 0f 62 2f 3f f7 9e 11 3d
       0.13369107 -0.03173269 0.68509 0.03555199
0001d0 7b e4 30 3d fe 70 9b be ab 4b d0 3d d0 d5 b6 bc
       0.043186646 -0.30359644 0.101706825 -0.02231875
0001e0 f8 45 08 be 63 41 fb 3d 2f 37 47 be b7 1a f5 3e
       -0.13307941 0.12268331 -0.19454645 0.47871944
0001f0 ee 66 5e bd 66 93 3d 3e 2b 8b c8 bd dc 06 68 be
       -0.05429738 0.1851326 -0.09792169 -0.22658867
000200 88 e8 c8 bd 5a 67 89 bd 17 47 55 3e 50 75 77 3d
       -0.09809977 -0.06709166 0.208279 0.060414612
000210 e0 7e 24 bc 92 da 07 be 21 c3 10 3d 41 08 c3 3d
       -0.010040015 -0.13266972 0.03534234 0.09523059
000220 f6 14 01 3e a1 e6 92 bc 9f c0 b2 bd 67 2a 82 3d
       0.12605652 -0.017932238 -0.08728146 0.06355744
000230 0f f9 68 3d f8 2d 95 3c 47 42 94 3e 17 5c e2 3e
       0.056878146 0.018210396 0.28956816 0.44210884
000240 71 da f5 3c 0c 49 60 be a9 da 9f bb 67 7a e6 3d
       0.030011388 -0.21902865 -0.0048783612 0.11253815
000250 71 e5 a5 bd 53 59 79 3d 20 8f 03 be 85 32 c6 bd
       -0.08100403 0.0608762 -0.12847567 -0.096776046
000260 ac 58 29 3f e9 47 11 3e ef ab dc 3d 5e 29 55 be
       0.6615093 0.14187588 0.10774981 -0.20816562
000270 d2 fa 93 3e 9e a8 9d bd 66 af 20 3d 79 d0 bd bc
       0.28902298 -0.07698177 0.039229773 -0.023170697
000280 4e bc 47 3c a4 ed ae 3d d8 ea a7 3c 08 4d 2a 3e
       0.012190891 0.0854142 0.020497724 0.16630948
000290 66 1b 90 ba a2 17 f9 3d 18 80 55 3e af 3c b6 3e
       -0.0010994493 0.12162711 0.20849645 0.35593173
0002a0 1c fa 8f bd 07 a2 7c 3c fd be 0e 3d d0 16 59 bf
       -0.070301265 0.01541949 0.03485011 -0.84800434
0002b0 db c0 56 bd 16 5e 7a bd e7 47 d8 3e e3 a5 70 be
       -0.052430015 -0.061124884 0.42242357 -0.23500781
0002c0 df f0 4e bc 22 72 f4 bd a6 a0 3c bd 5c e9 cf 3d
       -0.01263067 -0.119358316 -0.046051644 0.10151932
0002d0 24 15 34 be 33 4c 97 bc 6b d1 99 3d 28 95 d1 bd
       -0.1758619 -0.018468952 0.075106464 -0.102335274
0002e0 73 12 29 3d 38 06 48 3e 1b f4 78 3d b2 6f a4 bc
       0.04127736 0.19533622 0.060779672 -0.020072792
0002f0 70 dd 0a be ed ec aa 3d a2 30 b3 be 7e f7 5f be
       -0.13561034 0.08345971 -0.3499804 -0.21871755
000300 73 17 d8 bd e0 bf ec 3e bc 92 11 be ae 95 8c 3d
       -0.105513476 0.4624014 -0.14216131 0.06864487
000310 24 12 4a 3e 45 de 97 3b 79 fa 11 bc 4f 19 8c 3d
       0.19733483 0.004634651 -0.008909815 0.06840765
000320 5d 92 75 3d 53 46 7a be 2f 5a 6a be 9a d6 66 bd
       0.059954036 -0.24440889 -0.22885965 -0.056357004
000330 06 f5 74 be 74 4d b8 bb 15 52 a9 bc 9a 58 8d bd
       -0.23921594 -0.0056244675 -0.020669023 -0.06901665
000340 0d 67 82 3e af f3 95 bc 89 1b c8 3d 5c 16 9b bd
       0.25469247 -0.018304674 0.09770877 -0.07572624
000350 8b fe 49 bc a6 7c 39 3e 0c 09 a7 39 68 08 50 bd
       -0.012328754 0.18113956 0.00031859463 -0.050789267
000360 77 55 c6 3c 92 0a 17 3b f7 98 4b 3e d5 61 e8 be
       0.024210675 0.0023047072 0.1988257 -0.4538714
000370 53 71 84 bd fd 18 1c bd 6a 07 cc bd 91 3b db bc
       -0.064669274 -0.03810977 -0.099623516 -0.026761802
000380 af 4e e4 3d 1f c9 f6 bc 4a e4 eb bd 38 8c 12 3e
       0.1114782 -0.030125199 -0.11518152 0.14311302
000390 1f ae 0f bf f3 c6 11 bd 0e f7 ce bd d7 16 66 3e
       -0.5612506 -0.035590123 -0.10105716 0.2246965
0003a0 86 a4 60 bc 25 15 37 3d 5e af e5 bd 93 5d 1a 3c
       -0.0137111 0.0446979 -0.11215089 0.009421724
0003b0 67 3a a3 3d cf 0a 9c bb 28 b5 66 bd 03 50 1a 3d
       0.07970124 -0.0047620307 -0.056325108 0.03767396
0003c0 67 33 12 bd 95 f8 7b be 66 45 38 3e 4d 19 80 be
       -0.035693552 -0.24606545 0.17995223 -0.25019303
0003d0 e0 61 db bc 75 dc db 3d cf fb c1 bd 29 fd 6f be
       -0.026780069 0.10735408 -0.09471857 -0.23436417
0003e0 3d b1 4b 3c 3f 51 34 bd 77 89 a5 3e 00 cd 28 bd
       0.012432394 -0.044022795 0.3233144 -0.04121113
0003f0 44 75 28 bd 7c a5 4d 3d 14 5d e4 bc 64 4f de bc
       -0.04112746 0.050206646 -0.027876414 -0.027137466

INN.linear_list.0.bias f4 [20]
000000 9a 4e ed 3d 06 90 49 bc b5 f9 34 be 57 f5 c6 3d
       0.11587258 -0.012302404 -0.1767338 0.097147636
000010 03 80 f2 3c ff dc 4d 3e 4d 3c a2 3e 87 ae dc bd
       0.029602056 0.20103835 0.3168663 -0.10775476
000020 e0 0a e9 3d 21 ea 24 3c 88 2e 17 3e b8 7b 3c be
       0.11379027 0.010065586 0.14763844 -0.1840657
000030 a8 a8 fc 3c 7d b6 44 3e 03 3d 5b 3e c7 11 be 3c
       0.03084214 0.19210239 0.21409993 0.023201836
000040 81 a9 85 bd 67 d7 85 3e e5 29 17 3e 49 23 73 3e
       -0.06526471 0.261409 0.14762075 0.23743929

INN.linear_list.1.weight f4 [20, 20]
000000 5d ab bb bd 19 64 d1 3c 84 05 91 bd 60 e1 cc bd
       -0.09163544 0.025560426 -0.0708113 -0.10003924
000010 e2 00 eb 3c 18 a4 f8 bc 4e 9a c9 3d 3a b0 07 3c
       0.028686944 -0.030351683 0.098438844 0.008281762
000020 3b bf a1 3d 4b ac 42 3e da cb b3 3d 14 e9 3e bd
       0.078978024 0.19011037 0.08779116 -0.046609
000030 9a b5 ca 3d 08 1b 12 bd bb c4 05 3d fc f1 28 3d
       0.09897919 -0.03567031 0.03265832 0.0412464
000040 b4 ff b9 3c 6b 1a 1d bd f3 e9 f2 bc 95 4a b6 3b
       0.022704937 -0.038355272 -0.029652571 0.00556309
000050 7a f2 9b 3c 7f 08 09 3e 4d 90 50 bd 8f 86 df 3d
       0.01903652 0.13382147 -0.050918866 0.10914337
000060 cc 5b 08 3b 55 95 53 3e 33 9f 23 3e f3 a4 4e bd
       0.0020806668 0.20662434 0.15978698 -0.050450277
000070 2e ae e1 3d 77 a6 f9 3d e2 81 78 3d 27 d1 59 3d
       0.1101955 0.12189954 0.06067074 0.05317798
000080 a5 50 4d bb b6 17 89 3c c8 53 10 bd 11 18 7b bd
       -0.0031328585 0.016734939 -0.03523615 -0.06130225
000090 82 4e d1 3d 91 e4 84 3e 12 88 b9 3d c2 c9 3d 3e
       0.10220052 0.25955632 0.090591565 0.18533996
0000a0 71 29 a5 bc e8 f5 1d bc 2f e7 f8 3c 85 ea a4 3d
       -0.020161362 -0.009641148 0.030383674 0.080525436
0000b0 cc 2a c0 bc a4 30 fe 3b a5 24 15 3d 12 e3 ad bc
       -0.023457907 0.0077572633 0.0364119 -0.02122644
0000c0 8d e3 5c bd c5 60 c5 3b 03 e8 7e bd 03 46 f0 bb
       -0.053927947 0.0060234987 -0.062232982 -0.007332565
0000d0 95 1e bb 3d 15 07 47 bb c8 b7 78 3d c7 88 95 3d
       0.091366924 -0.0030369211 0.060722142 0.07301479
0000e0 a9 01 b9 bd 2f d2 49 bd 74 f1 41 3d 2c a6 9e bd
       -0.0903352 -0.049272712 0.04734941 -0.077465385
0000f0 42 d1 86 3b d3 eb 5b 3d 56 32 b1 bc 8c 93 59 bd
       0.004114301 0.053691696 -0.021630447 -0.053119227
000100 88 8b 58 3b af 19 0d 3d e1 eb 0e bd 04 c8 21 bd
       0.0033042151 0.034448322 -0.03489292 -0.03949739
000110 20 1a 2a 3b 24 f0 58 3e d7 c4 ae 3c 93 f5 c3 3d
       0.0025955513 0.21185356 0.021334095 0.09568324
000120 ff 8d 16 bd 34 3c eb 3c e8 71 45 be 4c ab 68 3c
       -0.03675651 0.02871523 -0.19281733 0.014200997
000130 31 39 f2 bc 57 c4 8e 3d 53 f1 a8 3d 31 c9 b8 3d
       -0.029568287 0.069710426 0.08249154 0.09022749
000140 03 53 ef 3d 90 a3 eb bd 65 20 10 3d f1 56 85 3c
       0.11685755 -0.115058064 0.035187144 0.016276808
000150 16 3b b4 3d 63 0b 7f bd ea 74 52 3d e8 75 39 bd
       0.08800332 -0.06226672 0.05138103 -0.04527846
000160 9e 8a 0f 3e 12 30 32 3d b4 6c 16 3e e7 7d 41 3d
       0.14017722 0.043502875 0.14689904 0.04723921
000170 c5 0c b6 bd ef 98 5f 3d 98 67 c5 bc f4 57 03 3d
       -0.08889154 0.05458921 -0.024097249 0.0320663
000180 0b 84 03 3d 03 f9 09 3c 67 1e 34 bd c3 b3 c5 3b
       0.032108348 0.008421185 -0.043974306 0.006033392
000190 eb 32 81 3b 15 0b d2 bd c0 ec 8a 3d 48 a5 47 bd
       0.0039428375 -0.1025602 0.06783438 -0.04874161
0001a0 32 01 0c be 34 59 9b 3c 63 dc dd 3d 7a 87 9b 3b
       -0.13672331 0.018963434 0.10833051 0.0047463747
0001b0 7d 6e fd bc 2c 67 d1 bc 0a b8 98 3c fb 68 8e 3d
       -0.030936474 -0.025561891 0.018642444 0.06953617
0001c0 e3 06 4f bd 43 c9 25 3d ea 5c 4d 3e d3 e1 fa bb
       -0.050543677 0.04047514 0.20054975 -0.007656315
0001d0 75 40 14 3d 4c e9 86 3e 63 e6 ca bd ae b8 42 be
       0.036194284 0.26349866 -0.09907224 -0.19015762
0001e0 53 7e f7 bd 79 fb 9f 3d 36 98 e0 39 5a 0e 85 3d
       -0.12084641 0.078116365 0.00042838015 0.06496878
0001f0 c6 1c 1d be 49 b5 ff bb ed 8e cd bd a1 74 66 3e
       -0.15343007 -0.0078035933 -0.100370266 0.22505428
000200 22 7e 80 3d 92 5d 5a be 6f 74 6e be c1 ac 53 be
       0.06274058 -0.21324757 -0.23286603 -0.20671369
000210 a6 42 23 be 61 6d 9e 3c d7 e3 0a be c4 a9 7a 3e
       -0.15943393 0.019339265 -0.13563477 0.24478823
000220 71 2f a3 3d aa 0a 92 bd 07 7c 7d bd 21 3b 35 3e
       0.07968033 -0.0713094 -0.06188586 0.17698337
000230 40 65 92 3d 14 02 03 3e 34 41 c5 3d 19 a8 2f 3e
       0.07148218 0.12793761 0.09631577 0.17153968
000240 66 f2 51 3e de 1e e4 3d 05 f2 f1 bd 89 64 11 3e
       0.20502624 0.111387 -0.1181374 0.14198507
000250 11 28 25 be 61 22 85 3d b6 67 21 be b1 8c 8f bc
       -0.16128565 0.06500698 -0.15762219 -0.017523142
000260 d2 bc 5a be 0b 85 5c be d2 13 25 bd 9b 9a 2e 3d
       -0.21361092 -0.21535127 -0.040302105 0.042627912
000270 ef 62 29 bd f4 f1 b8 bd 91 8d 47 be 72 6c 1d be
       -0.041354116 -0.09030524 -0.19487597 -0.153734
000280 01 3d 2e 3d 92 f7 ee 3c a0 6d 4a 3d 5f e0 5b 3d
       0.042538647 0.029170785 0.049420953 0.053680774
000290 2c 43 45 bd 4f a3 97 bb 52 e7 e3 bb e7 e5 8c ba
       -0.048159763 -0.004627622 -0.0069550658 -0.0010749669
0002a0 2e 21 fc bc c6 c9 ce bd 2a 68 a9 bd 82 c3 39 3c
       -0.03077754 -0.10097079 -0.08271821 0.011338117
0002b0 ce 3e 3d bd 9e f0 29 3c 72 ed fe 3c c4 8f 85 39
       -0.046202473 0.010372309 0.031119082 0.0002547485
0002c0 ae 02 c0 3d ee 2c 99 bc 1e 5b e2 bc 78 12 8e bd
       0.09375511 -0.018698182 -0.027631339 -0.069371164
0002d0 94 2f 01 bd 3b b0 9f bd 8b 99 2a 3c 53 29 0d be
       -0.031539515 -0.07797285 0.010412584 -0.13785295
0002e0 62 46 ce bd 34 7d 3e 3c d1 76 e3 bc 75 c3 5e 3c
       -0.10072018 0.01162653 -0.027766617 0.013596405
0002f0 43 4f 6b be c8 90 2a 3e df 6f b4 3d be 2e 84 3d
       -0.22979455 0.16656792 0.088104 0.06454228
000300 d2 cd 4e be 85 3c a2 bd 55 83 ba bc c0 bb 86 3d
       -0.20195702 -0.079216994 -0.022767702 0.06578779
000310 f8 69 61 bd b5 ba 89 3e a5 04 84 bd 5f 8c f4 bc
       -0.0550327 0.2690026 -0.064461984 -0.02985209
000320 d5 df 1b be c7 96 4b bd 71 99 2a 3e 6e 71 f5 3c
       -0.15222104 -0.04970434 0.16660096 0.029961314
000330 b6 2a 3c bc 53 26 db 3d c3 df d1 bd 27 c1 be bc
       -0.011484792 0.10700669 -0.10247757 -0.023285462
000340 fc b0 d6 3c 7e 6c b1 3d 18 8d 40 3d 33 9b da 3c
       0.02620744 0.08663271 0.047009557 0.026685333
000350 72 7f 05 3d cc e7 5a bd 2a fc d3 bd b4 73 75 3d
       0.032592244 -0.053443715 -0.10350831 0.059924796
000360 1c 3f 6f 3c 2e 15 4a 3d ab f1 19 3d 3e 68 ca bd
       0.014602449 0.049336605 0.03758399 -0.09883164
000370 36 a8 e3 bd 8a b3 38 ba 29 5c 98 bd ba 7c 0a 3e
       -0.11116068 -0.00070457964 -0.07439453 0.13524142
000380 28 47 f9 bd 82 91 83 bd d9 b6 80 3c f0 74 89 3c
       -0.12171775 -0.06424238 0.015712189 0.016779393
000390 a6 6b cb 3d 6d 17 f8 3c 5b e7 b0 bd d9 d3 c6 3d
       0.09932642 0.030284608 -0.086378776 0.097083755
0003a0 7b d7 fc bd 76 d9 d8 3d 63 6f ab 3d db 2e 9f 3b
       -0.12345787 0.105883524 0.08370855 0.0048578805
0003b0 4d 8a 4a 3e 62 b1 0f 3d 32 26 70 3c a7 31 b5 bd
       0.1977932 0.035081275 0.014657544 -0.08847361
0003c0 54 e9 19 be 25 22 2b be c6 05 1d 3d 53 4d 3b be
       -0.15030414 -0.16712244 0.038335584 -0.18291216
0003d0 d4 cb 7b bc ad dc 29 3e e0 5b 8f 3d e7 f0 07 3e
       -0.015368421 0.16588087 0.06999946 0.1327549
0003e0 e4 8d f9 bc 17 ef 21 be e1 27 17 be b3 c0 c7 bd
       -0.030463167 -0.15813862 -0.14761306 -0.09753551
0003f0 02 6f a7 bd 63 d4 6e bd 57 3e c5 bd 9e cd 28 3e
       -0.0817547 -0.058308017 -0.09631031 0.16484687

INN.linear_list.1.bias f4 [20]
000000 20 66 ad be c0 70 11 3e 00 22 53 3d 06 52 c0 bc
       -0.33866978 0.14203167 0.051546097 -0.023476612
000010 37 20 98 bd 59 7e d1 3d eb 32 3b be 35 7e d6 3d
       -0.074280195 0.10229177 -0.18281142 0.10473291
000020 a4 00 8b bc 7c 0e 7b 3d 61 6b 0c be b4 14 61 bd
       -0.016968079 0.06129311 -0.13712837 -0.054951385
000030 0e 6e a2 3e 68 8e 93 3b 98 d5 4a 3e 9a 13 86 3d
       0.3172459 0.00450306 0.19808042 0.065467075
000040 10 5e 83 3d e1 b7 06 be 7f 7c 46 3e 07 bf 8a be
       0.064144254 -0.13156082 0.19383429 -0.27098867

INN.linear_list.2.weight f4 [1, 20]
000000 5d fe 99 3b 25 fa 12 3e 1f 1a aa 3b d2 6b 85 bb
       0.004699512 0.14353235 0.005191102 -0.004071691
000010 3e aa 31 3a 57 92 db 3d bf c8 61 bc 2b fd b2 bc
       0.0006777382 0.107212715 -0.013780772 -0.021849236
000020 d2 35 2d 3b 39 93 85 3d 70 ce 1a bb 2f 7f da 3a
       0.0026429784 0.06522221 -0.0023621581 0.0016669984
000030 f9 1f df 3d 13 ef 17 bb 6c 3e be 3b 7b 24 1b bb
       0.1089477 -0.002318327 0.005805781 -0.0023672867
000040 0c 85 cd 3d 8f f5 41 3b 2f ca cc bb 7a 3f 8a bd
       0.10035142 0.0029595827 -0.006249688 -0.067503884
