runtime data/model_save.pt (torch, 33259 bytes, 8 tensors)

GNN.adjacency_matrix f4 [80, 80]
0	0xbf800000	-1.0
1	0x3f701a51	0.93790156
2	0xbf800000	-1.0
3	0xbf800000	-1.0
4	0xbf800000	-1.0
5	0xbf800000	-1.0
6	0xbf800000	-1.0
7	0xbf800000	-1.0
8	0xbf800000	-1.0
9	0xbf800000	-1.0
10	0xbf800000	-1.0
11	0xbf800000	-1.0
12	0xbf800000	-1.0
13	0xbf800000	-1.0
14	0xbf800000	-1.0
15	0xbf800000	-1.0
16	0xbf800000	-1.0
17	0xbf800000	-1.0
18	0xbf800000	-1.0
19	0xbf800000	-1.0
20	0xbf800000	-1.0
21	0xbf800000	-1.0
22	0xbf800000	-1.0
23	0xbf800000	-1.0
24	0xbf800000	-1.0
25	0xbf800000	-1.0
26	0xbf800000	-1.0
27	0xbf800000	-1.0
28	0xbf800000	-1.0
29	0xbf800000	-1.0
30	0xbf800000	-1.0
31	0xbf800000	-1.0
32	0xbf800000	-1.0
33	0xbf800000	-1.0
34	0xbf800000	-1.0
35	0xbf800000	-1.0
36	0xbf800000	-1.0
37	0xbf800000	-1.0
38	0xbf800000	-1.0
39	0xbf800000	-1.0
40	0xbf800000	-1.0
41	0xbf800000	-1.0
42	0xbf800000	-1.0
43	0xbf800000	-1.0
44	0xbf800000	-1.0
45	0xbf800000	-1.0
46	0xbf800000	-1.0
47	0xbf800000	-1.0
48	0xbf800000	-1.0
49	0xbf800000	-1.0
50	0xbf800000	-1.0
51	0xbf800000	-1.0
52	0xbf800000	-1.0
53	0xbf800000	-1.0
54	0xbf800000	-1.0
55	0xbf800000	-1.0
56	0xbf800000	-1.0
57	0xbf800000	-1.0
58	0xbf800000	-1.0
59	0xbf800000	-1.0
60	0xbf800000	-1.0
61	0xbf800000	-1.0
62	0xbf800000	-1.0
63	0xbf800000	-1.0
64	0xbf800000	-1.0
65	0xbf800000	-1.0
66	0xbf800000	-1.0
67	0xbf800000	-1.0
68	0xbf800000	-1.0
69	0xbf800000	-1.0
70	0xbf800000	-1.0
71	0xbf800000	-1.0
72	0xbf800000	-1.0
73	0xbf800000	-1.0
74	0xbf800000	-1.0
75	0xbf800000	-1.0
76	0xbf800000	-1.0
77	0xbf800000	-1.0
78	0xbf800000	-1.0
79	0xbf800000	-1.0
80	0x3f737ea7	0.9511513
81	0xbf800000	-1.0
82	0xbf800000	-1.0
83	0xbf800000	-1.0
84	0xbf800000	-1.0
85	0xbf800000	-1.0
86	0xbf800000	-1.0
87	0xbf800000	-1.0
88	0xbf800000	-1.0
89	0xbf800000	-1.0
90	0xbf800000	-1.0
91	0xbf800000	-1.0
92	0xbf800000	-1.0
93	0xbf800000	-1.0
94	0xbf800000	-1.0
95	0xbf800000	-1.0
96	0xbf800000	-1.0
97	0xbf800000	-1.0
98	0xbf800000	-1.0
99	0xbf800000	-1.0
100	0xbf800000	-1.0
101	0xbf800000	-1.0
102	0xbf800000	-1.0
103	0xbf800000	-1.0
104	0xbf800000	-1.0
105	0xbf800000	-1.0
106	0xbf800000	-1.0
107	0xbf800000	-1.0
108	0xbf800000	-1.0
109	0xbf800000	-1.0
110	0xbf800000	-1.0
111	0xbf800000	-1.0
112	0xbf800000	-1.0
113	0xbf800000	-1.0
114	0xbf800000	-1.0
115	0xbf800000	-1.0
116	0xbf800000	-1.0
117	0xbf800000	-1.0
118	0xbf800000	-1.0
119	0xbf800000	-1.0
120	0xbf800000	-1.0
121	0xbf800000	-1.0
122	0xbf800000	-1.0
123	0xbf800000	-1.0
124	0xbf800000	-1.0
125	0xbf800000	-1.0
126	0xbf800000	-1.0
127	0xbf800000	-1.0
128	0xbf800000	-1.0
129	0xbf800000	-1.0
130	0xbf800000	-1.0
131	0xbf800000	-1.0
132	0xbf800000	-1.0
133	0xbf800000	-1.0
134	0xbf800000	-1.0
135	0xbf800000	-1.0
136	0xbf800000	-1.0
137	0xbf800000	-1.0
138	0xbf800000	-1.0
139	0xbf800000	-1.0
140	0xbf800000	-1.0
141	0xbf800000	-1.0
142	0xbf800000	-1.0
143	0xbf800000	-1.0
144	0xbf800000	-1.0
145	0xbf800000	-1.0
146	0xbf800000	-1.0
147	0xbf800000	-1.0
148	0xbf800000	-1.0
149	0xbf800000	-1.0
150	0xbf800000	-1.0
151	0xbf800000	-1.0
152	0xbf800000	-1.0
153	0xbf800000	-1.0
154	0xbf800000	-1.0
155	0xbf800000	-1.0
156	0xbf800000	-1.0
157	0xbf800000	-1.0
158	0xbf800000	-1.0
159	0xbf800000	-1.0
160	0xbf800000	-1.0
161	0xbf800000	-1.0
162	0xbf800000	-1.0
163	0xbf800000	-1.0
164	0xbf800000	-1.0
165	0xbf800000	-1.0
166	0xbf800000	-1.0
167	0xbf800000	-1.0
168	0xbf800000	-1.0
169	0xbf800000	-1.0
170	0xbf800000	-1.0
171	0xbf800000	-1.0
172	0xbf800000	-1.0
173	0xbf800000	-1.0
174	0xbf800000	-1.0
175	0xbf800000	-1.0
176	0xbf800000	-1.0
177	0xbf800000	-1.0
178	0xbf800000	-1.0
179	0xbf800000	-1.0
180	0xbf800000	-1.0
181	0xbf800000	-1.0
182	0xbf800000	-1.0
183	0xbf800000	-1.0
184	0xbf800000	-1.0
185	0xbf800000	-1.0
186	0xbf800000	-1.0
187	0xbf800000	-1.0
188	0xbf800000	-1.0
189	0xbf800000	-1.0
190	0xbf800000	-1.0
191	0xbf800000	-1.0
192	0xbf800000	-1.0
193	0xbf800000	-1.0
194	0xbf800000	-1.0
195	0xbf800000	-1.0
196	0xbf800000	-1.0
197	0xbf800000	-1.0
198	0xbf800000	-1.0
199	0xbf800000	-1.0
200	0xbf800000	-1.0
201	0xbf800000	-1.0
202	0xbf800000	-1.0
203	0xbf800000	-1.0
204	0xbf800000	-1.0
205	0xbf800000	-1.0
206	0xbf800000	-1.0
207	0xbf800000	-1.0
208	0xbf800000	-1.0
209	0xbf800000	-1.0
210	0xbf800000	-1.0
211	0xbf800000	-1.0
212	0xbf800000	-1.0
213	0xbf800000	-1.0
214	0xbf800000	-1.0
215	0xbf800000	-1.0
216	0xbf800000	-1.0
217	0xbf800000	-1.0
218	0xbf800000	-1.0
219	0xbf800000	-1.0
220	0xbf800000	-1.0
221	0xbf800000	-1.0
222	0xbf800000	-1.0
223	0xbf800000	-1.0
224	0xbf800000	-1.0
225	0xbf800000	-1.0
226	0xbf800000	-1.0
227	0xbf800000	-1.0
228	0xbf800000	-1.0
229	0xbf800000	-1.0
230	0xbf800000	-1.0
231	0xbf800000	-1.0
232	0xbf800000	-1.0
233	0xbf800000	-1.0
234	0xbf800000	-1.0
235	0xbf800000	-1.0
236	0xbf800000	-1.0
237	0xbf800000	-1.0
238	0xbf800000	-1.0
239	0xbf800000	-1.0
240	0xbf800000	-1.0
241	0xbf800000	-1.0
242	0xbf800000	-1.0
243	0xbf800000	-1.0
244	0xbf800000	-1.0
245	0xbf800000	-1.0
246	0xbf800000	-1.0
247	0xbf800000	-1.0
248	0xbf800000	-1.0
249	0xbf800000	-1.0
250	0xbf800000	-1.0
251	0xbf800000	-1.0
252	0xbf800000	-1.0
253	0xbf800000	-1.0
254	0xbf800000	-1.0
255	0xbf800000	-1.0

GNN.self_temp_w f4 [80]
0	0x3f3a3cf2	0.72749245
1	0x3f3e63fd	0.7437132
2	0x3f7e33f3	0.9929802
3	0x3f39d1bc	0.72585654
4	0x3f42c79e	0.7608584
5	0x3f3ae081	0.72998816
6	0x3f2bb3a0	0.6707096
7	0x3f318d49	0.6935621
8	0x3f3f4cb5	0.7472642
9	0x3f617529	0.880694
10	0x3f6cfa07	0.9256901
11	0x3f74ab18	0.9557357
12	0x3f6ab9c0	0.9168968
13	0x3f4059fa	0.75137293
14	0x3f43cb4a	0.7648207
15	0x3f4fa2e0	0.811079
16	0x3f7020dd	0.93800145
17	0x3f528951	0.8224078
18	0x3f468f05	0.7756198
19	0x3f441131	0.7658873
20	0x3f43a2c7	0.76420254
21	0x3f68836e	0.90825546
22	0x3f691e95	0.9106229
23	0x3f772f36	0.96556413
24	0x3f49eb47	0.7887463
25	0x3f2c54d2	0.67316926
26	0x3f307553	0.6892902
27	0x3f4d3e5c	0.8017328
28	0x3f4ec47f	0.8076858
29	0x3f7dfbc4	0.9921229
30	0x3f7ba2d0	0.9829531
31	0x3f22d35c	0.6360376
32	0x3f2d5279	0.6770397
33	0x3f75d805	0.96032745
34	0x3f4fffac	0.812495
35	0x3f4b79bc	0.79482627
36	0x3f627428	0.8845849
37	0x3f40ff90	0.7538996
38	0x3f3a465a	0.727636
39	0x3f3e67e4	0.74377275
40	0x3f3d892b	0.74037427
41	0x3f3e72bf	0.7439384
42	0x3f4cd80f	0.8001718
43	0x3f3d53c5	0.7395595
44	0x3f49eb9e	0.7887515
45	0x3f599b6b	0.85002774
46	0x3f3b1d62	0.7309171
47	0x3f377fbd	0.7167929
48	0x3f41ddec	0.7572925
49	0x3f652be3	0.8952009
50	0x3f816f39	1.0112067
51	0x3f824853	1.0178322
52	0x3f835058	1.0258894
53	0x3f443ca1	0.7665501
54	0x3f2fd8e1	0.68690306
55	0x3f5f7d6e	0.87300766
56	0x3f38ba68	0.72159433
57	0x3f4f93ab	0.810847
58	0x3f7c709e	0.9860934
59	0x3f835916	1.0261562
60	0x3f74f6b3	0.95688933
61	0x3f7b1217	0.9807448
62	0x3f604bea	0.87615836
63	0x3f62ede3	0.88644236
64	0x3f40c9a1	0.7530766
65	0x3f4686e8	0.775496
66	0x3f819f2c	1.01267
67	0x3f4d1f19	0.80125576
68	0x3f4f9b5a	0.8109642
69	0x3f6fb96b	0.936423
70	0x3f3cb606	0.73715246
71	0x3f498f4b	0.7873427
72	0x3f4ec6a8	0.80771875
73	0x3f3a9c2c	0.7289455
74	0x3f354962	0.708151
75	0x3f3f1ef9	0.74656636
76	0x3f78e088	0.9721761
77	0x3f659972	0.89687264
78	0x3f6b1b03	0.9183809
79	0x3f8133f4	1.009398

GNN.other_temp_w f4 [80]
0	0x3e045176	0.129217
1	0x3e14eb31	0.14542843
2	0x3e4ccccd	0.2
3	0x3e4ccccd	0.2
4	0x3e4ccccd	0.2
5	0x3e070218	0.13184392
6	0x3d9c4014	0.076294094
7	0x3dc844ac	0.09778723
8	0x3e182539	0.1485795
9	0x3e4ccccd	0.2
10	0x3e4ccccd	0.2
11	0x3e4ccccd	0.2
12	0x3e4ccccd	0.2
13	0x3e1aeb0f	0.1512873
14	0x3e27c20f	0.16382621
15	0x3e4ccccd	0.2
16	0x3e4ccccd	0.2
17	0x3e4ccccd	0.2
18	0x3e347085	0.17621048
19	0x3e2a455e	0.16628024
20	0x3e4ccccd	0.2
21	0x3e4ccccd	0.2
22	0x3e4ccccd	0.2
23	0x3e4ccccd	0.2
24	0x3e41aa63	0.18912654
25	0x3da21352	0.07913841
26	0x3dbfe143	0.09369137
27	0x3e4ec36d	0.20191737
28	0x3e550a54	0.20804721
29	0x3e4ccccd	0.2
30	0x3e4ccccd	0.2
31	0x3d336ad8	0.043803066
32	0x3da7587e	0.081711754
33	0x3e4ccccd	0.2
34	0x3e4ccccd	0.2
35	0x3e4ccccd	0.2
36	0x3e4ccccd	0.2
37	0x3e1f69d8	0.1556772
38	0x3e020eab	0.12700908
39	0x3e15e5f3	0.146385
40	0x3e11ac79	0.1422595
41	0x3e14c923	0.14529853
42	0x3e4d6085	0.2005635
43	0x3e10dfd7	0.14147888
44	0x3e418f50	0.18902326
45	0x3e4ccccd	0.2
46	0x3e0832d8	0.13300645
47	0x3df46df7	0.11935037
48	0x3e22cf01	0.15899278
49	0x3e4ccccd	0.2
50	0x3e4ccccd	0.2
51	0x3e4ccccd	0.2
52	0x3e4ccccd	0.2
53	0x3e2af2a5	0.16694124
54	0x3dbc1cdf	0.09185194
55	0x3e4ccccd	0.2
56	0x3dfcca72	0.12343301
57	0x3e582eb0	0.2111156
58	0x3e4ccccd	0.2
59	0x3e4ccccd	0.2
60	0x3e4ccccd	0.2
61	0x3e4ccccd	0.2
62	0x3e4ccccd	0.2
63	0x3e4ccccd	0.2
64	0x3e1ecf80	0.15508842
65	0x3e334cb1	0.17509724
66	0x3e4ccccd	0.2
67	0x3e4ccccd	0.2
68	0x3e4ccccd	0.2
69	0x3e4ccccd	0.2
70	0x3e0e02a9	0.13868202
71	0x3e406b3b	0.18790905
72	0x3e4ccccd	0.2
73	0x3e0652d8	0.1311754
74	0x3de42ed5	0.11141745
75	0x3e183a62	0.14866021
76	0x3e4ccccd	0.2
77	0x3e4ccccd	0.2
78	0x3e4ccccd	0.2
79	0x3e4ccccd	0.2

INN.linear_list.0.weight f4 [20, 19]
0	0x3e4c26ba	0.19936648
1	0x3b58931c	0.0033046668
2	0x3da3f742	0.08006145
3	0xbe280174	-0.16406804
4	0x3e3c965f	0.18416737
5	0x3e8a0125	0.26953998
6	0x3e15eabf	0.1464033
7	0xbe0a15e5	-0.13484915
8	0xbe0a7aae	-0.13523361
9	0x3e5cb30e	0.21552679
10	0x3e1f824a	0.15577045
11	0xbdcc1902	-0.09965707
12	0xbe319b2f	-0.17344354
13	0xbd826ad3	-0.06368031
14	0xbe44ee8f	-0.19231628
15	0xbddaf1bd	-0.10690639
16	0xbd22ed32	-0.03977699
17	0x3bad8057	0.0052948403
18	0x3c9af9b7	0.018917901
19	0xbd88117b	-0.06643959
20	0xbe96257a	-0.29325467
21	0x3e3e035f	0.18555973
22	0xbe13fc0a	-0.14451614
23	0xbb9e23a4	-0.004826026
24	0x3dc22647	0.09479957
25	0x3df7e0b6	0.12103407
26	0x3d8714e7	0.06595784
27	0x3d78334b	0.06059579
28	0xbdd210ab	-0.102570854
29	0xbc8e5839	-0.017376052
30	0xbde14271	-0.10999001
31	0xbe5d0e8c	-0.2158758
32	0xbba11e71	-0.004916959
33	0x3e099df0	0.13439155
34	0x3da3a6d0	0.07990801
35	0x3dd97ffb	0.106201135
36	0x3d1485a4	0.036260262
37	0xbe217a92	-0.15769413
38	0x3e208dd1	0.15679099
39	0x3e415680	0.18880653
40	0xbd85c696	-0.06532018
41	0xbd900c35	-0.07033578
42	0x3e6827d7	0.22671448
43	0xbdac671c	-0.08418104
44	0xbe04d5ef	-0.12972234
45	0x3d912807	0.07087713
46	0x3e1e1a25	0.15439661
47	0x3e98d09d	0.2984666
48	0x3e39f3b5	0.18159373
49	0xbcb66973	-0.022267079
50	0x3ce5ab88	0.028035894
51	0xbe315bad	-0.17320128
52	0x3cdcb520	0.026941836
53	0x3ce1e1e6	0.027573537
54	0x3e684412	0.22682217
55	0x3dcb1e97	0.09917944
56	0x3e18c1af	0.14917634
57	0x3d48ad06	0.048993133
58	0x3e840767	0.25786898
59	0x3dcfdc71	0.10149468
60	0x3dc92468	0.09821397
61	0x3e7eb92d	0.24875326
62	0xbce64d07	-0.028112901
63	0xbd30297d	-0.043008316
64	0x3d9d2ab0	0.076741576
65	0xbe842226	-0.25807303
66	0x3ecd998c	0.4015621
67	0xbe9fe22c	-0.31227243
68	0x3cf482e0	0.029847562
69	0xbdc33e80	-0.09533405
70	0x3c93d163	0.01804418
71	0x3dc1a710	0.09455693
72	0xbd5941ee	-0.05304139
73	0xbddf28c7	-0.108964495
74	0x3e9c9e79	0.30589655
75	0x3bec74e6	0.007216084
76	0xbe1dec8c	-0.15422267
77	0xbdaeaa87	-0.08528619
78	0xbdf1e221	-0.11810709
79	0x3cad6bfe	0.021169659
80	0x3e40f713	0.18844251
81	0xbc5b7111	-0.013393656
82	0xbe6aa1ec	-0.22913331
83	0xbc92997e	-0.017895456
84	0x3e040904	0.12894064
85	0x3e081738	0.13290107
86	0xbe140e3d	-0.14458556
87	0xbd17a70e	-0.03702455
88	0x3c405d3d	0.01174098
89	0x3e350711	0.17678477
90	0x3e43f308	0.19135678
91	0xbe025367	-0.12727128
92	0x3e10b38e	0.14130995
93	0xbd34fd4e	-0.044186883
94	0x3dc88851	0.09791625
95	0x3e45f5a3	0.19331984
96	0x3e9cfe37	0.306627
97	0x3d6fd82f	0.058555778
98	0x3d85f827	0.06541472
99	0x3d17db93	0.037074637
100	0xbd9e4fb1	-0.07730044
101	0x3c9405b3	0.018069124
102	0xbd5e0242	-0.054201372
103	0xbd45270e	-0.04813295
104	0x3e4d3d76	0.20042977
105	0xbde1f14c	-0.11032352
106	0x3dd18667	0.10230713
107	0xbda6967d	-0.08134172
108	0x3e2001be	0.15625665
109	0x3dacccef	0.084375255
110	0xbdfe0fac	-0.12405333
111	0xbdfa7b5c	-0.1223056
112	0x3c2c5228	0.010517634
113	0xbda1eb7d	-0.07906244
114	0xbe1f309d	-0.15545888
115	0xbe174c61	-0.1477523
116	0xbe2a9795	-0.16659386
117	0xbe1ddd4b	-0.15416448
118	0x3def8e5b	0.11697074
119	0xbdb57880	-0.08860874
120	0x3e0488fc	0.1294288
121	0x3e6f118f	0.23346542
122	0x3c268df3	0.010165679
123	0xbe94b61a	-0.29045182
124	0x3e2b9ba0	0.16758585
125	0x3e01b676	0.1266726
126	0xbe4c6f8c	-0.19964427
127	0xbda78a5c	-0.08180687
128	0x3e04c432	0.12965468
129	0xbe320c0b	-0.17387407
130	0xbe6d12b5	-0.23151667
131	0x3df7b568	0.12095147
132	0xbe6d9a0b	-0.23203294
133	0xbe046d52	-0.12932327
134	0x3c854c28	0.016271666
135	0xbbd31c0a	-0.0064425515
136	0x3e449234	0.19196397
137	0x3e3d1a67	0.18467103
138	0xbe864475	-0.26224104
139	0x3dbca3e2	0.09210946
140	0xbc992a79	-0.01869701
141	0x3e0559e4	0.13022572
142	0xbdb0dd5a	-0.086359695
143	0xbe49be63	-0.19701533
144	0xbd964183	-0.07336714
145	0x3c24f231	0.010067509
146	0x3e42fb2a	0.19041124
147	0x3e0c217f	0.13684653
148	0xbde9451c	-0.11390135
149	0x3e304b59	0.17216243
150	0xbe87b1fc	-0.2650298
151	0xbdf4160c	-0.119182676
152	0x3df9cf23	0.12197711
153	0xbe5cf11c	-0.21576351
154	0x3c250b38	0.010073476
155	0xbe10de88	-0.14147389
156	0xbd60a740	-0.054847002
157	0x3de00b02	0.109395996
158	0xbe37d900	-0.17953873
159	0xbd6fb0b7	-0.058518138
160	0xbd3ea53a	-0.04654429
161	0xbcf69fb3	-0.030105447
162	0x3dc7d93a	0.097582296
163	0x3dcda1c8	0.10040623
164	0xbdca0f74	-0.09866229
165	0x3dcf48d2	0.10121311
166	0xbce48b67	-0.027898503
167	0x3d310afb	0.043223362
168	0xbddfa9bc	-0.10921046
169	0xbdb8c4a9	-0.09021885
170	0x3e0980bb	0.13428013
171	0x3e20326c	0.15644234
172	0xbdb4e623	-0.088329576
173	0x3d3da489	0.04629949
174	0x3e826b9a	0.25472718
175	0xbca806e0	-0.02051109
176	0xbe78c727	-0.2429472
177	0x3dbbb3d7	0.09165161
178	0xbde27c92	-0.11058916
179	0xbe4dbab8	-0.20090759
180	0x3db122fb	0.0864925
181	0xbe1d4bb7	-0.15360914
182	0xbde66536	-0.11249773
183	0x3d650ae5	0.055918593
184	0xbd50bae1	-0.05095947
185	0x3e24601a	0.16052285
186	0x3e0def19	0.1386074
187	0xbc925d1f	-0.01786667
188	0xbe8400c6	-0.2578184
189	0xbe64ba6b	-0.22336738
190	0xbe1c3764	-0.15255505
191	0xbe456aa7	-0.19278966
192	0x3d6f165e	0.05837094
193	0xbda2b25b	-0.07944175
194	0xbd8b10d2	-0.067903176
195	0x3e2e73e7	0.170364
196	0x3d61e9ce	0.055154614
197	0x3e49e1fd	0.19715114
198	0x3d23610e	0.03988748
199	0x3e2fafd7	0.17156921
200	0x3cf05348	0.029336587
201	0xbdf02493	-0.11725726
202	0x3ca32b06	0.019917976
203	0x3e4f9273	0.2027071
204	0xbe0fae3f	-0.14031313
205	0x3e1826fa	0.14858618
206	0x3dcdab30	0.10042417
207	0xbe723320	-0.23652315
208	0xbe12ec42	-0.14347938
209	0x3dca13be	0.09867047
210	0xb9327e0f	-0.00017022363
211	0x3d038094	0.032105044
212	0xbd0234e0	-0.031788707
213	0x3d1fc2fc	0.03900431
214	0xbe8181bd	-0.25294295
215	0x3d91f6da	0.07127161
216	0x3e718326	0.23585185
217	0x3e481c3e	0.19542024
218	0x3e243134	0.16034395
219	0xbe858ca0	-0.2608385
220	0x3e1c196c	0.15244073
221	0xbe53c388	-0.20680058
222	0x3e0204c2	0.12697127
223	0xbe5448fd	-0.20730968
224	0xbd322866	-0.04349556
225	0xbe7a41bb	-0.24439137
226	0x3e3582d5	0.1772569
227	0xbe6406de	-0.22268245
228	0x3cd79c77	0.026319725
229	0xbc127c2e	-0.00894074
230	0xbe2f3cbb	-0.1711301
231	0xbe214ba2	-0.15751508
232	0xbc122556	-0.008920034
233	0x3e75e683	0.24013714
234	0x3e01d67c	0.12679476
235	0x3deea501	0.11652566
236	0xbb5bae9c	-0.0033520823
237	0xbbc3d475	-0.0059762546
238	0x3e6dfdc8	0.23241341
239	0xbe2c83b6	-0.16847119
240	0x3bfe2275	0.0077555724
241	0x3d53b184	0.051682964
242	0x3e14d872	0.14535692
243	0x3df7db9b	0.12102433
244	0xba4b4f46	-0.0007755648
245	0xbe25431c	-0.16138881
246	0x3dccfbe8	0.10008985
247	0x3d6d2802	0.057899483
248	0xbe6539ad	-0.22385283
249	0x3e3f92d4	0.18708354
250	0x3e0ff85a	0.14059582
251	0xbc70105b	-0.014652337
252	0x3e16b600	0.14717865
253	0x3df5ef1b	0.120084964
254	0x3d40a67c	0.047033772
255	0xbdbe2731	-0.09284819

INN.linear_list.0.bias f4 [20]
0	0x3bc9d0e8	0.006158937
1	0xbe960957	-0.29304
2	0x3de710af	0.11282479
3	0x3e88914c	0.26673353
4	0x3c667bb7	0.014067582
5	0x3e1f5a16	0.15561709
6	0xbe8f3ad3	-0.27974567
7	0xbbe4d329	-0.00698318
8	0x3db29ccf	0.08721315
9	0x3db1a6cd	0.08674393
10	0xbda9e237	-0.082951
11	0xbe6abcb9	-0.22923554
12	0x3e600cd7	0.21879898
13	0x3e364120	0.1779828
14	0xbc322d33	-0.010875034
15	0xbe984994	-0.29743636
16	0xbdce514b	-0.10074099
17	0xbdda549d	-0.1066067
18	0x3e507a83	0.20359235
19	0xbcc8ee51	-0.0245277

INN.linear_list.1.weight f4 [20, 20]
0	0xbdf3722c	-0.11887011
1	0x3bf2cff8	0.0074100457
2	0x3e9cc3bd	0.30618086
3	0xbd160566	-0.036626242
4	0x3e24c9b1	0.16092564
5	0x3e3de2ff	0.18543623
6	0xbe3726c0	-0.17885876
7	0xbd0ecb6f	-0.03486198
8	0xbe0c9ee6	-0.1373249
9	0x3e0bb2c7	0.13642417
10	0x3d2526d9	0.04032025
11	0x3e47e707	0.19521724
12	0x3db8ce6d	0.090237476
13	0xbe4d4d16	-0.20048937
14	0x3e159ead	0.14611311
15	0xbe1632e0	-0.14667845
16	0x3cbd946b	0.02314206
17	0xbe19ad18	-0.15007436
18	0x3c71d0d0	0.014759257
19	0xbcb5efe3	-0.022209113
20	0x3db30550	0.08741248
21	0xbe12c6bd	-0.14333625
22	0x3bb57193	0.0055372207
23	0xbe8cdc30	-0.2751174
24	0xbd75d13f	-0.060014006
25	0x3d0057b7	0.03133365
26	0xbcfa4210	-0.03054908
27	0x3cb1daf9	0.02171086
28	0x3e2314cd	0.15925904
29	0xbe5fdc68	-0.21861422
30	0x3df57536	0.11985247
31	0x3e28f3e8	0.16499293
32	0xbd26dbe7	-0.04073706
33	0x3db23c52	0.087029114
34	0x3d92067a	0.071301416
35	0x3e1bf206	0.15229043
36	0xbde12a1f	-0.10994362
37	0xbcdba4e1	-0.026812019
38	0x3d7253ab	0.059161823
39	0x3dc052f1	0.0939082
40	0xbd893cf9	-0.06701083
41	0x3b2a2e3d	0.0025967502
42	0x3e9e7150	0.30945826
43	0x3e243cf3	0.16038875
44	0x3dcb17a4	0.099166185
45	0x3e78e166	0.24304733
46	0xbc976335	-0.018479923
47	0x3d1e5f2e	0.03866499
48	0x3dd53918	0.104112804
49	0x3d80c8f2	0.06288327
50	0x3d51accb	0.05119018
51	0xbe004295	-0.12525399
52	0xbe1895f9	-0.1490096
53	0xbe46f69e	-0.19430014
54	0xbb817304	-0.0039504785
55	0x3b120814	0.0022282647
56	0x3cc89491	0.024484904
57	0xbc3217ed	-0.010869962
58	0x3ca61261	0.020272436
59	0x3e043104	0.12909323
60	0x3d185b8a	0.037196673
61	0x3e5dca1b	0.21659128
62	0x3dcede1c	0.10100958
63	0xbe023f98	-0.12719572
64	0x3e73af0d	0.23797245
65	0xbdb41f5a	-0.08795042
66	0xbe201f37	-0.15636908
67	0xbdacdcfb	-0.08440586
68	0x3e3b239b	0.18275301
69	0x3e1283d1	0.14308096
70	0xbe093bf7	-0.13401781
71	0xbe608842	-0.21926978
72	0x3e5a71a4	0.21332413
73	0xbe2a0f25	-0.1660734
74	0xbe24b9e3	-0.16086535
75	0x3e0241b1	0.12720372
76	0x3e48b84e	0.19601557
77	0x3df622e7	0.12018376
78	0xbe107218	-0.14106023
79	0xbddc7abc	-0.10765597
80	0xbdf5a123	-0.11993625
81	0x3db21418	0.08695239
82	0xbdefd24a	-0.11710031
83	0x3e519fab	0.20471065
84	0xbdb253bd	-0.08707378
85	0x3e85a43a	0.26101857
86	0x3da836fb	0.08213612
87	0x3e16ddc9	0.14733042
88	0x3de34596	0.11097257
89	0xbc91f90c	-0.01781895
90	0xbe131edf	-0.14367245
91	0xbe249727	-0.16073285
92	0xbd746f0a	-0.059676208
93	0x3e1dff76	0.15429482
94	0xbc8cf996	-0.017208856
95	0x3cddd5cd	0.027079487
96	0x3d47478a	0.04865221
97	0x3dba69a9	0.09102184
98	0xbdc63eb6	-0.0967993
99	0x3e182bf8	0.14860523
100	0x3d1e0171	0.038575593
101	0x3e13fe68	0.14452517
102	0xbe99883a	-0.29986745
103	0x3dd82152	0.1055323
104	0x3e13bf66	0.14428481
105	0x3e1556fe	0.14583966
106	0xbe4ef959	-0.20212306
107	0x3ddfce39	0.10928006
108	0xbd90113c	-0.07034537
109	0x3dcf7361	0.10129429
110	0x3e487920	0.19577456
111	0xbd972ca7	-0.07381564
112	0x3d0c8017	0.034301843
113	0x3dca1233	0.098667525
114	0xbe2a4184	-0.16626555
115	0x3e3601de	0.1777415
116	0x3cb2d483	0.02182985
117	0xbe682222	-0.2266927
118	0xbe21c7d3	-0.15798883
119	0xbe3107db	-0.17288153
120	0x3dfaf911	0.12254537
121	0xbe477737	-0.1947907
122	0x3e88d0f8	0.2672193
123	0x3e86470b	0.26226076
124	0x3d5d8e61	0.05409086
125	0x3d6d507d	0.057938088
126	0x3cdb7134	0.026787378
127	0xbd87956c	-0.06620297
128	0xbe40bf89	-0.18823065
129	0xbcbdb86c	-0.023159228
130	0xbe4bdb25	-0.19907816
131	0xbe47c757	-0.19509636
132	0x3c6d0205	0.0144658135
133	0x3c8ab60c	0.01693251
134	0x3c66ba95	0.014082571
135	0x3d164533	0.036687087
136	0xbe5d27da	-0.21597233
137	0xbdfcf7af	-0.123519294
138	0x3d727284	0.05919124
139	0xbe44daeb	-0.19224136
140	0x3e521fef	0.20519994
141	0xbc9f6390	-0.019456655
142	0xbe945abe	-0.2897548
143	0xbe110755	-0.14162953
144	0x3dfa58c5	0.12223963
145	0xbd9e1bb4	-0.07720128
146	0x3de59a22	0.11211039
147	0xbd921945	-0.07133726
148	0xbd37da4e	-0.044885926
149	0x3c8518d2	0.016247187
150	0xbe36db78	-0.17857158
151	0xbd6074ff	-0.054799076
152	0xbe5df886	-0.21676835
153	0x3d88cd7e	0.066798195
154	0x3d8292df	0.0637567
155	0x3e067598	0.13130796
156	0xbcc2e626	-0.023791384
157	0x3e1bd6eb	0.15218703
158	0xbd9ae90d	-0.07563982
159	0xbe374aa6	-0.1789957
160	0x3bd1239a	0.006382418
161	0x3a475c1d	0.00076049735
162	0x3e593cc9	0.21214594
163	0x3e48b2a9	0.19599403
164	0xbd412ae8	-0.04716006
165	0x3e6b7325	0.22993143
166	0x3dc6f80a	0.097152784
167	0x3a1967aa	0.0005851934
168	0x3dc9fddb	0.09862872
169	0xbc8d2807	-0.017231
170	0x3e70d70d	0.23519535
171	0xbe2dbf00	-0.16967392
172	0x3e046f62	0.12933114
173	0xbe3db2c0	-0.18525219
174	0x3cb284b3	0.021791792
175	0x3e076492	0.13221958
176	0xbe53a3ba	-0.20667925
177	0xbe32a0ef	-0.17444204
178	0x3cffcaf2	0.031224702
179	0x3e4ad564	0.19807965
180	0x3e4f6e90	0.2025702
181	0x3e40474e	0.187772
182	0xbe9cdb10	-0.3063588
183	0xbe27ee03	-0.16399388
184	0x3e12543e	0.14289948
185	0xbe73a487	-0.23793231
186	0x3c898c09	0.016790407
187	0xbe4a1c3e	-0.19737336
188	0xbbfc053d	-0.007691054
189	0x3e449bcc	0.19200057
190	0x3ddae937	0.106890135
191	0xbda8ea60	-0.082478285
192	0xbd9cd906	-0.076585814
193	0xbe177c3e	-0.14793488
194	0x3d3178d8	0.043328136
195	0x3e3c55e4	0.1839214
196	0xbe4574f6	-0.19282898
197	0x3cd71eca	0.026259799
198	0x3d93bebf	0.07214116
199	0x3e446a34	0.19181138
200	0xbd6cf70d	-0.057852793
201	0x3e1a4f85	0.15069397
202	0xbd02eb14	-0.03196247
203	0x3e1c6f71	0.15276887
204	0xbd199743	-0.03749777
205	0xbe0c9ff1	-0.13732888
206	0x3e3f240f	0.18666099
207	0xbda2835f	-0.07935213
208	0x3dba2c93	0.09090533
209	0xbe517f35	-0.20458682
210	0x3e31e719	0.17373313
211	0xbd4934b0	-0.049122512
212	0x3aa42228	0.0012522386
213	0x3d1acec6	0.03779485
214	0x3e184ab1	0.14872243
215	0xbd8cad78	-0.06869024
216	0xbdb03c80	-0.086052895
217	0x3e416d5f	0.18889378
218	0x3de80b72	0.11330308
219	0x3e1af0b8	0.1513089
220	0xbe35134a	-0.1768314
221	0xbe48bf27	-0.19604169
222	0x3d57bc50	0.052669823
223	0xbda44830	-0.08021581
224	0x3d7af9b8	0.061273307
225	0x3e826d35	0.25473943
226	0xbdbd7374	-0.092505366
227	0x3de1fbef	0.11034381
228	0xbc919156	-0.017769497
229	0xbda64882	-0.081192985
230	0xbd559604	-0.05214502
231	0x3c24684b	0.010034631
232	0x3dc70384	0.097174674
233	0xbe12c2d6	-0.14332137
234	0xbe1d4f98	-0.15362394
235	0x3d37cbbb	0.044872027
236	0x3d90f215	0.070774235
237	0x3d8d609a	0.06903191
238	0x3b549298	0.003243601
239	0x3e112633	0.14174728
240	0xbdaeed6d	-0.08541379
241	0xbdd28184	-0.102786094
242	0x3d602bcb	0.054729264
243	0xbdbbe8b9	-0.09175248
244	0xbe4ab2bd	-0.19794746
245	0xbd6a15a1	-0.057149533
246	0x3e3b832e	0.1831176
247	0xbc47d95a	-0.012197817
248	0x3e242fce	0.16033861
249	0xbdb793d7	-0.08963745
250	0xbde2b1ee	-0.11069094
251	0x3dd42960	0.10359454
252	0xbe19e869	-0.15030064
253	0xbd3e34a3	-0.046436917
254	0x3d8730d2	0.066011086
255	0xbdc87eca	-0.09789808

INN.linear_list.1.bias f4 [20]
0	0x3d298f83	0.04139663
1	0xbe7f42a1	-0.2492776
2	0x3e6d2fd4	0.23162776
3	0xbd838998	-0.06422728
4	0x3df56df6	0.11983864
5	0x3b03d399	0.0020115136
6	0x3e4d0ccd	0.20024414
7	0xbe73bcaa	-0.23802438
8	0xbe12b9b5	-0.14328654
9	0xbe1ad2f5	-0.15119536
10	0xbdade76d	-0.084914066
11	0x3d3bf9f5	0.045892674
12	0x3e0812d1	0.13288428
13	0xbdbf24e4	-0.09333208
14	0xbcd9ce1c	-0.026587538
15	0x3da0289c	0.078202456
16	0x3deebc11	0.116569646
17	0x3e73411c	0.23755306
18	0x3df8ff38	0.12158054
19	0x3e0edb23	0.13950782

INN.linear_list.2.weight f4 [1, 20]
0	0x3d54c9eb	0.051950376
1	0xbe44ec98	-0.19230878
2	0x3d49d1d8	0.04927239
3	0x3de508e8	0.11183339
4	0x3c2527be	0.010080276
5	0xbe10e787	-0.1415082
6	0x3dd4821b	0.10376378
7	0xbe026837	-0.12735067
8	0x3dde8939	0.10866017
9	0xbdc7c81d	-0.097549655
10	0xbd008711	-0.03137881
11	0x3cb9fb74	0.02270291
12	0x3c73c348	0.014878102
13	0xbe3b2fce	-0.18279955
14	0xbe8fc104	-0.28076947
15	0xbdc5a820	-0.09651208
16	0x3bad5f28	0.0052908845
17	0x3e396214	0.1810382
18	0x3e67afeb	0.22625701
19	0x3e0aec5b	0.13566725
