runtime data/model_save.pt (torch, 33259 bytes, 8 tensors)

GNN.adjacency_matrix f4 [80, 80]
00000000: 0000 80bf 0425 603f 0000 80bf 0000 80bf
00000010: 0000 80bf 0000 80bf 0000 80bf 0000 80bf
00000020: 0000 80bf 0000 80bf 0000 80bf 0000 80bf
00000030: 0000 80bf 0000 80bf 0000 80bf 0000 80bf
00000040: 0000 80bf 0000 80bf 0000 80bf 0000 80bf
00000050: 0000 80bf 0000 80bf 0000 80bf 0000 80bf
00000060: 0000 80bf 0000 80bf 0000 80bf 0000 80bf
00000070: 0000 80bf 0000 80bf 0000 80bf 0000 80bf
00000080: 0000 80bf 0000 80bf 0000 80bf 0000 80bf
00000090: 0000 80bf 0000 80bf 0000 80bf 0000 80bf
000000a0: 0000 80bf 0000 80bf 0000 80bf 0000 80bf
000000b0: 0000 80bf 0000 80bf 0000 80bf 0000 80bf
000000c0: 0000 80bf 0000 80bf 0000 80bf 0000 80bf
000000d0: 0000 80bf 0000 80bf 0000 80bf 0000 80bf
000000e0: 0000 80bf 0000 80bf 0000 80bf 0000 80bf
000000f0: 0000 80bf 0000 80bf 0000 80bf 0000 80bf
00000100: 0000 80bf 0000 80bf 0000 80bf 0000 80bf
00000110: 0000 80bf 0000 80bf 0000 80bf 0000 80bf
00000120: 0000 80bf 0000 80bf 0000 80bf 0000 80bf
00000130: 0000 80bf 0000 80bf 0000 80bf 0000 80bf
00000140: 416b b53e 0000 80bf 0000 80bf 0000 80bf
00000150: 0000 80bf 0000 80bf 0000 80bf 0000 80bf
00000160: 0000 80bf cab8 5f3e 0000 80bf 0000 80bf
00000170: 0000 80bf 0000 80bf 0000 80bf 0000 80bf
00000180: 0000 80bf 0000 80bf 0000 80bf 0000 80bf
00000190: 0000 80bf 0000 80bf 0000 80bf 0000 80bf
000001a0: 0000 80bf 0000 80bf 0000 80bf 0000 80bf
000001b0: 0000 80bf 0000 80bf 0000 80bf 0000 80bf
000001c0: 0000 80bf 0000 80bf 0000 80bf 0000 80bf
000001d0: 0000 80bf 0000 80bf 0000 80bf 0000 80bf
000001e0: 0000 80bf 0000 80bf 0000 80bf 0000 80bf
000001f0: 0000 80bf 0000 80bf 0000 80bf 0000 80bf
00000200: 0000 80bf 0000 80bf 0000 80bf 0000 80bf
00000210: 0000 80bf 0000 80bf 0000 80bf 0000 80bf
00000220: 0000 80bf 0000 80bf 0000 80bf 0000 80bf
00000230: 0000 80bf 0000 80bf 0000 80bf 0000 80bf
00000240: 0000 80bf 0000 80bf 0000 80bf 0000 80bf
00000250: 0000 80bf 0000 80bf 0000 80bf 0000 80bf
00000260: 0000 80bf 0000 80bf 0000 80bf 0000 80bf
00000270: 0000 80bf 0000 80bf 0000 80bf 0000 80bf
00000280: 0000 80bf 0000 80bf 0000 80bf 0000 80bf
00000290: 0000 80bf 0000 80bf 0000 80bf 0000 80bf
000002a0: 0000 80bf 0000 80bf 0000 80bf 0000 80bf
000002b0: 0000 80bf 0000 80bf 0000 80bf 0000 80bf
000002c0: 0000 80bf 0000 80bf 0000 80bf 0000 80bf
000002d0: 0000 80bf 0000 80bf 0000 80bf 0000 80bf
000002e0: 0000 80bf 0000 80bf 0000 80bf 0000 80bf
000002f0: 0000 80bf 0000 80bf 0000 80bf 0000 80bf
00000300: 0000 80bf 0000 80bf 0000 80bf 0000 80bf
00000310: 0000 80bf 0000 80bf 0000 80bf 0000 80bf
00000320: 0000 80bf 0000 80bf 0000 80bf 0000 80bf
00000330: 0000 80bf 0000 80bf 0000 80bf 0000 80bf
00000340: 0000 80bf 0000 80bf 0000 80bf 0000 80bf
00000350: 0000 80bf 0000 80bf 0000 80bf 0000 80bf
00000360: 0000 80bf 0000 80bf 0000 80bf 0000 80bf
00000370: 0000 80bf 0000 80bf 0000 80bf 0000 80bf
00000380: 0000 80bf 0000 80bf 0000 80bf 0000 80bf
00000390: 0000 80bf 0000 80bf 0000 80bf 0000 80bf
000003a0: 0000 80bf 0000 80bf 0000 80bf 0000 80bf
000003b0: 0000 80bf 0000 80bf 0000 80bf 0000 80bf
000003c0: 0000 80bf 0000 80bf 0000 80bf 0000 80bf
000003d0: 0000 80bf 0000 80bf 0000 80bf 0000 80bf
000003e0: 0000 80bf 0000 80bf 0000 80bf 0000 80bf
000003f0: 0000 80bf 0000 80bf 0000 80bf 0000 80bf
-1.0 0.8755648 -1.0 -1.0 -1.0 -1.0 -1.0 -1.0
-1.0 -1.0 -1.0 -1.0 -1.0 -1.0 -1.0 -1.0
-1.0 -1.0 -1.0 -1.0 -1.0 -1.0 -1.0 -1.0
-1.0 -1.0 -1.0 -1.0 -1.0 -1.0 -1.0 -1.0
-1.0 -1.0 -1.0 -1.0 -1.0 -1.0 -1.0 -1.0
-1.0 -1.0 -1.0 -1.0 -1.0 -1.0 -1.0 -1.0
-1.0 -1.0 -1.0 -1.0 -1.0 -1.0 -1.0 -1.0
-1.0 -1.0 -1.0 -1.0 -1.0 -1.0 -1.0 -1.0
-1.0 -1.0 -1.0 -1.0 -1.0 -1.0 -1.0 -1.0
-1.0 -1.0 -1.0 -1.0 -1.0 -1.0 -1.0 -1.0
0.3543339 -1.0 -1.0 -1.0 -1.0 -1.0 -1.0 -1.0
-1.0 0.21847835 -1.0 -1.0 -1.0 -1.0 -1.0 -1.0
-1.0 -1.0 -1.0 -1.0 -1.0 -1.0 -1.0 -1.0
-1.0 -1.0 -1.0 -1.0 -1.0 -1.0 -1.0 -1.0
-1.0 -1.0 -1.0 -1.0 -1.0 -1.0 -1.0 -1.0
-1.0 -1.0 -1.0 -1.0 -1.0 -1.0 -1.0 -1.0
-1.0 -1.0 -1.0 -1.0 -1.0 -1.0 -1.0 -1.0
-1.0 -1.0 -1.0 -1.0 -1.0 -1.0 -1.0 -1.0
-1.0 -1.0 -1.0 -1.0 -1.0 -1.0 -1.0 -1.0
-1.0 -1.0 -1.0 -1.0 -1.0 -1.0 -1.0 -1.0
-1.0 -1.0 -1.0 -1.0 -1.0 -1.0 -1.0 -1.0
-1.0 -1.0 -1.0 -1.0 -1.0 -1.0 -1.0 -1.0
-1.0 -1.0 -1.0 -1.0 -1.0 -1.0 -1.0 -1.0
-1.0 -1.0 -1.0 -1.0 -1.0 -1.0 -1.0 -1.0
-1.0 -1.0 -1.0 -1.0 -1.0 -1.0 -1.0 -1.0
-1.0 -1.0 -1.0 -1.0 -1.0 -1.0 -1.0 -1.0
-1.0 -1.0 -1.0 -1.0 -1.0 -1.0 -1.0 -1.0
-1.0 -1.0 -1.0 -1.0 -1.0 -1.0 -1.0 -1.0
-1.0 -1.0 -1.0 -1.0 -1.0 -1.0 -1.0 -1.0
-1.0 -1.0 -1.0 -1.0 -1.0 -1.0 -1.0 -1.0
-1.0 -1.0 -1.0 -1.0 -1.0 -1.0 -1.0 -1.0
-1.0 -1.0 -1.0 -1.0 -1.0 -1.0 -1.0 -1.0

GNN.self_temp_w f4 [80]
00000000: 423e 823f 0348 943f 9303 a33f 8cae 963f
00000010: 89f5 963f aa3c 843f b278 5c3f a0e0 573f
00000020: 9221 5c3f 25fe 793f ca23 9f3f c15f a03f
00000030: 50e5 8d3f 75f9 863f 179e 473f c47e 963f
00000040: ec76 5d3f 07e1 5a3f 1e91 543f 039e 5d3f
00000050: 55b7 823f 70b1 823f 8764 a03f 20b0 853f
00000060: abc6 663f 24cb 643f 01ac 5d3f 42fe 603f
00000070: 7468 723f 2df2 a23f 136b a13f e9d4 773f
00000080: f8be 4d3f c8b9 8e3f bd6a 9d3f 16f5 703f
00000090: eb63 6e3f 6415 553f ce4b 653f 9a1f 433f
000000a0: 0423 6c3f c069 603f aeb3 583f ca46 553f
000000b0: 87ef 753f 604f 9c3f 0f40 823f 04e7 503f
000000c0: 4da9 4a3f 576a 7e3f 5a58 a23f 0181 a33f
000000d0: 4401 763f 7597 683f 0ab2 673f a684 6d3f
000000e0: ab29 763f 24c4 9d3f 9c91 a13f 2ec6 a33f
000000f0: 861c a03f 452a 863f 3c1b 9c3f dfb8 823f
00000100: c535 5b3f 09fa 733f f063 a23f b590 673f
00000110: 7ab1 983f 6d7a 6f3f 3600 633f 7ce0 653f
00000120: 4f00 993f 726b 4b3f de6a 583f 94ad 4c3f
00000130: 84d8 a13f 3fcd 9c3f a15f 833f bec4 a13f
1.017525 1.1584476 1.2735466 1.1772017 1.1793681 1.0331013 0.86121666 0.84327126
0.85988724 0.9765342 1.2432797 1.2529222 1.1085606 1.0544878 0.779756 1.1757436
0.86509585 0.85499614 0.8303393 0.8656923 1.0212198 1.02104 1.2530679 1.0444374
0.90146893 0.8937247 0.8659058 0.87887967 0.9469063 1.2730156 1.2610801 0.9680925
0.8036952 1.1150446 1.2298199 0.9412397 0.9312121 0.83235765 0.89568794 0.76220095
0.9224093 0.8766136 0.8464917 0.8331114 0.96068615 1.2211723 1.0175799 0.816025
0.7916458 0.9938101 1.2683213 1.2773744 0.9609568 0.90856105 0.9050604 0.9278053
0.9615733 1.2325482 1.2622561 1.2794855 1.2508705 1.048165 1.2195811 1.0212668
0.8562892 0.953034 1.2686749 0.9045518 1.1929162 0.9354618 0.88672197 0.8979566
1.1953219 0.79460824 0.84538066 0.7995236 1.26442 1.2250136 1.0263559 1.2638166

GNN.other_temp_w f4 [80]
00000000: 62cd 6d3e 38e8 e93d cdcc 4c3e cdcc 4c3e
00000010: cdcc 4c3e ebb1 503e 50c7 0a3e 2156 173e
00000020: d825 053e ac04 453e cdcc 4c3e cdcc 4c3e
00000030: 09bf 163e ac66 4e3e b8e6 5d3e cdcc 4c3e
00000040: 31e1 5a3e 0455 2b3e 5fe8 0a3e e498 573e
00000050: 526f f03d 23e1 6d3e cdcc 4c3e 0bc4 6e3e
00000060: e92d 153e 5eeb 653e b5cd 543e 7f46 623e
00000070: 9636 9f3e cdcc 4c3e cdcc 4c3e f921 153e
00000080: 6dd6 253e 2b56 2d3e cdcc 4c3e da0e 313e
00000090: 23f6 3a3e 465f 613e 7c19 003e 2a37 883e
000000a0: b7ab 3b3e 9a86 203e fb4c 3a3e 465b 303e
000000b0: b847 093e cdcc 4c3e f9d1 ee3d cb8c 173e
000000c0: ed17 2d3e 0b4b 8d3e cdcc 4c3e cdcc 4c3e
000000d0: 455d 9c3e 96c3 503e 29e8 9e3e 9ba3 983e
000000e0: 14c6 1d3e dc83 2e3d cdcc 4c3e cdcc 4c3e
000000f0: cdcc 4c3e f44c 503e cdcc 4c3e 2d58 5a3e
00000100: 2ff0 4e3e e80e 303e cdcc 4c3e cb5a 993e
00000110: cdcc 4c3e 5f77 9c3e fb0b 483e ad9f 4b3e
00000120: cdcc 4c3e 127e 363e a5fc 243e 017c 473e
00000130: cdcc 4c3e cdcc 4c3e ff25 6d3e cdcc 4c3e
0.23222879 0.11421245 0.2 0.2 0.2 0.2038037 0.13552594 0.1477895
0.13002717 0.19240063 0.2 0.2 0.14721312 0.20156354 0.21670043 0.2
0.21374966 0.1673165 0.13565205 0.21054417 0.11739983 0.23230414 0.2 0.23316972
0.14568295 0.22453067 0.20781596 0.22097205 0.31096333 0.2 0.2 0.14563741
0.16195078 0.16927402 0.2 0.17290822 0.18257956 0.22009 0.12509722 0.26604587
0.18327223 0.15676346 0.18193428 0.17222318 0.13406265 0.2 0.11661143 0.14799802
0.16903658 0.27596316 0.2 0.2 0.3053991 0.2038711 0.310365 0.2981232
0.15407592 0.04260622 0.2 0.2 0.2 0.20341855 0.2 0.21322699
0.2020881 0.17193186 0.2 0.29952082 0.2 0.30559823 0.1953582 0.1988513
0.2 0.1782153 0.16112001 0.19480897 0.2 0.2 0.23159026 0.2

INN.linear_list.0.weight f4 [20, 19]
00000000: 3ef5 233f f4cf 8fbe c887 d03f 296b c9bd
00000010: 5d13 2f3e c81a a53e 333e adbd 3280 523d
00000020: 2f76 873d cb2a e83f ae17 f23e bc32 213e
00000030: 3b6a 2bbd 2c4e 3dbe cba5 83bc 0efe 32bd
00000040: ee01 f03d cbbc 163e a4db 913d 41f3 f3bf
00000050: 333a bdbd be48 4abf 941e e63e 7922 ccbc
00000060: 6a6d 13be 3e83 503e a5cd 0abd 82c3 6cbc
00000070: 0cd0 55bf 5b52 3ebf 0987 e73c 95a4 aebe
00000080: cbd2 cebc 5c40 3bbe 4c42 383c 3dc5 6b3d
00000090: 793d 9b3c e6d4 c3bd c165 9c3e dc3c 313e
000000a0: ecc8 9e3e a771 a9be b110 11bc 5a45 bfbd
000000b0: 8822 7b3c 36b4 bbbb 4131 833a 39c6 f53d
000000c0: a427 433e d274 0dbe 94ba b03d 1393 bb3d
000000d0: 6b88 86be c06c 813b ae27 75bc ea9e b23d
000000e0: 32eb 51bb 1f99 883f 0429 a5bd 5026 153f
000000f0: ac9e 18bf 5b3f b5bd c558 833e 2a5a 863d
00000100: a7b8 003d 5a45 d83c cccc 1b3f c06b 533f
00000110: ee1f 3fbe 4a1f 1abe 9781 48be f550 683d
00000120: cfd6 ad3e dd63 29bd a8c4 f9bb c27a 093e
00000130: d81b a13f 31b5 973d 732e c6bd bca5 c8be
00000140: c0d2 22be 806d 19be 319a a4bd c05a 2f3d
00000150: aa3a fb3c d334 2cbe 463f 023f d15c df3c
00000160: 05ee ecbd 19b8 c43a db89 99be ef12 28be
00000170: cad1 b23d b11a 90bd a16a 37be 1408 0c3f
00000180: 7bf1 2b3d 0abd 9d3e 5acc 19be a3ae e13d
00000190: 00c8 44be 0ed3 1cbd 79fe ea3c 080b 933c
000001a0: eeb0 9b3c 74cd 393d 170f 13bb 6bb3 0ebe
000001b0: a318 513d adcc 36be 7c87 28be 2863 e53c
000001c0: 1d78 643d 9c21 ffbd 246c 32bf a2e5 30bd
000001d0: 14dc 14bf c5c8 d63e cea4 0a3d 14af 983d
000001e0: 5c2e 6ebb c2a6 b53c 0d7e 0abd 2147 d7be
000001f0: 1a94 54bf f555 04be 6759 a8bd 0c31 0c3e
00000200: 194c a2bc 2f81 8a3e 4c57 863d c9b5 84bd
00000210: ca85 febd 5808 7fbf 8a43 c3bc fb6a e4be
00000220: dbc1 f93e c673 dbbd 4e6e 07bb 2ead aebb
00000230: 43e6 4abc 82e5 e6bc b2c9 bfbe ca8b e9be
00000240: f6f0 603d 4f6f c5bd 0ccd 063d 9cce 633e
00000250: 887b 5a3c e627 b4bb 2f44 583d 31b8 c83a
00000260: 2927 0740 1fe2 16bd 8959 d23e 92e1 3bbf
00000270: 4c86 423b 3e9c 13bd be1d a5bb e2d3 4b3c
00000280: 08b2 f9bc 889b 393f b1db 863f 754c 44bd
00000290: eb1d 363d 36eb afbc 8c15 d33e c6d9 a2be
000002a0: ab96 96bc d669 4c3e aed6 1abe 7c2a 0bbf
000002b0: 49a8 743c 56a5 97be e627 7f3e 9961 acbd
000002c0: c97a b9bd 5ebe e33d 78cc aa3b 2bf2 fbbc
000002d0: 7e9c 9cbe ba46 dabd eac3 5bbc 30a6 603e
000002e0: 7990 d83c 4069 673e aaf3 383e c3a1 3ebd
000002f0: c561 bb3d 3f00 a43d ef4b 743e 9d16 e13c
00000300: cbe4 f73f 5c24 50bc 889f 35bc 54f3 e93c
00000310: 8d72 893d eb9f 8cbd 4041 40bd 5f76 d53f
00000320: f927 c93e a04c 403e cd09 5c3e c4b0 a4be
00000330: ab34 cb3e cf5b a13e ddae 3e3e a998 543e
00000340: 08bc a3bb fe4e 18bf dcb0 80be a481 8a3e
00000350: e166 24be 59d0 90bd 817b ec3d aa39 313d
00000360: 6c46 84bc 73ea c4bc c735 ac3e 2fad bcbd
00000370: 7034 25bc 2109 3f3e c973 fbbd e291 293e
00000380: a619 013f fde4 e4bc 3ee9 423d b83c ca3d
00000390: cbf4 a93f 5a93 98be 7d1e b53e 999e 8a3e
000003a0: eac7 9bb8 437e c0bd b499 11bd 1a4a 5c3d
000003b0: dde6 29bd 8d27 123f bb21 56be 4653 7cbe
000003c0: edad eb3e f0c1 d63e fd83 3f3e c0a0 10bf
000003d0: 93fe 8f3d c349 01be 9755 4d3d d0ce c3be
000003e0: 85e2 413c 8948 d0be c24c 9a3e f45a 913d
000003f0: 4561 b1bd 24b6 9e3d fa33 cc3c 2e84 a23b
0.64046085 -0.28088343 1.6291437 -0.09834892 0.1709723 0.32246995 -0.08459129 0.051391788
0.066143386 1.8138059 0.4728369 0.1574201 -0.041849356 -0.18486851 -0.016070267 -0.043699317
0.11719118 0.14720456 0.07121971 -1.905861 -0.09239616 -0.79017246 0.44945204 -0.024918782
-0.14397207 0.20362565 -0.033887524 -0.01445091 -0.8352058 -0.74344414 0.028262632 -0.3410994
-0.025246998 -0.1828627 0.011246275 0.057561148 0.01895021 -0.095620915 0.30546382 0.17308372
0.31012666 -0.33094522 -0.008854077 -0.093394 0.015328057 -0.00572827 0.0010009186 0.120006986
0.1905809 -0.13814095 0.08629337 0.091589116 -0.26275954 0.0039497316 -0.014963074 0.08721717
-0.0032031056 1.0671729 -0.08064464 0.58261585 -0.59617114 -0.08849975 0.25653663 0.06560166
0.0314261 0.026400257 0.6085937 0.8258629 -0.18664524 -0.15050998 -0.19580685 0.05671783
0.33952948 -0.041355003 -0.00762232 0.13425735 1.2586622 0.074076064 -0.09676828 -0.39188945
-0.15900707 -0.14983177 -0.08037222 0.042811155 0.030667622 -0.16817026 0.508778 0.027265938
-0.11568836 0.0015008479 -0.29987988 -0.16413473 0.0873142 -0.07036341 -0.1791177 0.54699826
0.04197834 0.30808288 -0.1501936 0.110196374 -0.19216919 -0.038287215 0.028685795 0.017949596
0.019005265 0.04536195 -0.0022439414 -0.1393563 0.051048886 -0.17851515 -0.16457933 0.028001383
0.05577861 -0.12457582 -0.6969626 -0.043187745 -0.5814831 0.4195005 0.033848576 0.074552685
-0.003634355 0.022174243 -0.033811618 -0.42046455 -0.83038485 -0.12923415 -0.08220177 0.13690585
-0.019811677 0.27051684 0.06559619 -0.06479985 -0.12427862 -0.99622107 -0.023835916 -0.4461287
0.48780712 -0.107154414 -0.0020665112 -0.005330703 -0.012384 -0.02818561 -0.3745857 -0.45614463
0.0549173 -0.09640371 0.03291039 0.22246784 0.013335116 -0.0054979203 0.0527994 0.0015313682
2.1117651 -0.03683674 0.41083935 -0.7339107 0.0029682098 -0.036037676 -0.005038946 0.0124406535
-0.0304804 0.72502947 1.0535794 -0.047924478 0.044462126 -0.021474462 0.41227376 -0.31806773
-0.018382391 0.19962248 -0.15120956 -0.543617 0.0149327 -0.2961833 0.24917564 -0.08417053
-0.090566225 0.11120294 0.005212363 -0.030755123 -0.30588144 -0.10658021 -0.013413409 0.21938396
0.026436077 0.22598743 0.180617 -0.046540987 0.091495074 0.080078594 0.23857091 0.027476603
1.9366697 -0.012703981 -0.0110853985 0.02855841 0.06711302 -0.068664394 -0.046937227 1.6676749
0.3928831 0.1877923 0.21488114 -0.3216611 0.3968862 0.31515357 0.18621393 0.2076136
-0.0049967803 -0.5949553 -0.25134933 0.27052033 -0.1605487 -0.07070989 0.11546994 0.043267883
-0.016146861 -0.024037575 0.3363478 -0.0921272 -0.010083303 0.18655826 -0.12277944 0.16559556
0.5042976 -0.027941221 0.04758572 0.098748624 1.327783 -0.2979992 0.35374823 0.27074125
-7.428213e-05 -0.093990825 -0.035546973 0.053781606 -0.041479934 0.570916 -0.20911305 -0.24641141
0.46031132 0.41944838 0.18702693 -0.56495285 0.07030978 -0.12625794 0.050130453 -0.38243723
0.011833792 -0.4068034 0.30136687 0.07097426 -0.08661131 0.07749584 0.024927128 0.0049596047

INN.linear_list.0.bias f4 [20]
00000000: 70ad cf3d 2e85 72be 27f3 563e e61b dc3d
00000010: 9895 0fbe 4eac f9bd b16e f2bc 96cf 763d
00000020: 70b3 85be 0872 9dbc 3463 9ebd 3f5e 84be
00000030: 70e0 88be 0e0d 673e 6260 6dbc 5a4b ef3d
00000040: 8e47 bebd 44d4 88be 8712 353e 09fd 6cbb
0.101405025 -0.23683617 0.20991193 0.10747509 -0.14021909 -0.12191068 -0.029593797 0.060256563
-0.26113462 -0.019219413 -0.07733765 -0.25853154 -0.26733732 0.22563574 -0.0144883115 0.11684294
-0.09290992 -0.26724446 0.17682849 -0.0036161563

INN.linear_list.1.weight f4 [20, 20]
00000000: 2552 36bd 5408 7cbb fb1f 8cbc 3639 e63c
00000010: 89bf 1c3d 4cb3 d63c 8c43 533d d9c9 a0bc
00000020: 3c38 02bd 5c05 8c3c cd19 4c3d f797 5dbc
00000030: c520 0a3d 835e 2d3d bc78 343c f353 833d
00000040: 8c51 33bb d68e 6c3c 6dd0 3c3d ae75 043c
00000050: e94d 95bd 60dd 78bc 3a0c 4b3d 2fe7 603c
00000060: f228 be3c da29 2e3d 2992 59bd e84e 16bd
00000070: eb23 91bc 65cd dfbc 4a70 a33d 963a 09bd
00000080: 00c5 213d 229c edbc 5d85 9b3d 1167 033e
00000090: e492 93bc 24b4 bd3c f046 a63d 3e85 7c3d
000000a0: 6a85 ccbd 9859 febc efeb 9b3c 1139 f03d
000000b0: 57dd 683d 80bf 893d 76e2 a8bd 10f4 85bd
000000c0: d01b 9bbd 30bf 5dbc 1635 de3d ce74 47bd
000000d0: 6d75 2c3d cbcb 1fbd 22ac 183c 3536 013e
000000e0: ca73 62bc f947 113b 8938 d23d 2c40 5a3d
000000f0: ffc1 c3bc 8559 15bc 7861 02bc 058b 4b3c
00000100: 0acb b43c 3f17 d83c 219f dbbc 9a79 2dbc
00000110: f771 063c 6f35 a03c d068 b13c fe7a b639
00000120: dd37 22bc 6300 423d aee4 363d 64a7 ec3c
00000130: bac7 963c 4eb6 b43c 422c 4a3d 046f f83a
00000140: 7646 fd3d b450 833d ccfb bcbc b008 f5bd
00000150: ca98 28be 8b8a 61bd 50c5 893d 4287 f73d
00000160: 2234 d73d c1f3 1c3d 8fa7 0abe a941 c33c
00000170: 9441 7b3d c176 3e3d 226f 183d 4a0f 5dbe
00000180: 07f1 c23c 0848 9fbd 28ad 48bd b2c7 e4bd
00000190: 98ba 28be 5156 c3bd ef09 b8bd 5c4a 07be
000001a0: f02d 123d 2652 d5bc 0707 ab3d bf71 23be
000001b0: 6a19 afbd ac6b f8bc 31c6 4abe f506 f53d
000001c0: dbaa 923d e823 ae3d e91a f5bd 354f f3bc
000001d0: 3d4d 443d 31c7 b93d 4389 0e3d d34e 5bbd
000001e0: a380 04bd 0682 3b3c 5571 0ebc 9c37 853c
000001f0: 943e 153c 7559 713c c900 e73c fad1 afbc
00000200: 5f2d a53b a72f e4bb b959 043d 45c0 1ebc
00000210: a402 ddba 86d3 aabb 5b75 6f3b 6ac4 3e3d
00000220: 5e7f 55bb 82a2 223d 9728 6b3c 4b6c 9b3b
00000230: d795 4f3d fa4a 2e3d 15e6 1cbc 99db 47bd
00000240: 0065 fabc d0d6 3bbd 5ee0 a23c 732c 163d
00000250: 1e66 603c e765 1dbc 882a 3bbd da3f 8a3d
00000260: 1ccf 943b 135e b93c bc0b c2bc da4c e9bc
00000270: 9c26 3e3b 71c5 09bd 49b1 80bc 2584 95bc
00000280: 303c 3c3d 58a7 d8bd b2d6 c43c 48cc 033c
00000290: 900c 14b9 7336 0bbb d362 d03c 8a38 9a3d
000002a0: ba31 dabd 4182 733d e919 3ebd 9892 1d3d
000002b0: 9f45 783d 1c03 babb 4da5 35bd 3ce1 20be
000002c0: f100 1e3d c09d 31bd 8056 af3d 6bcc 11bd
000002d0: f039 d7bc 8705 edbc 1af4 883c 43b0 5f3c
000002e0: c7ff 963c 025f 3c3c f0a9 263d a258 6abc
000002f0: 794e d7bb f1e1 013d 68cc ff3c fd99 173a
00000300: ff1f 773c 9698 653d c078 b73c 7aea 5e3d
00000310: 6671 3d3b c299 15bb 6aa6 1c3d 4e85 bb3b
00000320: c81b a3bd 0b06 1bbd 745c 703d 5403 6b3d
00000330: 91e8 2f3c 01b8 443d 6890 63bd 9e75 e0bc
00000340: 996a 0dbd 8e46 5ebd 1fd7 b63d 102a d8bc
00000350: 7b29 863d d89c 41b9 85a4 1e3d 66d7 0f3e
00000360: 7258 abbc 49c5 bc3c 43c8 b63d 7535 333d
00000370: 7bb4 59bd 056d 30bc 34de b13c 2a30 0b3d
00000380: 1ae3 d03b 13fc 1f3c 51d3 aabc df0d 49bd
00000390: 9115 b9bc 2539 953b add8 763d e2b2 37bd
000003a0: 901c f73c 69fc 9e3c 4e3a 813d 9f4d d53d
000003b0: 2a28 d7bc c7bb b93c 7266 723d dd43 123c
000003c0: a88d 1bbd e4c9 65bc 55da 96bb 2a3f 883b
000003d0: 1cc6 033d 93ea 0a3d 24e7 053b eacd 22bc
000003e0: c1bc cdbc ea00 463b be74 2a3d f808 d83b
000003f0: adeb 72ba 7701 b23c 4549 2b3d e759 113d
-0.044511933 -0.0038457112 -0.017105093 0.028103452 0.0382686 0.026208542 0.05157809 -0.019627498
-0.03179191 0.0170924 0.049829293 -0.013525001 0.033722658 0.04232646 0.011015113 0.064124964
-0.0027361838 0.014438352 0.046097208 0.008084698 -0.07290251 -0.015189499 0.049572207 0.013726993
0.023212884 0.04252038 -0.053117905 -0.036696345 -0.017717322 -0.02731962 0.07980402 -0.033503138
0.039494514 -0.029005114 0.075937964 0.12832285 -0.018014379 0.023157187 0.08118999 0.061650507
-0.09986384 -0.031048581 0.0190334 0.117296346 0.05685171 0.06725979 -0.08246319 -0.06540692
-0.07573664 -0.013534352 0.10849969 -0.048695378 0.042104173 -0.03901271 0.009318383 0.12618335
-0.013821552 0.0022168143 0.102646895 0.053283855 -0.023896215 -0.009115581 -0.007957809 0.012423282
0.022069473 0.026378272 -0.026809277 -0.010588074 0.008205882 0.01955673 0.021656424 0.0003480538
-0.009901014 0.04736365 0.04465168 0.028888412 0.018405784 0.022059586 0.049358614 0.0018953984
0.12366955 0.06411877 -0.023069285 -0.11964548 -0.16464534 -0.055063765 0.067270875 0.12086345
0.105079904 0.0383184 -0.13540481 0.02383502 0.061341837 0.04649997 0.03721536 -0.21587864
0.023796571 -0.07777411 -0.04899326 -0.11170901 -0.1647743 -0.09537948 -0.0898627 -0.1321196
0.03568834 -0.026040148 0.0835095 -0.1596136 -0.08549769 -0.03032478 -0.19802167 0.119642176
0.07161494 0.08502942 -0.11968023 -0.029700855 0.047925223 0.09071196 0.03479887 -0.05354197
-0.03234924 0.011444574 -0.008694013 0.016261868 0.009109158 0.014730801 0.028198617 -0.02146243
0.005040809 -0.0069636884 0.03231213 -0.009689395 -0.0016861749 -0.005213204 0.0036538455 0.046574034
-0.0032577137 0.03970576 0.014352939 0.004743134 0.050680008 0.042551972 -0.00957634 -0.04879341
-0.030565739 -0.045859158 0.019882377 0.036663484 0.013696222 -0.009606815 -0.045694858 0.0675046
0.004541291 0.022627866 -0.023687236 -0.028479028 0.0029014712 -0.03363556 -0.015709536 -0.018251488
0.045955837 -0.10578793 0.024028156 0.00804431 -0.0001411906 -0.002124217 0.025437748 0.07530315
-0.10654016 0.05945039 -0.04641143 0.03846988 0.06061327 -0.00567664 -0.044347096 -0.1571092
0.038575117 -0.043363333 0.085614204 -0.03559534 -0.026272744 -0.0289333 0.01671796 0.013652864
0.018432511 0.011497261 0.04068941 -0.014303358 -0.006570634 0.031709615 0.031225398 0.0005783139
0.015083312 0.05605372 0.022396445 0.054422833 0.0028906702 -0.0022827243 0.038244642 0.0057226783
-0.07964283 -0.03784756 0.05868192 0.05737622 0.0107366005 0.048027042 -0.05555764 -0.027399834
-0.034525488 -0.054266505 0.0892775 -0.026387244 0.065508805 -0.00018464343 0.038731117 0.14047012
-0.020916197 0.023043292 0.08924916 0.043752152 -0.053150635 -0.01076818 0.0217124 0.03398148
0.006374729 0.009764689 -0.020852717 -0.049085494 -0.022593291 0.0045539313 0.060265232 -0.04484833
0.030164987 0.019407468 0.06309949 0.10415196 -0.026264269 0.022672547 0.05917973 0.008927313
-0.03797689 -0.014025185 -0.004603664 0.0041579204 0.032171354 0.033915114 0.002043196 -0.009936789
-0.025114419 0.0030212947 0.04161524 0.006592866 -0.0009266686 0.021729214 0.041817922 0.03548613

INN.linear_list.1.bias f4 [20]
00000000: 2b29 383e 48eb 823e c0f9 743e cdee cbbd
00000010: f705 4dbe a826 fdbe bc00 cc3c fbd4 15be
00000020: 0ad2 88be d2b5 ef3d 14d3 34be 270e 513e
00000030: d30f 6a3d 8a26 a33d 0168 443e c6a9 96be
00000040: fd6a a7be 1a2b 7abe 11d5 613e 1633 ef3d
0.17984454 0.2557013 0.23923397 -0.09957657 -0.20021807 -0.49443555 0.024902694 -0.14632027
-0.26722747 0.11704601 -0.17658645 0.20415555 0.057143997 0.07966335 0.191803 -0.29426402
-0.32698813 -0.24430504 0.22053935 0.11679666

INN.linear_list.2.weight f4 [1, 20]
00000000: 3c59 1b3c eba3 653c a301 873c 6826 96bb
00000010: 223d 98bc 6da3 03be a3d9 c93a dd89 b13b
00000020: d043 63bb 9845 cf3b 21af 6f3c bcea 4e3c
00000030: 9eb9 cf3b c232 0a3b 7ed1 f9ba 01e8 24bc
00000040: abfa 0e3b be85 cebb 1e05 073e abfe 8cbb
0.009481724 0.014016132 0.016480273 -0.004582215 -0.018583838 -0.1285531 0.0015399944 0.005418046
-0.003467787 0.006325435 0.014629156 0.012629207 0.006339266 0.0021087383 -0.0019059626 -0.01006508
0.002181689 -0.0063025644 0.13185546 -0.0043028197
