runtime data/model_save.pt (torch, 30571 bytes, 6 tensors)

GNN.adjacency_matrix f4 [80, 80]
0	0xbe917836	-0.28412026
1	0x3d8aabe0	0.06771064
2	0x3d8abeaf	0.06774651
3	0x3d8ab192	0.0677215
4	0xbb35a6ae	-0.0027717757
5	0xbb35a6ae	-0.0027717757
6	0x3cb2c4ca	0.021822352
7	0x3c135e42	0.008994641
8	0xbc36aa92	-0.011149066
9	0x3caffdde	0.021483358
10	0x3d3f02dd	0.04663359
11	0x3d96c3ac	0.0736154
12	0x3de751c2	0.11294891
13	0x3df2892f	0.11842572
14	0x3d94db7d	0.072684266
15	0x3dd8857e	0.105723366
16	0x3d59db1c	0.053187475
17	0x3cd1f4b0	0.025629371
18	0x3cdd516e	0.027016368
19	0x3ccf1e34	0.025282957
20	0x3d86a58d	0.06574545
21	0x3d5e8e39	0.054334853
22	0x3d4f57e9	0.050620947
23	0x3d34c423	0.044132363
24	0x3d512743	0.051062834
25	0x3d512743	0.051062834
26	0x3d1d3401	0.038379673
27	0x3d34a554	0.04410298
28	0x3d14798b	0.036248725
29	0x3d4b672a	0.04965893
30	0x3d23f604	0.04002954
31	0x3d4def26	0.050276898
32	0x3d128598	0.035771936
33	0x3cf9d1db	0.030495575
34	0x3d1025cc	0.035192296
35	0x3dea58de	0.11442731
36	0x3d5f574a	0.054526605
37	0x3d4a3158	0.049363464
38	0x3da8e0b2	0.08245982
39	0x3cffc435	0.031221488
40	0x3d25bdfd	0.04046439
41	0x3ccfaec2	0.025351886
42	0x3d0001b5	0.031251628
43	0x3cfd7d0c	0.030943416
44	0x3d85c95b	0.06532546
45	0x3caa4c43	0.020788318
46	0x3d329afb	0.043604832
47	0x3cc3ce57	0.023902101
48	0xbaad7778	-0.0013234457
49	0x3d25ac82	0.04044772
50	0x3cc5781c	0.024105124
51	0x3ce3ef0a	0.027823944
52	0x3cda1a5c	0.026623897
53	0x3ca04978	0.019566283
54	0x3c945a91	0.018109592
55	0x3ce4e784	0.027942427
56	0x3dcd64f3	0.1002902
57	0x3d17cc72	0.03706021
58	0x3d4837d9	0.048881385
59	0x3d38dc0d	0.04513173
60	0x3d4099d0	0.047021687
61	0x3d16b38c	0.036792323
62	0x3dbe3d2d	0.09289012
63	0x3d882fe8	0.066497624
64	0x3d983e78	0.0743379
65	0x3dc3a757	0.09553402
66	0x3cbff3e2	0.023431722
67	0x3cc4a233	0.024003124
68	0x3ca1fe67	0.019774629
69	0x3d0365be	0.03207945
70	0x3d332a13	0.043741297
71	0x3d4c987d	0.04995011
72	0x3d2a3528	0.0415546
73	0x3d0a3d46	0.03374984
74	0x3d0a3d46	0.03374984
75	0xbc5072e8	-0.012722708
76	0x3cf16dd5	0.029471317
77	0x3d22bdf1	0.039731923
78	0x3d1aebb5	0.037822444
79	0x3d1aebb5	0.037822444
80	0xbdc5c3f6	-0.09656517
81	0xbed28dae	-0.41123718
82	0xbda247b3	-0.07923832
83	0xbda24f24	-0.07925251
84	0xbddcc1b8	-0.107791364
85	0xbddcc1b8	-0.107791364
86	0xbdc63b53	-0.09679284
87	0xbda81e68	-0.082089245
88	0xbe09469f	-0.13405846
89	0xbde0b815	-0.10972611
90	0xbdb2e2f1	-0.08734692
91	0xbd86ea11	-0.065876134
92	0xbccfa4fa	-0.025347222
93	0xbd2477ed	-0.040153433
94	0xbd9bc6b4	-0.07606259
95	0xbd538680	-0.05164194
96	0xbdb21cd3	-0.08696904
97	0xbda2b007	-0.07943731
98	0xbdbb02b7	-0.09131377
99	0xbdd3eb35	-0.103475966
100	0xbe21e0bd	-0.15808387
101	0xbe1d5eac	-0.15368146
102	0xbdb79a55	-0.089649834
103	0xbdd1c967	-0.102434926
104	0xbda54a3f	-0.08070802
105	0xbda54a3f	-0.08070802
106	0xbda691d9	-0.08133287
107	0xbd997d18	-0.07494563
108	0xbd9482fc	-0.07251546
109	0xbdb14e44	-0.08657506
110	0xbda41496	-0.08011739
111	0xbe100643	-0.14064889
112	0xbe05826b	-0.13038032
113	0xbdad9f86	-0.08477692
114	0xbda689e5	-0.0813177
115	0xbcc7c75e	-0.024387058
116	0xbd8ee9c6	-0.069781825
117	0xbd9b1aa5	-0.075734414
118	0xbd6a55a2	-0.057210572
119	0xbd9ea1b6	-0.07745688
120	0xbdb233be	-0.08701275
121	0xbdb87d18	-0.09008235
122	0xbd86ecf9	-0.06588168
123	0xbdc5d2ce	-0.096593484
124	0xbdb24b9b	-0.08705827
125	0xbdcbe0fe	-0.09955023
126	0xbd9eae4a	-0.07748087
127	0xbdcca656	-0.099926636
128	0xbdb00500	-0.08594704
129	0xbda5345d	-0.08066628
130	0xbd9231f1	-0.07138432
131	0xbd9d988d	-0.076951124
132	0xbda19e8d	-0.07891569
133	0xbda41267	-0.080113225
134	0xbd891e50	-0.06695235
135	0xbe26e85f	-0.1629958
136	0xbdfaf150	-0.12253058
137	0xbd98e0f3	-0.07464781
138	0xbdb0b793	-0.08628764
139	0xbda6b898	-0.08140677
140	0xbdac9e4d	-0.08428631
141	0xbda6b384	-0.08139709
142	0xbd452938	-0.048135012
143	0xbd6b5f06	-0.05746367
144	0xbd75d9ab	-0.060022037
145	0xbd83a384	-0.064276725
146	0xbd9081bb	-0.07055994
147	0xbdbfe953	-0.09370675
148	0xbdc9f7e9	-0.09861738
149	0xbd81d222	-0.06338908
150	0xbdce4cde	-0.10073255
151	0xbdce75a5	-0.10081033
152	0xbdc57706	-0.096418425
153	0xbdbac9dd	-0.091205336
154	0xbdbac9dd	-0.091205336
155	0xbd8c8e57	-0.06863087
156	0xbdb74524	-0.089487344
157	0xbdab0548	-0.08350617
158	0xbdc29b7e	-0.09502314
159	0xbdc29b7e	-0.09502314
160	0x3dbb2368	0.091376126
161	0x3d380406	0.044925712
162	0xbe11a3ab	-0.1422259
163	0x3d37f9ad	0.044915844
164	0x3dd446a2	0.10365035
165	0x3dd446a2	0.10365035
166	0x3da9371a	0.08262463
167	0x3dce9329	0.10086662
168	0x3da21086	0.07913308
169	0x3dcdd264	0.100498945
170	0x3dda4647	0.106579356
171	0x3dd9b81e	0.10630821
172	0x3e092277	0.13392054
173	0x3d880a9f	0.06642651
174	0x3d874f96	0.06606977
175	0x3d907592	0.07053675
176	0x3d8aa4dc	0.06769726
177	0x3dcdef07	0.100553565
178	0x3dc91280	0.09817982
179	0x3dc97199	0.0983612
180	0x3c4f1679	0.012639635
181	0x3cfa159b	0.03052788
182	0x3d416ed5	0.04722484
183	0x3d3fc95d	0.046822894
184	0x3dd6fc51	0.10497344
185	0x3dd6fc51	0.10497344
186	0x3dd4e65b	0.10395499
187	0x3dd928d7	0.10603493
188	0x3dcfe215	0.101505436
189	0x3db4110b	0.08792313
190	0x3dc11a46	0.094288394
191	0x3dac2b93	0.084067486
192	0x3de3c6b6	0.111218855
193	0x3de49b5f	0.11162447
194	0x3df58947	0.11989074
195	0x3e132c1a	0.14372292
196	0x3ddcdc6c	0.1078423
197	0x3dda9294	0.10672489
198	0x3e0ca1b4	0.1373356
199	0x3dfb08c0	0.12257528
200	0x3dceab64	0.10091284
201	0x3de66f35	0.1125168
202	0x3ddb6297	0.10712164
203	0x3dfc4fd2	0.12319912
204	0x3dbf763d	0.09348724
205	0x3dc55efc	0.096372575
206	0x3dd00aac	0.101582855
207	0x3e076f1e	0.13225982
208	0x3e075b6d	0.1321847
209	0x3dc9f91a	0.098619655
210	0x3df862d9	0.12128229
211	0x3de47806	0.11155705
212	0x3de987d4	0.1140286
213	0x3df39a50	0.11894667
214	0x3df1374a	0.11778124
215	0x3d665c43	0.05624033
216	0x3d88b4a1	0.06675077
217	0x3ddf096f	0.10890471
218	0x3db55049	0.08853204
219	0x3db94242	0.09045841
220	0x3dbf0145	0.09326414
221	0x3da9a4d5	0.08283392
222	0x3db97fab	0.09057554
223	0x3d8996c9	0.06718213
224	0x3d93bfa9	0.07214291
225	0x3d92c873	0.07167139
226	0x3dc18928	0.094499886
227	0x3dbd78d0	0.09251559
228	0x3daea2a5	0.08527116
229	0x3dc9d7cf	0.09855615
230	0x3d97b3db	0.074073516
231	0x3d98e103	0.074647926
232	0x3dc0d704	0.09416011
233	0x3dd1e564	0.10248831
234	0x3dd1e564	0.10248831
235	0x3ddebe3c	0.10876128
236	0x3d935c04	0.07195285
237	0x3daa5033	0.08316078
238	0x3d9c52d2	0.07632984
239	0x3d9c52d2	0.07632984
240	0x3d4453b7	0.0479314
241	0x3c6893b2	0.01419537
242	0x3c68a6d2	0.014199929
243	0xbea6d42b	-0.32583746
244	0x3d4a7c80	0.04943514
245	0x3d4a7c80	0.04943514
246	0x3d1afc63	0.03783835
247	0x3d4aa926	0.04947772
248	0x3cb4a8cf	0.02205315
249	0x3d614aec	0.05500309
250	0x3d8e4e14	0.06948486
251	0x3e1288a3	0.14309935
252	0x3e4f162a	0.20223299
253	0x3e1b1d48	0.15147889
254	0x3dd82329	0.10553581
255	0x3e18c300	0.14918137

INN.linear_list.0.weight f4 [10, 19]
0	0xbf7a8e6d	-0.97873574
1	0x3cb6bbac	0.022306286
2	0x4027df5b	2.6230075
3	0x4113e104	9.242435
4	0xbe76f19f	-0.24115609
5	0xbeebf849	-0.46087864
6	0xbea10841	-0.3145161
7	0x3da0cd1a	0.0785162
8	0x3dfa49a1	0.12221075
9	0xbe619668	-0.22030032
10	0xbf4eab82	-0.8073045
11	0x3d8de864	0.069290906
12	0x3d3543b7	0.04425403
13	0xbe1d4ccb	-0.15361325
14	0xbd183929	-0.037163887
15	0x3f29be89	0.6630636
16	0x3f06ddb8	0.52682066
17	0x3f9d06fd	1.2267758
18	0x3f920179	1.14067
19	0x3f890ea0	1.0707588
20	0xbd9b1cb1	-0.07573832
21	0xc0ab3280	-5.3499146
22	0xbe6498dd	-0.22323938
23	0xbdc7196d	-0.097216465
24	0xbe00ad65	-0.12566145
25	0x3eb8bfd6	0.3608386
26	0xbd719346	-0.05897834
27	0xbd81ff8f	-0.06347572
28	0x3e231a11	0.15927912
29	0x3e8baecb	0.27281794
30	0xbe72682b	-0.2367255
31	0x3d4fed99	0.0507637
32	0x3d6545c8	0.05597475
33	0x3e4194fe	0.18904492
34	0x3e75df6e	0.24011013
35	0xbe16528d	-0.14679928
36	0x3f0ae392	0.54253495
37	0x3ea9d71b	0.33171925
38	0x3fa1c1aa	1.2637227
39	0xbebd592c	-0.36982095
40	0xbfa374d3	-1.2770027
41	0x4022e20e	2.5450473
42	0x3d9357de	0.07194494
43	0xbe1fe8f4	-0.15616208
44	0xbe42a3dc	-0.1900782
45	0x3eba601f	0.3640146
46	0x3e800887	0.25006506
47	0x3dc7cc3b	0.09755751
48	0xbeb7c917	-0.35895607
49	0xbdebe7ca	-0.1151882
50	0x3d4cb8b6	0.04998084
51	0x3e76a82b	0.24087588
52	0x3d138ae6	0.036021136
53	0x3da86eda	0.08224268
54	0x3ec3d20b	0.38246188
55	0xbf855c74	-1.041884
56	0xbfb75659	-1.4323226
57	0x3f9595e1	1.1686364
58	0xbdc19f67	-0.09454232
59	0x40a8696f	5.2628703
60	0xbfc6ae1e	-1.5521886
61	0xbd3d8116	-0.046265684
62	0x3eead72a	0.45867282
63	0xbeb5196f	-0.35370967
64	0x3ddd428d	0.10803709
65	0xbfd7555f	-1.6822928
66	0x3e2e9027	0.17047177
67	0x3f67a064	0.9047911
68	0xbccda943	-0.025105124
69	0xbdd0556a	-0.101725414
70	0xbea9f4cd	-0.3319458
71	0x3e262992	0.16226795
72	0x3f1e33f1	0.61798006
73	0xbfeeb15e	-1.8647878
74	0x3f8d8ec8	1.1059198
75	0x3f80d505	1.0065008
76	0xbf0a66b0	-0.5406294
77	0xbea2e818	-0.31817698
78	0x3f2e9c81	0.68207556
79	0xc10ed642	-8.927309
80	0x3db9b6a3	0.09068038
81	0x3e37b87a	0.17941466
82	0xbd03fb6a	-0.03222219
83	0x3d712d07	0.058880832
84	0x3efa6265	0.48903194
85	0x3e8c7aef	0.2743754
86	0x3f5bc1c7	0.85842556
87	0x3de3a022	0.11114527
88	0x3d4adfcd	0.04952984
89	0xbe5c6859	-0.2152418
90	0x3dae6ee3	0.08517244
91	0x3ce8b0ee	0.02840468
92	0x3f0ed89a	0.5579926
93	0xc02f1dae	-2.7361865
94	0xc047aa4e	-3.1197696
95	0x3f9d40be	1.2285383
96	0x3ec0a5ca	0.37626487
97	0x40953cc9	4.66367
98	0xbfbf977b	-1.4968103
99	0x3e8a2760	0.26983166
100	0x3d05260f	0.032507
101	0xbd84e0b9	-0.06488175
102	0x3e3a468b	0.18190973
103	0xbf761664	-0.96127915
104	0xbddbf6b1	-0.10740412
105	0x3f632c50	0.8873949
106	0x3cef99c7	0.029248131
107	0xbe19c112	-0.15015057
108	0xbe3f35ea	-0.1867291
109	0x3e706f81	0.23480035
110	0x3e86cf77	0.26330158
111	0xbf763b75	-0.96184474
112	0xbf9a2790	-1.2043324
113	0xbfaa5ff1	-1.3310529
114	0x3f038448	0.5137372
115	0x3f2bf03c	0.67163444
116	0xc036de58	-2.8573208
117	0x400fde79	2.2479537
118	0xbd52826b	-0.051393908
119	0xbcba4dce	-0.022742178
120	0xbdabadcc	-0.083827585
121	0xbe0f2006	-0.1397706
122	0xbd78fd89	-0.060788665
123	0xbbb82c27	-0.0056204977
124	0xbf2fea3c	-0.6871679
125	0x3db250fa	0.08706851
126	0xbe0895be	-0.13338372
127	0xbd2ab171	-0.041673128
128	0x3e0943bb	0.13404743
129	0xbf2694b9	-0.6507068
130	0x3dc82ee7	0.09774571
131	0x3f11299b	0.5670411
132	0x3e9a6465	0.3015472
133	0x3f041301	0.515915
134	0xbdd1a048	-0.10235649
135	0xbdf33690	-0.11875641
136	0xc081871e	-4.047744
137	0xbd80aa41	-0.06282473
138	0x3f14e187	0.5815663
139	0x3df24450	0.11829436
140	0x3d265087	0.04060414
141	0xbf236151	-0.6382037
142	0x3e065068	0.1311661
143	0x3bc4912b	0.0059987507
144	0xbdb89ac2	-0.09013893
145	0xbd9d0045	-0.07666067
146	0x3da1e161	0.07904316
147	0x3e06c096	0.13159403
148	0x3ea2bb27	0.3178341
149	0xbf2fce96	-0.686746
150	0x3f8a7f76	1.0820148
151	0x3f93bcab	1.1541952
152	0xbeeeefd1	-0.4666734
153	0x3f0c93b3	0.5491287
154	0xbf3640ef	-0.7119283
155	0x3ff7a905	1.9348456
156	0xbdd3e3f6	-0.103462145
157	0xbc6ce6cc	-0.014459323
158	0xbf1dda89	-0.61661583
159	0xbebfdc07	-0.37472555
160	0x3d5dc4bd	0.054142702
161	0xbdc2b169	-0.095064946
162	0xbd7a5ccf	-0.061123665
163	0x3d2deef8	0.042464226
164	0x3d6818da	0.056664325
165	0xbe2da846	-0.16958722
166	0xbcd35d0f	-0.02580121
167	0x3f301cf2	0.6879417
168	0xbd0feda6	-0.03513875
169	0xbe5f391e	-0.21799132
170	0xbe3163bd	-0.17323203
171	0x3fd0c667	1.6310548
172	0x3dec3de8	0.11535245
173	0xc08ad71c	-4.3387585
174	0xbf098c64	-0.53729844
175	0xbe4ab3a4	-0.1979509
176	0xbe35d5a1	-0.17757274
177	0xbeedbb58	-0.46431994
178	0xbe7504b0	-0.2392757
179	0x3f8063f9	1.0030509
180	0x3e32994a	0.17441288
181	0xbf161298	-0.5862212
182	0x3dc430b2	0.095796004
183	0xbdadac6b	-0.08480152
184	0x3d07cadf	0.033152457
185	0x3dd69625	0.104778565
186	0xbec5619d	-0.38551036
187	0x3ef1c5ff	0.47221372
188	0x3ef66897	0.4812667
189	0x3f29acdc	0.6627939

INN.linear_list.0.bias f4 [10]
0	0xbe4d56a6	-0.20052585
1	0x3ec0997b	0.37617096
2	0x3c9034f1	0.01760337
3	0x3d996706	0.07490353
4	0x3e075b14	0.13218337
5	0x3ece6e67	0.40318605
6	0xbd6fa4da	-0.058506824
7	0x3e39eb15	0.18156083
8	0x3d9555fd	0.072917916
9	0xbce519b9	-0.027966367

INN.linear_list.1.weight f4 [10, 10]
0	0xbcb76608	-0.02238752
1	0x3bf4f6d1	0.007475712
2	0x3d081f75	0.033233125
3	0x3d04dd96	0.032437883
4	0xbd2cd1d0	-0.04219228
5	0x3cfabfd2	0.030609045
6	0x3d803510	0.06260121
7	0x3d7084e4	0.058720484
8	0xbd549665	-0.05190124
9	0xbd4733f8	-0.048633546
10	0x3d6f3c3f	0.058407065
11	0xbd6520f5	-0.055939633
12	0xbdd46527	-0.10370856
13	0xbd512fcd	-0.051070977
14	0xbd297ba7	-0.04137769
15	0xbd8d328f	-0.06894409
16	0xbcf9db30	-0.030500025
17	0xbcac9280	-0.02106595
18	0x3da1aece	0.078946695
19	0x3dcd4191	0.100222714
20	0xbbf3707c	-0.0074291807
21	0xbc92e19d	-0.017929846
22	0xbd706c52	-0.058697052
23	0x3d899e55	0.067196526
24	0x3cd4c4e7	0.025972797
25	0xbb5cfe69	-0.0033720976
26	0x3d237f59	0.03991637
27	0x3c8e46c3	0.017367726
28	0x3cfc2a44	0.030781873
29	0x3d233d18	0.039853185
30	0x3d82b98e	0.06383048
31	0x3cec85c9	0.028872387
32	0xbe1cf3b2	-0.15327337
33	0x3d0170d9	0.03160176
34	0xbcd6e5ce	-0.026232626
35	0xbda2cbd3	-0.07949033
36	0xbd20745b	-0.039173465
37	0xbde7cb44	-0.11318067
38	0x3deb89d4	0.11500898
39	0x3d2f4ae4	0.04279603
40	0x3d6c1705	0.05763914
41	0xbd4f3746	-0.050589822
42	0xbd5b0ecc	-0.05348091
43	0x3cbc4098	0.02298002
44	0xbd55d874	-0.05220838
45	0xbbf12646	-0.007359299
46	0x3d0e5808	0.034751922
47	0xbcc14459	-0.023592161
48	0x3d131535	0.035908896
49	0x3dab3043	0.083588146
50	0x3d107928	0.035271794
51	0x3d818aad	0.063252784
52	0xbcf9263f	-0.030413745
53	0x3c72179f	0.0147761395
54	0xbd60e515	-0.05490597
55	0x3d1144cc	0.035466
56	0x3cc5db74	0.024152495
57	0x3ce3e2f6	0.027818184
58	0xbd843f94	-0.06457439
59	0x3d6deea3	0.05808891
60	0xbc56035a	-0.0130623225
61	0xbd6bb902	-0.057549484
62	0xbd2109e5	-0.039316077
63	0xbc147380	-0.0090607405
64	0xbcc19a48	-0.023633137
65	0x3c37c0ca	0.011215398
66	0x3c83e1d9	0.016098903
67	0x3ba46eb4	0.0050180797
68	0x3c8cccbc	0.017187469
69	0x3ce9d2ef	0.028542964
70	0x39934b08	0.00028093928
71	0xbcf791fa	-0.030220974
72	0xbcfcc051	-0.030853422
73	0x3da4fe21	0.08056284
74	0xbda94d06	-0.08266644
75	0x3d7654e0	0.060139537
76	0x3d95888c	0.07301435
77	0xbd20c8ba	-0.039253928
78	0x3c3c6baf	0.011500283
79	0x3c5b7cc0	0.013396442
80	0x3d13b992	0.036065646
81	0xbca79015	-0.020454446
82	0xbd068bb6	-0.032848082
83	0xbe0e9bb1	-0.13926579
84	0x3ccfed6a	0.025381763
85	0xbd356344	-0.04428412
86	0x3bfcd0de	0.0077153286
87	0xbc386638	-0.01125484
88	0x3dedc536	0.116098806
89	0xbda17235	-0.078831114
90	0xbd7d3259	-0.061815593
91	0xbc84c7c4	-0.016208537
92	0x3d76cfb8	0.06025669
93	0xbd1a1622	-0.037618764
94	0xbc476393	-0.012169736
95	0x3b53cc79	0.003231792
96	0xbd8eb621	-0.06968332
97	0x3ca7161d	0.020396287
98	0x3d08f286	0.033434413
99	0x3caaf0c6	0.020866763

INN.linear_list.1.bias f4 [10]
0	0x3fc8bc63	1.5682491
1	0xc00a52ae	-2.1612964
2	0xbc81dbd9	-0.015851902
3	0xbf41bf4e	-0.7568253
4	0xbfb6210e	-1.4228837
5	0x40387b05	2.8825085
6	0xc02a03e8	-2.6564884
7	0xbe8a926f	-0.27064845
8	0xc001d661	-2.0287097
9	0xc0054479	-2.0823042

INN.linear_list.2.weight f4 [1, 10]
0	0x3993b19f	0.00028170363
1	0x3ca31e1f	0.019911824
2	0x3d3ef0da	0.046616413
3	0x3ca8a55e	0.020586666
4	0x3d6d83ca	0.057987012
5	0x3cb0e2fd	0.021592611
6	0x3d411c3e	0.047146074
7	0x3d6db511	0.058034007
8	0xbcafd664	-0.021464534
9	0xbc811e07	-0.015761388
