runtime data/model2_save.pt (torch, 31224 bytes, 8 tensors)

GNN.adjacency_matrix f4 [80, 80]
0	0xbf800000	-1.0
1	0x3f55c512	0.8350383
2	0xbf800000	-1.0
3	0xbf800000	-1.0
4	0xbf800000	-1.0
5	0xbf800000	-1.0
6	0xbf800000	-1.0
7	0xbf800000	-1.0
8	0xbf800000	-1.0
9	0xbf800000	-1.0
10	0xbf800000	-1.0
11	0xbf800000	-1.0
12	0xbf800000	-1.0
13	0xbf800000	-1.0
14	0xbf800000	-1.0
15	0xbf800000	-1.0
16	0xbf800000	-1.0
17	0xbf800000	-1.0
18	0xbf800000	-1.0
19	0xbf800000	-1.0
20	0xbf800000	-1.0
21	0xbf800000	-1.0
22	0xbf800000	-1.0
23	0xbf800000	-1.0
24	0xbf800000	-1.0
25	0xbf800000	-1.0
26	0xbf800000	-1.0
27	0xbf800000	-1.0
28	0xbf800000	-1.0
29	0xbf800000	-1.0
30	0xbf800000	-1.0
31	0xbf800000	-1.0
32	0xbf800000	-1.0
33	0xbf800000	-1.0
34	0xbf800000	-1.0
35	0xbf800000	-1.0
36	0xbf800000	-1.0
37	0xbf800000	-1.0
38	0xbf800000	-1.0
39	0xbf800000	-1.0
40	0xbf800000	-1.0
41	0xbf800000	-1.0
42	0xbf800000	-1.0
43	0xbf800000	-1.0
44	0xbf800000	-1.0
45	0xbf800000	-1.0
46	0xbf800000	-1.0
47	0xbf800000	-1.0
48	0xbf800000	-1.0
49	0xbf800000	-1.0
50	0xbf800000	-1.0
51	0xbf800000	-1.0
52	0xbf800000	-1.0
53	0xbf800000	-1.0
54	0xbf800000	-1.0
55	0xbf800000	-1.0
56	0xbf800000	-1.0
57	0xbf800000	-1.0
58	0xbf800000	-1.0
59	0xbf800000	-1.0
60	0xbf800000	-1.0
61	0xbf800000	-1.0
62	0xbf800000	-1.0
63	0xbf800000	-1.0
64	0xbf800000	-1.0
65	0xbf800000	-1.0
66	0xbf800000	-1.0
67	0xbf800000	-1.0
68	0xbf800000	-1.0
69	0xbf800000	-1.0
70	0xbf800000	-1.0
71	0xbf800000	-1.0
72	0xbf800000	-1.0
73	0xbf800000	-1.0
74	0xbf800000	-1.0
75	0xbf800000	-1.0
76	0xbf800000	-1.0
77	0xbf800000	-1.0
78	0xbf800000	-1.0
79	0xbf800000	-1.0
80	0x3f2ea1ee	0.68215835
81	0xbf800000	-1.0
82	0xbf800000	-1.0
83	0xbf800000	-1.0
84	0xbf800000	-1.0
85	0xbf800000	-1.0
86	0xbf800000	-1.0
87	0xbf800000	-1.0
88	0xbf800000	-1.0
89	0xbf800000	-1.0
90	0xbf800000	-1.0
91	0xbf800000	-1.0
92	0xbf800000	-1.0
93	0xbf800000	-1.0
94	0xbf800000	-1.0
95	0xbf800000	-1.0
96	0xbf800000	-1.0
97	0xbf800000	-1.0
98	0xbf800000	-1.0
99	0xbf800000	-1.0
100	0xbf800000	-1.0
101	0xbf800000	-1.0
102	0xbf800000	-1.0
103	0xbf800000	-1.0
104	0xbf800000	-1.0
105	0xbf800000	-1.0
106	0xbf800000	-1.0
107	0xbf800000	-1.0
108	0xbf800000	-1.0
109	0xbf800000	-1.0
110	0xbf800000	-1.0
111	0xbf800000	-1.0
112	0xbf800000	-1.0
113	0xbf800000	-1.0
114	0xbf800000	-1.0
115	0xbf800000	-1.0
116	0xbf800000	-1.0
117	0xbf800000	-1.0
118	0xbf800000	-1.0
119	0xbf800000	-1.0
120	0xbf800000	-1.0
121	0xbf800000	-1.0
122	0xbf800000	-1.0
123	0xbf800000	-1.0
124	0xbf800000	-1.0
125	0xbf800000	-1.0
126	0xbf800000	-1.0
127	0xbf800000	-1.0
128	0xbf800000	-1.0
129	0xbf800000	-1.0
130	0xbf800000	-1.0
131	0xbf800000	-1.0
132	0xbf800000	-1.0
133	0xbf800000	-1.0
134	0xbf800000	-1.0
135	0xbf800000	-1.0
136	0xbf800000	-1.0
137	0xbf800000	-1.0
138	0xbf800000	-1.0
139	0xbf800000	-1.0
140	0xbf800000	-1.0
141	0xbf800000	-1.0
142	0xbf800000	-1.0
143	0xbf800000	-1.0
144	0xbf800000	-1.0
145	0xbf800000	-1.0
146	0xbf800000	-1.0
147	0xbf800000	-1.0
148	0xbf800000	-1.0
149	0xbf800000	-1.0
150	0xbf800000	-1.0
151	0xbf800000	-1.0
152	0xbf800000	-1.0
153	0xbf800000	-1.0
154	0xbf800000	-1.0
155	0xbf800000	-1.0
156	0xbf800000	-1.0
157	0xbf800000	-1.0
158	0xbf800000	-1.0
159	0xbf800000	-1.0
160	0xbf800000	-1.0
161	0xbf800000	-1.0
162	0xbf800000	-1.0
163	0xbf800000	-1.0
164	0xbf800000	-1.0
165	0xbf800000	-1.0
166	0xbf800000	-1.0
167	0xbf800000	-1.0
168	0xbf800000	-1.0
169	0xbf800000	-1.0
170	0xbf800000	-1.0
171	0xbf800000	-1.0
172	0xbf800000	-1.0
173	0xbf800000	-1.0
174	0xbf800000	-1.0
175	0xbf800000	-1.0
176	0xbf800000	-1.0
177	0xbf800000	-1.0
178	0xbf800000	-1.0
179	0xbf800000	-1.0
180	0xbf800000	-1.0
181	0xbf800000	-1.0
182	0xbf800000	-1.0
183	0xbf800000	-1.0
184	0xbf800000	-1.0
185	0xbf800000	-1.0
186	0xbf800000	-1.0
187	0xbf800000	-1.0
188	0xbf800000	-1.0
189	0xbf800000	-1.0
190	0xbf800000	-1.0
191	0xbf800000	-1.0
192	0xbf800000	-1.0
193	0xbf800000	-1.0
194	0xbf800000	-1.0
195	0xbf800000	-1.0
196	0xbf800000	-1.0
197	0xbf800000	-1.0
198	0xbf800000	-1.0
199	0xbf800000	-1.0
200	0xbf800000	-1.0
201	0xbf800000	-1.0
202	0xbf800000	-1.0
203	0xbf800000	-1.0
204	0xbf800000	-1.0
205	0xbf800000	-1.0
206	0xbf800000	-1.0
207	0xbf800000	-1.0
208	0xbf800000	-1.0
209	0xbf800000	-1.0
210	0xbf800000	-1.0
211	0xbf800000	-1.0
212	0xbf800000	-1.0
213	0xbf800000	-1.0
214	0xbf800000	-1.0
215	0xbf800000	-1.0
216	0xbf800000	-1.0
217	0xbf800000	-1.0
218	0xbf800000	-1.0
219	0xbf800000	-1.0
220	0xbf800000	-1.0
221	0xbf800000	-1.0
222	0xbf800000	-1.0
223	0xbf800000	-1.0
224	0xbf800000	-1.0
225	0xbf800000	-1.0
226	0xbf800000	-1.0
227	0xbf800000	-1.0
228	0xbf800000	-1.0
229	0xbf800000	-1.0
230	0xbf800000	-1.0
231	0xbf800000	-1.0
232	0xbf800000	-1.0
233	0xbf800000	-1.0
234	0xbf800000	-1.0
235	0xbf800000	-1.0
236	0xbf800000	-1.0
237	0xbf800000	-1.0
238	0xbf800000	-1.0
239	0xbf800000	-1.0
240	0xbf800000	-1.0
241	0xbf800000	-1.0
242	0xbf800000	-1.0
243	0xbf800000	-1.0
244	0xbf800000	-1.0
245	0xbf800000	-1.0
246	0xbf800000	-1.0
247	0xbf800000	-1.0
248	0xbf800000	-1.0
249	0xbf800000	-1.0
250	0xbf800000	-1.0
251	0xbf800000	-1.0
252	0xbf800000	-1.0
253	0xbf800000	-1.0
254	0xbf800000	-1.0
255	0xbf800000	-1.0

GNN.self_temp_w f4 [80]
0	0x3f4b656e	0.79451644
1	0x3f59d2b0	0.8508711
2	0x3f7210ac	0.9455669
3	0x3f6be6df	0.92149156
4	0x3f6bdf3e	0.92137516
5	0x3f5a024f	0.8515977
6	0x3f45d73b	0.7728154
7	0x3f407bb6	0.7518877
8	0x3f507dba	0.81441844
9	0x3f723485	0.9461139
10	0x3f6fbe01	0.936493
11	0x3f70e970	0.941062
12	0x3f6e477d	0.9307783
13	0x3f53edd2	0.8278476
14	0x3f408ee8	0.7521806
15	0x3f6b688d	0.91956407
16	0x3f6fe7c1	0.93713003
17	0x3f6d80f2	0.9277488
18	0x3f4e8487	0.8067097
19	0x3f461fe3	0.77392405
20	0x3f6d1b2e	0.926196
21	0x3f6fd1ef	0.9367971
22	0x3f6fbc0d	0.9364632
23	0x3f6f384c	0.9344528
24	0x3f49fa35	0.7889741
25	0x3f3bfd00	0.7343292
26	0x3f4cb765	0.7996734
27	0x3f4ac536	0.7920717
28	0x3f4bba94	0.7958157
29	0x3f716db8	0.9430804
30	0x3f70de5b	0.9408929
31	0x3f4443d2	0.76665986
32	0x3f5146a7	0.8174843
33	0x3f700c69	0.93768936
34	0x3f6f6df1	0.9352713
35	0x3f69e3c0	0.91363144
36	0x3f6e5a0e	0.9310616
37	0x3f4b32c2	0.79374325
38	0x3f47705e	0.77905834
39	0x3f347453	0.70489997
40	0x3f53c2d6	0.8271917
41	0x3f4aed5c	0.7926843
42	0x3f4c0b30	0.7970457
43	0x3f4912dc	0.785444
44	0x3f5cb9e4	0.86221147
45	0x3f6f445a	0.9346367
46	0x3f555290	0.83329105
47	0x3f405635	0.7513154
48	0x3f42870c	0.75987315
49	0x3f6e943b	0.9319493
50	0x3f715120	0.9426441
51	0x3f71e4b5	0.94489604
52	0x3f7282a4	0.9473059
53	0x3f4e5ddf	0.80611986
54	0x3f473e1b	0.7782914
55	0x3f6e76e9	0.9315019
56	0x3f485bf4	0.7826531
57	0x3f62cec5	0.88596755
58	0x3f70b25f	0.9402217
59	0x3f72441c	0.94635177
60	0x3f706967	0.9391083
61	0x3f6e23db	0.9302346
62	0x3f6e0142	0.9297067
63	0x3f6dae31	0.9284392
64	0x3f4faf72	0.81127083
65	0x3f4aa15e	0.79152477
66	0x3f70f88d	0.9412926
67	0x3f6cabf4	0.9244988
68	0x3f6c9cbf	0.92426676
69	0x3f702da1	0.93819624
70	0x3f47719b	0.77907723
71	0x3f4e2673	0.8052742
72	0x3f6c4f59	0.92308575
73	0x3f453d26	0.7704643
74	0x3f451e31	0.76999193
75	0x3f3e3a96	0.74308145
76	0x3f71520c	0.9426582
77	0x3f6e6c6d	0.93134195
78	0x3f6ef417	0.933412
79	0x3f714af6	0.94255006

GNN.other_temp_w f4 [80]
0	0x3e26a991	0.16275622
1	0x3dfa732d	0.12228999
2	0x3e4ccccd	0.2
3	0x3e4ccccd	0.2
4	0x3e4ccccd	0.2
5	0x3dcf0f18	0.10110301
6	0x3ddce20f	0.10785305
7	0x3dfb6b08	0.12276274
8	0x3e148c0b	0.14506547
9	0x3e4ccccd	0.2
10	0x3e4ccccd	0.2
11	0x3e4ccccd	0.2
12	0x3e4ccccd	0.2
13	0x3e117ecb	0.14208524
14	0x3e2ee5b7	0.17079817
15	0x3e4ccccd	0.2
16	0x3e4ccccd	0.2
17	0x3e4ccccd	0.2
18	0x3e1b060b	0.15139024
19	0x3e3ed5d3	0.18636255
20	0x3e4ccccd	0.2
21	0x3e4ccccd	0.2
22	0x3e4ccccd	0.2
23	0x3e4ccccd	0.2
24	0x3e2e53d2	0.17024162
25	0x3e0082b6	0.12549862
26	0x3e1f8902	0.15579608
27	0x3e2efb77	0.17088114
28	0x3e2bcbb2	0.16776922
29	0x3e4ccccd	0.2
30	0x3e4ccccd	0.2
31	0x3e336ff3	0.17523174
32	0x3dfcde28	0.123470604
33	0x3e4ccccd	0.2
34	0x3e4ccccd	0.2
35	0x3e4ccccd	0.2
36	0x3e4ccccd	0.2
37	0x3e24ab14	0.16080886
38	0x3dcea46c	0.10089955
39	0x3e11987d	0.14218326
40	0x3e01b206	0.12665567
41	0x3e23890b	0.15970246
42	0x3e2e8ef1	0.17046715
43	0x3e29ee6e	0.1659486
44	0x3dcf33d5	0.10117308
45	0x3e4ccccd	0.2
46	0x3da4a79c	0.080397815
47	0x3df6bd9e	0.12047885
48	0x3df3ecf2	0.11910428
49	0x3e4ccccd	0.2
50	0x3e4ccccd	0.2
51	0x3e4ccccd	0.2
52	0x3e4ccccd	0.2
53	0x3e1e2760	0.15444708
54	0x3e3480a2	0.17627195
55	0x3e4ccccd	0.2
56	0x3e2c4916	0.16824755
57	0x3d975a9a	0.07390328
58	0x3e4ccccd	0.2
59	0x3e4ccccd	0.2
60	0x3e4ccccd	0.2
61	0x3e4ccccd	0.2
62	0x3e4ccccd	0.2
63	0x3e4ccccd	0.2
64	0x3e157260	0.14594412
65	0x3e26a507	0.1627389
66	0x3e4ccccd	0.2
67	0x3e4ccccd	0.2
68	0x3e4ccccd	0.2
69	0x3e4ccccd	0.2
70	0x3e302f2c	0.17205495
71	0x3e20c5d5	0.15700467
72	0x3e4ccccd	0.2
73	0x3de19466	0.11014633
74	0x3de1564f	0.1100279
75	0x3e028cb6	0.1274899
76	0x3e4ccccd	0.2
77	0x3e4ccccd	0.2
78	0x3e4ccccd	0.2
79	0x3e4ccccd	0.2

INN.linear_list.0.weight f4 [10, 19]
0	0xbf187ecc	-0.59568477
1	0x3d0daba9	0.034587536
2	0xbc7a2046	-0.015266484
3	0xbf01a2af	-0.5063886
4	0x3cbc8789	0.023013847
5	0x3d688a44	0.056772485
6	0x3e0f5549	0.13997377
7	0xbcfec4e8	-0.031099752
8	0xbe7be0ae	-0.24597427
9	0xbe5e43e9	-0.21705593
10	0x3e437db2	0.19090918
11	0xbb16a940	-0.0022989064
12	0x3cc616bd	0.024180764
13	0xbc0c02bd	-0.008545575
14	0x3ca1a62a	0.019732554
15	0xbe16e25b	-0.14734785
16	0xbd142948	-0.03617218
17	0xbe84b52a	-0.25919467
18	0xbc7c7346	-0.015408343
19	0x3d7f126e	0.062273435
20	0x3ddd4ea0	0.10806012
21	0xbf1a96a9	-0.6038614
22	0xbd8b4a65	-0.06801299
23	0x3e331871	0.17489792
24	0xbe1c6e2a	-0.15276399
25	0x3b16538a	0.0022937977
26	0xbcf6859c	-0.030093007
27	0x3df6c90b	0.12050065
28	0x3d0255fe	0.03182029
29	0xbdf645c2	-0.12025024
30	0x3c68d2a2	0.014210375
31	0xbd601b8c	-0.05471377
32	0xbd9fc8cf	-0.07801973
33	0x3e6d1696	0.23153147
34	0x3d2dc8e6	0.04242792
35	0x3e8ed093	0.27893505
36	0xbdf4c7f2	-0.11952199
37	0xbe500a32	-0.20316389
38	0x3dfae94a	0.122515276
39	0x3d83977e	0.06425379
40	0x3d98d964	0.07463339
41	0x3e6c4b76	0.23075661
42	0x3e09c52a	0.13454118
43	0xbe0b0c91	-0.13579012
44	0xbd05ecba	-0.032696463
45	0x3c602290	0.013680115
46	0xbe2b8e20	-0.16753435
47	0x3c260d69	0.010135033
48	0xbd1f73b2	-0.038928695
49	0x3b93a3d5	0.0045056143
50	0xbe1135cd	-0.1418068
51	0xbe49b482	-0.19697765
52	0x3e445126	0.1917158
53	0x3e2cc3db	0.16871588
54	0xbe8def29	-0.27721527
55	0xbf7bd3dd	-0.9837015
56	0xbf8cfc48	-1.101449
57	0x3f4020b2	0.7504989
58	0xbcb81142	-0.022469167
59	0xbf0580b2	-0.521495
60	0xbe271370	-0.16316009
61	0xbdefd0d7	-0.11709755
62	0xbe232dbd	-0.15935417
63	0x3d286dff	0.041120525
64	0xbc68e2e0	-0.014214247
65	0x3e2aa05b	0.16662733
66	0x3d521263	0.051287066
67	0xbd4967e6	-0.04917135
68	0xbbb8f093	-0.005643913
69	0x3c85ac37	0.01631747
70	0xbe082586	-0.13295564
71	0x3e20b0b9	0.15692414
72	0x3ddcafeb	0.10775741
73	0xbbf5ac46	-0.0074973432
74	0x3f3889d9	0.7208534
75	0x3f465e75	0.7748788
76	0x3f33a89e	0.70179164
77	0x3c00c7da	0.007860148
78	0x3e96552b	0.29361853
79	0xbeb76536	-0.35819405
80	0x3db9acc6	0.09066157
81	0x3db6ad28	0.08919746
82	0xbd47b06d	-0.048752237
83	0x3d095762	0.0335306
84	0xbdbbe308	-0.09174162
85	0xbe377381	-0.17915155
86	0xbc3821db	-0.0112385405
87	0x3d081be2	0.033229716
88	0xbceeb833	-0.029140567
89	0x3e1db13b	0.1539964
90	0xbd72439a	-0.0591465
91	0x3d53e305	0.051730175
92	0xbdd41916	-0.10356347
93	0x3f48ee95	0.7848905
94	0x3f302fdf	0.68823045
95	0x3ea78378	0.3271749
96	0xbd5a13c4	-0.053241506
97	0xbe859154	-0.2608744
98	0x3e9a19fe	0.30097955
99	0x3c91b7bf	0.017787812
100	0x3ddceb89	0.10787112
101	0xbe494eef	-0.19659017
102	0x3cb424cb	0.0219902
103	0x3de15984	0.11003402
104	0x3e312284	0.17298323
105	0xbe929177	-0.28626606
106	0xbb8dbc8f	-0.0043254565
107	0x3a1f2dc7	0.000607219
108	0xbd4f69b4	-0.050637916
109	0xbc65ce3c	-0.014026221
110	0x3e14bc60	0.14524984
111	0xbe66d332	-0.22541502
112	0x3e94a230	0.2902999
113	0x3dad023e	0.08447693
114	0x3fe3404b	1.7753996
115	0xbe161fcd	-0.14660569
116	0xbebfcd37	-0.37461254
117	0xbe6f32ea	-0.23359266
118	0xbc8f034f	-0.017457632
119	0xbe36953f	-0.1783037
120	0xbb6a0008	-0.0035705585
121	0xbc31033b	-0.010803993
122	0xbd92341d	-0.07138846
123	0x3ca8b793	0.020595348
124	0xbe1c6936	-0.1527451
125	0xbbd8920b	-0.0066092066
126	0xbcf18695	-0.029483119
127	0x3e0df774	0.13863927
128	0x3cdd2a7a	0.026997793
129	0x3dd5490a	0.10414322
130	0x3e1d4db4	0.15361673
131	0x3f9734ab	1.1812948
132	0x3f5d9a49	0.86563545
133	0x3fdecc39	1.7406074
134	0xbdab7895	-0.083726086
135	0x3c6de02d	0.01451878
136	0x3c20dab7	0.009817771
137	0xbe460580	-0.19338036
138	0x3c461471	0.012089835
139	0x3e2a0f53	0.16607408
140	0x3c5e077d	0.01355159
141	0x3e59feff	0.2128868
142	0xbe039e3e	-0.12853333
143	0x3ccd631f	0.025071679
144	0x3cb54332	0.022126768
145	0x3c02a59e	0.0079740565
146	0xbe05d2bd	-0.13068672
147	0x3e04266c	0.12905282
148	0xbdda7c14	-0.10668197
149	0xbe3870a1	-0.18011715
150	0x3f91e765	1.1398741
151	0x3f9235b7	1.1422642
152	0x3e37c48f	0.17946075
153	0x3deb6977	0.11494725
154	0xbe3e68cb	-0.18594663
155	0xbe67462b	-0.2258536
156	0x3d1dadda	0.038495876
157	0xbd8ae5fa	-0.06782146
158	0xbcca8966	-0.02472372
159	0xbc8e2de1	-0.017355861
160	0xbd94640d	-0.07245646
161	0x3b98a93c	0.004658846
162	0xbe4f0b35	-0.20219119
163	0x3c417edb	0.01181003
164	0x3cb6db79	0.02232145
165	0xbe080424	-0.1328283
166	0x3d977cae	0.07396828
167	0xbda469b6	-0.08027975
168	0x3ca4624c	0.020066403
169	0x3d55513e	0.05207943
170	0x3dfa66f5	0.12226669
171	0x3ff85994	1.9402337
172	0xbe191a13	-0.14951353
173	0x3e07c29b	0.1325783
174	0x3ea6c7de	0.32574362
175	0xbe2a4f73	-0.1663187
176	0x3e16faaf	0.14744066
177	0x3e2774fe	0.16353223
178	0xbbd246ba	-0.0064171227
179	0x3c3abed4	0.011398036
180	0xbc87db4e	-0.016584065
181	0x3eb507bc	0.35357463
182	0x3c6cd4b3	0.014455008
183	0xbd98073e	-0.07423256
184	0x3e450666	0.19240722
185	0x3c8bfed5	0.017089287
186	0xbe8a7031	-0.2703872
187	0x3c8d74fd	0.017267698
188	0x3f9a5e57	1.206004
189	0x3fa2dd22	1.2723734

INN.linear_list.0.bias f4 [10]
0	0xbe6de15b	-0.23230498
1	0xbdb280ae	-0.0871595
2	0xbc8ac1a0	-0.01693803
3	0xbdd6164e	-0.10453473
4	0x3d452d3e	0.04813885
5	0xbd3538fa	-0.04424379
6	0xbd3a82ee	-0.04553502
7	0xbd0cf7cc	-0.034416005
8	0xbe7c6e5c	-0.24651474
9	0x3de961e7	0.113956265

INN.linear_list.1.weight f4 [10, 10]
0	0xbd2a3739	-0.04155657
1	0xbc8de022	-0.017318789
2	0xbc1773f7	-0.009243957
3	0xbd8f26c7	-0.06989818
4	0xbdcb0dae	-0.099147186
5	0x3b4ebc01	0.0031545165
6	0x3dc7090d	0.09718523
7	0x3e366c78	0.17814815
8	0xbd387fa2	-0.045043595
9	0xbe25a4eb	-0.16176192
10	0x3cdca24e	0.026932862
11	0xbbef2690	-0.007298298
12	0xbbbe2742	-0.0058030197
13	0xbcd8f559	-0.026484178
14	0xbcd8c1b6	-0.026459556
15	0xbc4018ab	-0.011724631
16	0xbd0df269	-0.03465501
17	0x3d8db19c	0.06918642
18	0xb9b480d2	-0.00034428254
19	0x3ce222a9	0.027604418
20	0xbb94db05	-0.0045427107
21	0x3ca0ec2e	0.01964387
22	0xbc4f010e	-0.012634529
23	0xbdc7a20b	-0.09747704
24	0xbe154fde	-0.14581248
25	0xbd35d496	-0.04439219
26	0xbd19a1df	-0.037507888
27	0x3e308938	0.17239845
28	0x3daba5dd	0.08381245
29	0x3cb6cd32	0.022314642
30	0x3d3cdd07	0.046109226
31	0xbb1ac295	-0.0023614515
32	0xbdc81355	-0.09769312
33	0xbdfc5dcd	-0.123225786
34	0xbeb98670	-0.3623538
35	0x3e3a985d	0.18222184
36	0xbe64f2ec	-0.22358292
37	0x3dfd71c4	0.12375215
38	0xbeb07366	-0.34463042
39	0x3e35b901	0.17746355
40	0x3df0285d	0.11726449
41	0x3d7218cd	0.059105683
42	0xbe581285	-0.21100815
43	0x3d723a90	0.05913788
44	0x3e37dba3	0.17954879
45	0xbcad32d1	-0.021142395
46	0x3e010d55	0.12602742
47	0xbcd08c95	-0.02545766
48	0x3d4f38e9	0.050591383
49	0xbd32e456	-0.04367479
50	0x3d1f402b	0.038879555
51	0x3ca811c2	0.02051628
52	0xbb6f0130	-0.0036469214
53	0x3c81fe55	0.015868345
54	0xbcf4edaf	-0.029898493
55	0x3b2dba40	0.0026508719
56	0x3c176c4c	0.009242129
57	0xbdbcd0a0	-0.092194796
58	0xbb20caec	-0.0024535013
59	0xbdc8ed86	-0.09810929
60	0x3aa8f300	0.0012889802
61	0xbba262b8	-0.004955616
62	0xbb84ef8b	-0.004056876
63	0xbc1873e4	-0.009304974
64	0x3c976583	0.018481022
65	0xbbd6bef8	-0.006553527
66	0x3bafc43c	0.005363969
67	0x3cbfaf07	0.02339889
68	0xbc4ea5b2	-0.012612747
69	0x3d326f25	0.043563027
70	0x3e9cad4f	0.30600974
71	0x3e17aaaa	0.14811197
72	0x3d4bcc20	0.049755216
73	0x3df389e4	0.11891535
74	0x3eb12dd2	0.3460527
75	0x3cf128d5	0.029438416
76	0x3e94997e	0.29023355
77	0x3d86aa14	0.065754086
78	0xbd03f828	-0.032219082
79	0x3c9fd80f	0.019512204
80	0x3c826fe3	0.015922492
81	0x3cb1a331	0.021684261
82	0xbac705ec	-0.001518426
83	0x3bd0ed3b	0.0063759363
84	0x3a3395a9	0.0006850609
85	0xbc96cbdf	-0.01840776
86	0x3bf968c1	0.0076113646
87	0x3c1fae65	0.009746169
88	0xbd08a011	-0.033355776
89	0x3b30627f	0.0026914177
90	0x3d3743ba	0.044742323
91	0xbd81b497	-0.06333273
92	0xbc0c9137	-0.008579544
93	0xbc8406dd	-0.016116554
94	0xbd543488	-0.05180791
95	0xbcc7f473	-0.024408555
96	0xbe1fed56	-0.1561788
97	0xbd752218	-0.059846967
98	0x3d2dd629	0.042440567
99	0x3e8275b7	0.25480434

INN.linear_list.1.bias f4 [10]
0	0xbe864888	-0.26227212
1	0x3dc38f0f	0.09548771
2	0x3e823989	0.2543452
3	0xbe1b57c9	-0.15170206
4	0xbd8ff7e5	-0.07029704
5	0xbea34c74	-0.31894267
6	0xbf0122c3	-0.5044367
7	0xbe5cd09f	-0.21563958
8	0x3e7d6ce9	0.24748577
9	0x3d8c0c89	0.068383284

INN.linear_list.2.weight f4 [1, 10]
0	0xbb0df247	-0.00216593
1	0x3a3b33ee	0.0007141222
2	0xbbab40e4	-0.0052262414
3	0x3c95fa3d	0.0183078
4	0x3df60c9c	0.12014124
5	0x3c2075c1	0.0097937
6	0xbb7d3d96	-0.0038641444
7	0xbd24ef13	-0.04026706
8	0x3b2163a1	0.0024626034
9	0xbb6fea11	-0.003660802
