runtime data/model120_save.pt (torch, 33298 bytes, 8 tensors)

GNN.adjacency_matrix f4 [80, 80]
0	0xbf800000	-1.0
1	0x3f73360d	0.9500435
2	0xbf800000	-1.0
3	0xbf800000	-1.0
4	0xbf800000	-1.0
5	0xbf800000	-1.0
6	0xbf800000	-1.0
7	0xbf800000	-1.0
8	0xbf800000	-1.0
9	0xbf800000	-1.0
10	0xbf800000	-1.0
11	0xbf800000	-1.0
12	0xbf800000	-1.0
13	0xbf800000	-1.0
14	0xbf800000	-1.0
15	0xbf800000	-1.0
16	0xbf800000	-1.0
17	0xbf800000	-1.0
18	0xbf800000	-1.0
19	0xbf800000	-1.0
20	0xbf800000	-1.0
21	0xbf800000	-1.0
22	0xbf800000	-1.0
23	0xbf800000	-1.0
24	0xbf800000	-1.0
25	0xbf800000	-1.0
26	0xbf800000	-1.0
27	0xbf800000	-1.0
28	0xbf800000	-1.0
29	0xbf800000	-1.0
30	0xbf800000	-1.0
31	0xbf800000	-1.0
32	0xbf800000	-1.0
33	0xbf800000	-1.0
34	0xbf800000	-1.0
35	0xbf800000	-1.0
36	0xbf800000	-1.0
37	0xbf800000	-1.0
38	0xbf800000	-1.0
39	0xbf800000	-1.0
40	0xbf800000	-1.0
41	0xbf800000	-1.0
42	0xbf800000	-1.0
43	0xbf800000	-1.0
44	0xbf800000	-1.0
45	0xbf800000	-1.0
46	0xbf800000	-1.0
47	0xbf800000	-1.0
48	0xbf800000	-1.0
49	0xbf800000	-1.0
50	0xbf800000	-1.0
51	0xbf800000	-1.0
52	0xbf800000	-1.0
53	0xbf800000	-1.0
54	0xbf800000	-1.0
55	0xbf800000	-1.0
56	0xbf800000	-1.0
57	0xbf800000	-1.0
58	0xbf800000	-1.0
59	0xbf800000	-1.0
60	0xbf800000	-1.0
61	0xbf800000	-1.0
62	0xbf800000	-1.0
63	0xbf800000	-1.0
64	0xbf800000	-1.0
65	0xbf800000	-1.0
66	0xbf800000	-1.0
67	0xbf800000	-1.0
68	0xbf800000	-1.0
69	0xbf800000	-1.0
70	0xbf800000	-1.0
71	0xbf800000	-1.0
72	0xbf800000	-1.0
73	0xbf800000	-1.0
74	0xbf800000	-1.0
75	0xbf800000	-1.0
76	0xbf800000	-1.0
77	0xbf800000	-1.0
78	0xbf800000	-1.0
79	0xbf800000	-1.0
80	0x3f4464e6	0.7671646
81	0xbf800000	-1.0
82	0xbf800000	-1.0
83	0xbf800000	-1.0
84	0xbf800000	-1.0
85	0xbf800000	-1.0
86	0xbf800000	-1.0
87	0xbf800000	-1.0
88	0xbf800000	-1.0
89	0xbf800000	-1.0
90	0xbf800000	-1.0
91	0xbf800000	-1.0
92	0xbf800000	-1.0
93	0xbf800000	-1.0
94	0xbf800000	-1.0
95	0xbf800000	-1.0
96	0xbf800000	-1.0
97	0xbf800000	-1.0
98	0xbf800000	-1.0
99	0xbf800000	-1.0
100	0xbf800000	-1.0
101	0xbf800000	-1.0
102	0xbf800000	-1.0
103	0xbf800000	-1.0
104	0xbf800000	-1.0
105	0xbf800000	-1.0
106	0xbf800000	-1.0
107	0xbf800000	-1.0
108	0xbf800000	-1.0
109	0xbf800000	-1.0
110	0xbf800000	-1.0
111	0xbf800000	-1.0
112	0xbf800000	-1.0
113	0xbf800000	-1.0
114	0xbf800000	-1.0
115	0xbf800000	-1.0
116	0xbf800000	-1.0
117	0xbf800000	-1.0
118	0xbf800000	-1.0
119	0xbf800000	-1.0
120	0xbf800000	-1.0
121	0xbf800000	-1.0
122	0xbf800000	-1.0
123	0xbf800000	-1.0
124	0xbf800000	-1.0
125	0xbf800000	-1.0
126	0xbf800000	-1.0
127	0xbf800000	-1.0
128	0xbf800000	-1.0
129	0xbf800000	-1.0
130	0xbf800000	-1.0
131	0xbf800000	-1.0
132	0xbf800000	-1.0
133	0xbf800000	-1.0
134	0xbf800000	-1.0
135	0xbf800000	-1.0
136	0xbf800000	-1.0
137	0xbf800000	-1.0
138	0xbf800000	-1.0
139	0xbf800000	-1.0
140	0xbf800000	-1.0
141	0xbf800000	-1.0
142	0xbf800000	-1.0
143	0xbf800000	-1.0
144	0xbf800000	-1.0
145	0xbf800000	-1.0
146	0xbf800000	-1.0
147	0xbf800000	-1.0
148	0xbf800000	-1.0
149	0xbf800000	-1.0
150	0xbf800000	-1.0
151	0xbf800000	-1.0
152	0xbf800000	-1.0
153	0xbf800000	-1.0
154	0xbf800000	-1.0
155	0xbf800000	-1.0
156	0xbf800000	-1.0
157	0xbf800000	-1.0
158	0xbf800000	-1.0
159	0xbf800000	-1.0
160	0xbf800000	-1.0
161	0xbf800000	-1.0
162	0xbf800000	-1.0
163	0xbf800000	-1.0
164	0xbf800000	-1.0
165	0xbf800000	-1.0
166	0xbf800000	-1.0
167	0xbf800000	-1.0
168	0xbf800000	-1.0
169	0xbf800000	-1.0
170	0xbf800000	-1.0
171	0xbf800000	-1.0
172	0xbf800000	-1.0
173	0xbf800000	-1.0
174	0xbf800000	-1.0
175	0xbf800000	-1.0
176	0xbf800000	-1.0
177	0xbf800000	-1.0
178	0xbf800000	-1.0
179	0xbf800000	-1.0
180	0xbf800000	-1.0
181	0xbf800000	-1.0
182	0xbf800000	-1.0
183	0xbf800000	-1.0
184	0xbf800000	-1.0
185	0xbf800000	-1.0
186	0xbf800000	-1.0
187	0xbf800000	-1.0
188	0xbf800000	-1.0
189	0xbf800000	-1.0
190	0xbf800000	-1.0
191	0xbf800000	-1.0
192	0xbf800000	-1.0
193	0xbf800000	-1.0
194	0xbf800000	-1.0
195	0xbf800000	-1.0
196	0xbf800000	-1.0
197	0xbf800000	-1.0
198	0xbf800000	-1.0
199	0xbf800000	-1.0
200	0xbf800000	-1.0
201	0xbf800000	-1.0
202	0xbf800000	-1.0
203	0xbf800000	-1.0
204	0xbf800000	-1.0
205	0xbf800000	-1.0
206	0xbf800000	-1.0
207	0xbf800000	-1.0
208	0xbf800000	-1.0
209	0xbf800000	-1.0
210	0xbf800000	-1.0
211	0xbf800000	-1.0
212	0xbf800000	-1.0
213	0xbf800000	-1.0
214	0xbf800000	-1.0
215	0xbf800000	-1.0
216	0xbf800000	-1.0
217	0xbf800000	-1.0
218	0xbf800000	-1.0
219	0xbf800000	-1.0
220	0xbf800000	-1.0
221	0xbf800000	-1.0
222	0xbf800000	-1.0
223	0xbf800000	-1.0
224	0xbf800000	-1.0
225	0xbf800000	-1.0
226	0xbf800000	-1.0
227	0xbf800000	-1.0
228	0xbf800000	-1.0
229	0xbf800000	-1.0
230	0xbf800000	-1.0
231	0xbf800000	-1.0
232	0xbf800000	-1.0
233	0xbf800000	-1.0
234	0xbf800000	-1.0
235	0xbf800000	-1.0
236	0xbf800000	-1.0
237	0xbf800000	-1.0
238	0xbf800000	-1.0
239	0xbf800000	-1.0
240	0xbf800000	-1.0
241	0xbf800000	-1.0
242	0xbf800000	-1.0
243	0xbf800000	-1.0
244	0xbf800000	-1.0
245	0xbf800000	-1.0
246	0xbf800000	-1.0
247	0xbf800000	-1.0
248	0xbf800000	-1.0
249	0xbf800000	-1.0
250	0xbf800000	-1.0
251	0xbf800000	-1.0
252	0xbf800000	-1.0
253	0xbf800000	-1.0
254	0xbf800000	-1.0
255	0xbf800000	-1.0

GNN.self_temp_w f4 [80]
0	0x3f521850	0.8206835
1	0x3f6f8436	0.9356111
2	0x3f9b1d78	1.2118368
3	0x3f634f34	0.8879273
4	0x3f62b42b	0.88556165
5	0x3f56ff03	0.83982867
6	0x3f44ef24	0.769274
7	0x3f472860	0.7779598
8	0x3f571204	0.84011865
9	0x3f9a44c8	1.205224
10	0x3f8db278	1.1070089
11	0x3f92f484	1.148087
12	0x3f844f15	1.0336634
13	0x3f625718	0.88414145
14	0x3f337a10	0.7010813
15	0x3f60d83d	0.87829953
16	0x3f8c0748	1.0939722
17	0x3f7aa2d4	0.97904706
18	0x3f601151	0.8752642
19	0x3f58be64	0.84665513
20	0x3f6eb327	0.93242115
21	0x3f8da599	1.1066161
22	0x3f9184a0	1.1368599
23	0x3f8fd8f6	1.1238086
24	0x3f61be27	0.88180774
25	0x3f3d52f8	0.73954725
26	0x3f51f4d5	0.8201421
27	0x3f65c8b1	0.89759356
28	0x3f66b474	0.901191
29	0x3f9b1f2f	1.2118891
30	0x3f95fb17	1.1717252
31	0x3f380d63	0.71895427
32	0x3f479539	0.7796207
33	0x3f91b646	1.138375
34	0x3f89e10e	1.0771806
35	0x3f59b55f	0.85042375
36	0x3f829edd	1.0204731
37	0x3f4ccd5b	0.8000085
38	0x3f580575	0.84383327
39	0x3f4895f7	0.7835383
40	0x3f586c49	0.8454023
41	0x3f5a74af	0.85334295
42	0x3f661fc8	0.89892244
43	0x3f52c3eb	0.823302
44	0x3f6b3bf0	0.9188833
45	0x3f85160c	1.0397353
46	0x3f602b7b	0.87566346
47	0x3f4ee57b	0.8081891
48	0x3f5977c8	0.84948397
49	0x3f86466d	1.0490242
50	0x3f96db62	1.17857
51	0x3f9bd4b8	1.2174292
52	0x3f9b1f7a	1.2118981
53	0x3f5d9f8a	0.8657156
54	0x3f4c5ae2	0.79826176
55	0x3f82308d	1.0171067
56	0x3f57ca40	0.84292984
57	0x3f7f2c9c	0.99677444
58	0x3f94ebb2	1.1634429
59	0x3f9f00af	1.2422084
60	0x3f911fc9	1.1337825
61	0x3f8871ad	1.0659691
62	0x3f835508	1.0260324
63	0x3f826e75	1.0189959
64	0x3f4f58a6	0.8099464
65	0x3f621b1f	0.88322634
66	0x3f98ca39	1.1936713
67	0x3f6d9108	0.92799425
68	0x3f6ca6b0	0.92441845
69	0x3f8e5db5	1.1122347
70	0x3f50f08d	0.8161705
71	0x3f63facb	0.89054555
72	0x3f6e828f	0.93167967
73	0x3f4e1a4f	0.80508894
74	0x3f4acf58	0.7922263
75	0x3f538c53	0.8263599
76	0x3f974068	1.181653
77	0x3f864323	1.0489239
78	0x3f88623a	1.0654976
79	0x3f97b26c	1.1851325

GNN.other_temp_w f4 [80]
0	0x3e4559d7	0.19272552
1	0x3e1abcf4	0.15111142
2	0x3e4ccccd	0.2
3	0x3e4ccccd	0.2
4	0x3e4ccccd	0.2
5	0x3e2abd93	0.1667388
6	0x3dea82c6	0.11450724
7	0x3e2a7d1d	0.1664929
8	0x3e5d63f5	0.21620162
9	0x3e4ccccd	0.2
10	0x3e4ccccd	0.2
11	0x3e4ccccd	0.2
12	0x3e4ccccd	0.2
13	0x3e4ac7c8	0.19802773
14	0x3e25a94d	0.16177864
15	0x3e4ccccd	0.2
16	0x3e4ccccd	0.2
17	0x3e4ccccd	0.2
18	0x3e80c0d6	0.25147122
19	0x3e81a780	0.25323105
20	0x3e4ccccd	0.2
21	0x3e4ccccd	0.2
22	0x3e4ccccd	0.2
23	0x3e4ccccd	0.2
24	0x3e8a389e	0.2699632
25	0x3dec305b	0.115326606
26	0x3e4ac145	0.19800289
27	0x3e943f04	0.28954327
28	0x3e9503df	0.29104516
29	0x3e4ccccd	0.2
30	0x3e4ccccd	0.2
31	0x3dfb9842	0.122849
32	0x3e11e610	0.14247918
33	0x3e4ccccd	0.2
34	0x3e4ccccd	0.2
35	0x3e4ccccd	0.2
36	0x3e4ccccd	0.2
37	0x3e749ad9	0.23887195
38	0x3e1e49f6	0.15457901
39	0x3e5ae9db	0.21378271
40	0x3e5b90f5	0.21442015
41	0x3e77c9ca	0.2419807
42	0x3e8ead73	0.27866706
43	0x3e5e75c0	0.21724606
44	0x3e7c9b59	0.24668635
45	0x3e4ccccd	0.2
46	0x3e269092	0.16266087
47	0x3e34dfb2	0.17663458
48	0x3e4ed70d	0.20199223
49	0x3e4ccccd	0.2
50	0x3e4ccccd	0.2
51	0x3e4ccccd	0.2
52	0x3e4ccccd	0.2
53	0x3e745069	0.23858799
54	0x3e488938	0.19583595
55	0x3e4ccccd	0.2
56	0x3e212def	0.15740179
57	0x3e6559c1	0.2239752
58	0x3e4ccccd	0.2
59	0x3e4ccccd	0.2
60	0x3e4ccccd	0.2
61	0x3e4ccccd	0.2
62	0x3e4ccccd	0.2
63	0x3e4ccccd	0.2
64	0x3e679d22	0.22618535
65	0x3e6c7c10	0.23094201
66	0x3e4ccccd	0.2
67	0x3e4ccccd	0.2
68	0x3e4ccccd	0.2
69	0x3e4ccccd	0.2
70	0x3e5673dd	0.20942636
71	0x3e88a593	0.26688823
72	0x3e4ccccd	0.2
73	0x3e3b0973	0.18265323
74	0x3e3079c3	0.17233948
75	0x3e593971	0.21213318
76	0x3e4ccccd	0.2
77	0x3e4ccccd	0.2
78	0x3e4ccccd	0.2
79	0x3e4ccccd	0.2

INN.linear_list.0.weight f4 [20, 19]
0	0xbe57c178	-0.21069896
1	0x3ebae9b8	0.36506438
2	0x3d0d9e1a	0.034574606
3	0xbe2b8502	-0.16749957
4	0xbcb7f6e9	-0.022456603
5	0x3d22b338	0.039721698
6	0x3ea995ae	0.3312201
7	0x3d534335	0.051577765
8	0x3e1e4fd6	0.15460142
9	0x3de3f315	0.111303486
10	0x3d2222ec	0.039584085
11	0xbd7e6f26	-0.06211772
12	0xbc74a30e	-0.014931453
13	0xbdd478e8	-0.103746235
14	0x3cbf9102	0.023384575
15	0x3cda6b38	0.026662454
16	0xbcd582e7	-0.026063396
17	0x3e345668	0.17611086
18	0x3e298073	0.16552906
19	0x3dac574a	0.084150866
20	0x3e71f44d	0.2362835
21	0x3ea642bb	0.32472786
22	0xbe979137	-0.29602978
23	0xbaa04cc4	-0.0012229909
24	0x3e382b3c	0.17985243
25	0xbe293752	-0.1652501
26	0xbcd9e8d3	-0.026600277
27	0x3c4193e2	0.011815043
28	0x3e898547	0.26859495
29	0x3d34526a	0.04402391
30	0x3b6d46f1	0.0036205614
31	0x3e0e9063	0.13922267
32	0x3e145996	0.144873
33	0xbe2c9460	-0.16853476
34	0x3d963906	0.07335095
35	0xbddca8dd	-0.107743956
36	0x3ed7878f	0.4209561
37	0x3eba1f8c	0.36352193
38	0x3da372ea	0.079809025
39	0x3cfeed49	0.031119006
40	0xbd9bb6db	-0.07603236
41	0xbe015f27	-0.12633954
42	0xbe84443d	-0.25833312
43	0x3e3f82bc	0.18702215
44	0x3e6e205f	0.23254536
45	0x3ca2dae7	0.019879771
46	0xbe13d1f3	-0.14435558
47	0x3d8af602	0.067852035
48	0x3e100a68	0.1406647
49	0xbd02f0a7	-0.031967785
50	0x3d0e496c	0.03473799
51	0xbe2fd8d7	-0.17172562
52	0x3d9b8b72	0.075949565
53	0x3d4411e2	0.047868617
54	0xbe1311c1	-0.14362241
55	0xbe130d40	-0.14360523
56	0x3d90c043	0.07067921
57	0xbf06c10f	-0.52638334
58	0xbd8885ab	-0.0666612
59	0x3e258bfe	0.16166684
60	0x3dabe0c6	0.083924815
61	0xbe84acaf	-0.25912997
62	0x3bdb61ec	0.006695023
63	0xbdb3fc4e	-0.08788358
64	0x3cb61b48	0.022229806
65	0x3df4e1cf	0.11957132
66	0xbd379271	-0.04481739
67	0x3e4c99ae	0.19980499
68	0xbceceec4	-0.028922446
69	0x3cc94c98	0.024572656
70	0xbc22d170	-0.009937629
71	0x3d246b7c	0.040141568
72	0x3e61ef55	0.22063954
73	0x3ce1a674	0.027545191
74	0xbdddeac2	-0.10835792
75	0xbe61eedf	-0.22063778
76	0xbeca6781	-0.39532092
77	0x3e9dc299	0.3081253
78	0xbddb6af7	-0.10713761
79	0xbe3ef476	-0.18647942
80	0x3e2fed0f	0.17180274
81	0xbd678dd0	-0.056531727
82	0xbe35582e	-0.17709419
83	0x3c779cb6	0.015113046
84	0x3ddaf97b	0.10692116
85	0x3e78fba5	0.24314745
86	0x3c25a998	0.010111235
87	0xbbb62316	-0.005558382
88	0xbdbf4389	-0.09339053
89	0x3d9fb89e	0.07798885
90	0x3d54e66d	0.051977564
91	0xbd2a8e57	-0.041639652
92	0x3dd7c008	0.10534674
93	0x3e73f35b	0.23823301
94	0x3d83d14f	0.06436407
95	0xbd0f6379	-0.035006974
96	0x3d2b73f5	0.041858632
97	0x3d2fc3e9	0.042911444
98	0x3ed01f3d	0.40648833
99	0xbe7a4c28	-0.24443114
100	0x3d3a671c	0.04550849
101	0xbc829436	-0.015939813
102	0x3c538f09	0.01291252
103	0x3db08d3e	0.0862069
104	0xbe98cd6b	-0.2984422
105	0x3e3e24c1	0.18568708
106	0xbced4e72	-0.02896807
107	0x3dae5b87	0.08513551
108	0xbdddc3e3	-0.10828378
109	0xbd9abb78	-0.07555288
110	0x3e3c5fb8	0.18395889
111	0xbe823be5	-0.2543632
112	0xbe8aa59e	-0.2707948
113	0xbe315ada	-0.17319813
114	0x3daf91fe	0.08572768
115	0x3dd45eb9	0.103696294
116	0x3d65b6ae	0.05608242
117	0xbeac2182	-0.33619314
118	0x3eab5f05	0.33470932
119	0x3d25e686	0.040503047
120	0x3d459a68	0.048242956
121	0x3d1e6db2	0.038678832
122	0x3dee93a8	0.11649257
123	0x3e3425cd	0.17592545
124	0xbd841d42	-0.06450893
125	0xbb893ce8	-0.004188169
126	0x3e17b6cc	0.14815825
127	0x3dcd844c	0.10034999
128	0xbd8bdcf1	-0.068292506
129	0x3adf991d	0.0017059181
130	0xbe185c63	-0.14878993
131	0x3f0343fe	0.5127562
132	0x3e4c02e5	0.19922979
133	0x3d018cd3	0.03162844
134	0x3d2c7b8f	0.042110022
135	0xbe02c4da	-0.12770405
136	0x3d63c1f8	0.055604905
137	0xbd9b55ec	-0.07584748
138	0xbe5a0a7a	-0.21293059
139	0x3df7b3e1	0.12094856
140	0x3dfe58ac	0.124192566
141	0x3e5c4a42	0.21512702
142	0x3cccd008	0.02500154
143	0x3d900235	0.07031671
144	0x3d74e6b6	0.059790336
145	0xbdb95f81	-0.09051419
146	0xbe4ffb8d	-0.20310803
147	0xbdc5609b	-0.09637567
148	0x3c0fb9de	0.008772342
149	0xbe35ab1d	-0.17741056
150	0xbdfc55bd	-0.12321041
151	0xbef52ddf	-0.4788656
152	0xbc0f3c90	-0.008742467
153	0x3e63bd52	0.22240189
154	0x3d02ff42	0.031981714
155	0x3c7c512a	0.01540021
156	0xbd81b03d	-0.06332443
157	0x3e143d27	0.14476453
158	0xbd8f8498	-0.07007712
159	0xbd047899	-0.032341573
160	0x3e9d5d2e	0.30735153
161	0x3e407a7e	0.18796727
162	0x3cec911d	0.02887779
163	0xbc0c75dd	-0.008573023
164	0xbd7cda1c	-0.061731443
165	0xbd6200c6	-0.05517652
166	0x3dd5c4f2	0.10437955
167	0x3e8b804e	0.27246326
168	0x3e25eda8	0.1620394
169	0x3e1d5dbb	0.15367787
170	0x3ee6f07d	0.45105353
171	0xbea8c57b	-0.32963166
172	0xbe4670a6	-0.1937891
173	0x3df6192b	0.12016519
174	0x3c990c0f	0.018682508
175	0x3e63e811	0.22256495
176	0xbdf0b5c3	-0.11753418
177	0x3cc4ebab	0.024038156
178	0x3c9e594d	0.019329691
179	0x3dd8accc	0.105798334
180	0x3d94dc25	0.07268552
181	0xbdd57ad7	-0.104238205
182	0xbc39fb62	-0.011351438
183	0x3b1b2a85	0.0023676467
184	0xbdd69b7d	-0.10478876
185	0x3dc0fb27	0.094229035
186	0x3db799de	0.08964895
187	0x3dc19329	0.09451897
188	0x3de53db6	0.11193411
189	0x3d216d2e	0.039410762
190	0x3de80ca8	0.11330539
191	0x3e2d20ce	0.16907045
192	0x3e068720	0.13137484
193	0xbec059b5	-0.3756844
194	0xbd873a15	-0.06602875
195	0x3e263cfd	0.16234203
196	0xbe5bc93d	-0.21463485
197	0x3de7e99c	0.11323854
198	0xbdc3df61	-0.095640905
199	0x3e1e47ac	0.15457028
200	0x3deee9e3	0.11665704
201	0x3d5be986	0.053689502
202	0xbe195faa	-0.14977899
203	0x3e085863	0.13314967
204	0x3e4884d5	0.19581921
205	0x3d35c982	0.044381626
206	0x3cd03c26	0.025419306
207	0x3dd033a0	0.10166097
208	0x3e938613	0.28813228
209	0x3ddedaf4	0.10881606
210	0xbea27e32	-0.31736904
211	0xbd84525e	-0.06461023
212	0x3e88fa0f	0.2675328
213	0xbe5c7fde	-0.21533152
214	0xbe95d301	-0.29262546
215	0xbba8c287	-0.0051501426
216	0xbd30fcee	-0.043209963
217	0x3ae59507	0.0017515727
218	0xbeb76a7c	-0.3582343
219	0xbd380cd4	-0.04493411
220	0xbdebc8df	-0.115129225
221	0x3dc423eb	0.09577163
222	0x3e368649	0.17824663
223	0xbdcdd792	-0.100508824
224	0xbc81ef4b	-0.015861174
225	0x3e4b4c99	0.19853438
226	0xbdfc5c6e	-0.12322317
227	0xbeb5ca87	-0.3550608
228	0xbe8cc4ea	-0.27493984
229	0x3dbc479c	0.09193346
230	0x3e532c40	0.20622349
231	0xbe7438b0	-0.2384975
232	0x3e207563	0.1566978
233	0xbd9f383e	-0.07774399
234	0xbe157cb9	-0.14598359
235	0x3d5ef065	0.054428477
236	0xbd55477c	-0.052070126
237	0xbd145817	-0.03621682
238	0xbe37387f	-0.17892645
239	0xbd2c8d19	-0.04212675
240	0xbba25c90	-0.004954882
241	0x3e043339	0.12910165
242	0xbe112188	-0.14172947
243	0x3e5318da	0.20614949
244	0x3d32a618	0.04361543
245	0x3de2047b	0.11036011
246	0xbe4c2091	-0.19934298
247	0x3f29aa6e	0.6627568
248	0x3e239cd6	0.15977797
249	0xbf0e158a	-0.55501616
250	0x3e71e39a	0.2362198
251	0xbe5db42d	-0.21650763
252	0x3e3a3c85	0.18187149
253	0x3d189ae5	0.037257094
254	0x3bd09e6c	0.0063665416
255	0x3e2affcf	0.16699146

INN.linear_list.0.bias f4 [20]
0	0x3e04edea	0.12981382
1	0x3e9480fb	0.29004654
2	0x3c4b7212	0.012417333
3	0x3c8d5a47	0.017254962
4	0x3e555ba7	0.20835744
5	0xbd183159	-0.037156437
6	0xbd1bbc8d	-0.038021613
7	0x3b5b06e2	0.003342085
8	0x39b497ae	0.00034445286
9	0xbde024be	-0.10944508
10	0xbe12a6a1	-0.14321376
11	0xbebf131a	-0.3731926
12	0x3dfc5766	0.123213574
13	0xbd31a30f	-0.043368395
14	0x3e0bcde5	0.13652761
15	0xbe8a8291	-0.2705274
16	0x3e35e96c	0.17764825
17	0xbe195028	-0.14971983
18	0xbc71b0dd	-0.01475164
19	0xbd2479ae	-0.040155105

INN.linear_list.1.weight f4 [20, 20]
0	0xbde7068b	-0.11280545
1	0xbda00c5b	-0.078148566
2	0x3e0dba95	0.13840707
3	0xbd25aa3e	-0.04044556
4	0xbe17e711	-0.14834239
5	0xbde1ac1c	-0.110191554
6	0x3e06b1ed	0.13153811
7	0x3de2a3ff	0.11066436
8	0x3da4c586	0.08045487
9	0xbd4347b8	-0.04767582
10	0xbd6de0b5	-0.058075625
11	0xbe4492a9	-0.19196571
12	0xbd88ca55	-0.06679217
13	0xbdd69294	-0.10477176
14	0xbdaf4bf2	-0.08559407
15	0x3e4492cc	0.19196624
16	0xbd2901fa	-0.04126165
17	0xbdb5e6c4	-0.08881906
18	0xbc4bc7a4	-0.012437735
19	0x3d26e282	0.04074336
20	0x3d61d458	0.055134147
21	0x3e54053c	0.20705122
22	0xbe08e498	-0.13368452
23	0xbdab8361	-0.08374668
24	0xbdbce77d	-0.092238404
25	0x3b0e8958	0.0021749344
26	0x3e0e91ca	0.13922802
27	0x3c18201f	0.009285002
28	0x3ddf287b	0.10896393
29	0xbd7b422e	-0.06134241
30	0x3dceec30	0.10103643
31	0x3e31b648	0.17354691
32	0x3c90b3ba	0.017663825
33	0xbd9548a5	-0.072892465
34	0xbe3d3599	-0.18477477
35	0x3ddb47c3	0.10707047
36	0x3cae10d1	0.021248253
37	0x3d695d63	0.056973826
38	0x3dc77421	0.09738947
39	0x3dc55dbf	0.09637021
40	0xbd5a6ce9	-0.05332652
41	0x3d0dc0f8	0.034607857
42	0xbca13220	-0.019677222
43	0xbc9335ce	-0.017969992
44	0xbe350ed8	-0.17681444
45	0x3d2415ab	0.040059727
46	0x3dadcac7	0.08485942
47	0xbe4b90a7	-0.19879399
48	0x3e180439	0.14845361
49	0x3d22ea94	0.039774492
50	0x3d9fb28a	0.077977255
51	0xbd85fa01	-0.06541825
52	0xbd3597b9	-0.044334147
53	0x3e3b2318	0.18275106
54	0xbda716d7	-0.08158653
55	0xbe1f3d1f	-0.1555066
56	0x3d97cae1	0.07411743
57	0xbd8610d6	-0.0654618
58	0x3cb3cb54	0.02194754
59	0xbdb78f35	-0.089628614
60	0x3d70f6e2	0.058829196
61	0x3e28a712	0.16469982
62	0xbd1f18f6	-0.038842164
63	0x3d66b072	0.056320615
64	0xbddf1cae	-0.10894142
65	0x3d514ee2	0.05110062
66	0xbd21ffa0	-0.039550424
67	0xbe083437	-0.13301168
68	0x3a5d7b7d	0.0008448882
69	0x3d06745a	0.032825805
70	0x3c52598b	0.0128387315
71	0x3d9e702e	0.0773624
72	0x3ddead2c	0.10872874
73	0x3d2b1f20	0.04177773
74	0x3cd33e47	0.025786532
75	0xbe0f5e7a	-0.14000884
76	0xbddc2b3e	-0.10750435
77	0x3e13c740	0.14431477
78	0x3d14b89b	0.036308866
79	0x3bdf660d	0.0068175853
80	0xbd03f0db	-0.03221212
81	0x3e17f1dd	0.14838357
82	0x3d986b1b	0.07442304
83	0x3ded3377	0.11582082
84	0x3e439cba	0.19102755
85	0xbd9972e9	-0.074926205
86	0x3e5a1f88	0.2130109
87	0xbd12000c	-0.035644576
88	0xbe27b54e	-0.16377756
89	0x3dfa8251	0.12231887
90	0xbd971267	-0.07376557
91	0xbe2f9d21	-0.17149784
92	0xbc97db26	-0.018537115
93	0xbda7aa4a	-0.08186777
94	0x3e2dc6f3	0.16970424
95	0xbe04eff9	-0.12982167
96	0x3e6480a4	0.22314698
97	0xbe757b87	-0.23972903
98	0xbdd62fb3	-0.10458317
99	0x3daa856a	0.08326228
100	0xbccaf3dd	-0.024774486
101	0x3cd309ff	0.025761602
102	0xbd4563d8	-0.04819092
103	0xbd757de9	-0.05993453
104	0xbb19e524	-0.0023482526
105	0x3d346c08	0.04404834
106	0xbcecfd02	-0.028929237
107	0xbe62ca50	-0.22147489
108	0xbda9658e	-0.08271323
109	0x3dea230d	0.11432467
110	0x3debd0c7	0.115144305
111	0x3bf7261d	0.0075423853
112	0x3ca177d1	0.019710453
113	0xbd577a25	-0.05260672
114	0x3d7e60e5	0.062104125
115	0xbd6b93fb	-0.057514172
116	0xbd51c657	-0.051214542
117	0x3e17137a	0.14753523
118	0x3e4c0ff8	0.19927967
119	0x3dc1e8ab	0.09468206
120	0xbe0030d8	-0.12518632
121	0xbe027736	-0.12740788
122	0xbe494c79	-0.19658078
123	0x3e623b05	0.22092827
124	0xbe2be629	-0.16787018
125	0x3daf38ae	0.08555733
126	0xbe01bbf1	-0.1266935
127	0xbe11477d	-0.14187427
128	0x3db7b00e	0.08969127
129	0x3dc9a3df	0.09845709
130	0x3eaaff49	0.33397892
131	0xbd61907b	-0.055069428
132	0xbe4ea1c0	-0.2017889
133	0x3c5e16d6	0.013555249
134	0x3cd8a2cd	0.026444817
135	0xbe4db74c	-0.20089453
136	0xbdab1994	-0.08354488
137	0xbe1d4597	-0.15358578
138	0x3d6ea1ac	0.05825965
139	0xbd96f6b5	-0.073712744
140	0xbe33f886	-0.17575273
141	0x3cc6e834	0.024280645
142	0xbe2f1edc	-0.17101616
143	0xbe457076	-0.19281182
144	0xbe1a70f7	-0.15082155
145	0x3e39d596	0.18147883
146	0xbbf5663f	-0.0074889953
147	0x3cd3ab4c	0.025838517
148	0xbe23495b	-0.15945952
149	0x3ddb0eb8	0.10696167
150	0xbe09e290	-0.13465333
151	0xbe41ef7e	-0.18939015
152	0xbd867fc3	-0.06567337
153	0x3b79c286	0.003811033
154	0xbd9472e9	-0.0724848
155	0x3d625988	0.055261165
156	0xbe3d502e	-0.18487617
157	0xbe467b12	-0.19382885
158	0xbda8c4bd	-0.0824065
159	0xbe7b5efe	-0.24547955
160	0x3e1dea5b	0.15421431
161	0xbd5d96b7	-0.05409881
162	0xbbd9b3b4	-0.0066437367
163	0xbdc539c3	-0.09630158
164	0x3c1b4b46	0.009478396
165	0xbdb15f00	-0.08660698
166	0x3e24fb7c	0.16111559
167	0xbe06ea61	-0.13175346
168	0xbbfc0264	-0.0076907147
169	0xbc2994ae	-0.010350389
170	0x3d9d0dcc	0.07668647
171	0xbda2ed00	-0.079553604
172	0xbddbc575	-0.10731021
173	0x3c5f2f2d	0.013622087
174	0xbd461a41	-0.04836488
175	0x3e40dfd0	0.18835378
176	0xbd9ba5c3	-0.07599976
177	0x3e061289	0.13093008
178	0x3c37a5a9	0.01120893
179	0xbd28a9a6	-0.041177414
180	0xbd88f95e	-0.06688188
181	0xbe509a7a	-0.20371428
182	0x3daf35a8	0.08555156
183	0xbdadf046	-0.08493094
184	0xbd99ee44	-0.07516149
185	0xbe21f065	-0.1581436
186	0x3e1b9a77	0.15195642
187	0xbe7398b2	-0.23788717
188	0xbe455324	-0.19269997
189	0x3c805c5e	0.015669044
190	0xbc1db430	-0.00962548
191	0x3db29646	0.08720069
192	0xbe8b902f	-0.2725844
193	0x3bd5f8ef	0.0065299193
194	0x3d9be20b	0.07611474
195	0x3dc5c98f	0.09657585
196	0xbc52dc97	-0.0128699755
197	0x3e0638bc	0.1310758
198	0x3e425c4b	0.1898052
199	0xbdcb1a6d	-0.0991715
200	0x3e21a8db	0.1578707
201	0x3d1c98aa	0.03823153
202	0x3d56ca6f	0.05243915
203	0xbd134194	-0.035951212
204	0x3daabb48	0.08336502
205	0xbc9bc4ec	-0.019014798
206	0x3d97bbc8	0.07408863
207	0xbd37e977	-0.044900384
208	0x3de3e045	0.111267604
209	0x3d8b45ed	0.06800447
210	0x3ce1de3f	0.027571796
211	0x3d6878c3	0.056755792
212	0xbd42d09f	-0.047562238
213	0xbe013671	-0.12618424
214	0x3df0a4f6	0.11750214
215	0x3d49fff8	0.049316376
216	0xbcfc42da	-0.030793596
217	0x3df64ebf	0.120267384
218	0xbdb3ca98	-0.08778876
219	0x3cf2f4d1	0.029657753
220	0xbdfc802e	-0.12329136
221	0xbde3dd69	-0.11126215
222	0xbe02b24d	-0.12763329
223	0xbd81a6db	-0.06330653
224	0x3b21a718	0.0024666246
225	0xbce1fb39	-0.027585613
226	0x3df59255	0.11990801
227	0x3dd23edb	0.10265895
228	0x3d870f53	0.0659472
229	0x3d47a04d	0.04873686
230	0x3d9849c4	0.07435945
231	0x3e7ef75a	0.24899045
232	0x3d882f4e	0.06649648
233	0xbd9ab67c	-0.075543374
234	0xbceae507	-0.028673662
235	0x3d28bb89	0.041194472
236	0x3e25db3f	0.16196917
237	0x3d572ccb	0.052532952
238	0x3e6345fe	0.22194669
239	0xbcca8d19	-0.024725484
240	0x3df2ce0e	0.11855708
241	0x3dad2477	0.08454221
242	0x3e5e522e	0.21711037
243	0x3db2b78e	0.087264165
244	0xbe5d6e82	-0.21624187
245	0xbe49b429	-0.19697632
246	0xbdbf7bb0	-0.093497634
247	0x3e470cc5	0.19438465
248	0x3e359461	0.17732383
249	0x3c8c32f9	0.01711415
250	0x3d3ea02c	0.04653947
251	0x3e1a7ff8	0.15087879
252	0xbd866409	-0.06562049
253	0x3d14cbc3	0.036327135
254	0x3d10660c	0.03525357
255	0x3dbe65c1	0.09296752

INN.linear_list.1.bias f4 [20]
0	0xbe9e9928	-0.30976224
1	0xbb112933	-0.00221498
2	0x3e4c59c9	0.19956125
3	0x3df16828	0.11787444
4	0x3e3853df	0.18000744
5	0xbe96759e	-0.2938661
6	0xbe5c5d0c	-0.2151987
7	0x3e642a42	0.22281745
8	0xbe7d9ec5	-0.24767597
9	0xbe61e8bf	-0.22061442
10	0x3e506636	0.2035149
11	0xbe8e8bbf	-0.27840993
12	0xbe2efc7a	-0.170885
13	0xbe8d62c2	-0.2761441
14	0xbcda50f5	-0.026649931
15	0xbd147263	-0.0362419
16	0x3df1399d	0.11778567
17	0xbe23c146	-0.15991697
18	0x3cd8ccdf	0.026464878
19	0xbe05356b	-0.13008659

INN.linear_list.2.weight f4 [1, 20]
0	0xba07a079	-0.00051737536
1	0x3debbed7	0.11511009
2	0x3e0714dc	0.13191551
3	0x3ad42652	0.0016185737
4	0x3e43f742	0.1913729
5	0x3ad00849	0.001587161
6	0x3ad97b06	0.001659245
7	0x3b51ad96	0.0031994334
8	0xbadb2d28	-0.0016721832
9	0x3bd81353	0.0065941005
10	0xba79c68d	-0.00095281826
11	0x3b80674a	0.003918563
12	0x3bb8f0d5	0.005643944
13	0xbc4483dd	-0.011994329
14	0xbd9951d9	-0.07486314
15	0xbbf98b9c	-0.0076155197
16	0xbb52da7e	-0.0032173689
17	0xbaef6f49	-0.0018267418
18	0x3cf07d4c	0.029356621
19	0x3a514c81	0.0007984117
