runtime data/model_save.pt (torch, 31147 bytes, 6 tensors)

GNN.adjacency_matrix f4 [81, 81]
0	0xbe546367	-0.20741044
1	0x3f4ad839	0.7923618
2	0x3f4ad839	0.7923618
3	0x3f4ad839	0.7923618
4	0x3f4ac8ea	0.7921282
5	0x3f4ac8ea	0.7921282
6	0x3f4ac4d3	0.7920658
7	0x3f4ac4d3	0.7920658
8	0x3f4ac4d3	0.7920658
9	0x3f4ade51	0.7924548
10	0x3f4ada52	0.7923938
11	0x3f4adc06	0.7924198
12	0x3f4ade06	0.7924503
13	0x3f4ae1ca	0.79250777
14	0x3f4ad96e	0.7923802
15	0x3f4adc7a	0.7924267
16	0x3f4ad569	0.7923189
17	0x3f4ad1ec	0.79226565
18	0x3f4ad42f	0.79230016
19	0x3f4adb16	0.7924055
20	0x3f4af10a	0.79274046
21	0x3f4af4d5	0.79279834
22	0x3f4ad438	0.7923007
23	0x3f4ad49a	0.79230654
24	0x3f4ad17c	0.792259
25	0x3f4ad17c	0.792259
26	0x3f4ad3fc	0.7922971
27	0x3f474c15	0.77850467
28	0x3f4ad1aa	0.7922617
29	0x3f4ac4d3	0.7920658
30	0x3f4ad88d	0.7923668
31	0x3f4ac4d3	0.7920658
32	0x3f4af84b	0.79285115
33	0x3f4afbf8	0.79290724
34	0x3f4ad4b4	0.7923081
35	0x3f4ad3ae	0.7922925
36	0x3f4ad998	0.7923827
37	0x3f4ad1c2	0.79226315
38	0x3f4ad2f5	0.79228145
39	0x3f4adc91	0.7924281
40	0x3f4ad134	0.7922547
41	0x3f4ad4f8	0.79231215
42	0x3f4ad719	0.7923446
43	0x3f4ac4d3	0.7920658
44	0x3f4ad82a	0.7923609
45	0x3f4adecd	0.79246217
46	0x3f4acb07	0.79216045
47	0x3f4ad157	0.7922568
48	0x3f4ad816	0.7923597
49	0x3f4ac4d3	0.7920658
50	0x3f4ad090	0.7922449
51	0x3f4ac4d3	0.7920658
52	0x3f4ac4d3	0.7920658
53	0x3f4ac4d3	0.7920658
54	0x3f4ad45f	0.792303
55	0x3f4ac4d3	0.7920658
56	0x3f4afa3f	0.79288095
57	0x3f4af75d	0.79283696
58	0x3f4ad40a	0.79229796
59	0x3f4ad871	0.79236513
60	0x3f4ad3a6	0.792292
61	0x3f4ad39f	0.7922916
62	0x3f4ad391	0.79229075
63	0x3f4ad508	0.7923131
64	0x3f4ad8fc	0.7923734
65	0x3f4ad937	0.79237694
66	0x3f4ae3ad	0.79253656
67	0x3f4ad3b6	0.79229295
68	0x3f4add52	0.7924396
69	0x3f4ad67d	0.79233533
70	0x3f4ac4d3	0.7920658
71	0x3f4ae1c5	0.79250747
72	0x3f4ade51	0.7924548
73	0x3f4ad655	0.79233295
74	0x3f4acf89	0.79222924
75	0x3f4acf89	0.79222924
76	0x3f4ac4d3	0.7920658
77	0x3f4acb17	0.7921614
78	0x3f4aceec	0.7922199
79	0x3f4acd64	0.7921965
80	0x3f4acd64	0.7921965
81	0x3f4b8a7d	0.7950819
82	0xbe5216f2	-0.20516565
83	0x3f4b7a4c	0.79483485
84	0x3f4b7a4c	0.79483485
85	0x3f4b6951	0.79457575
86	0x3f4b6951	0.79457575
87	0x3f4b64e5	0.7945083
88	0x3f4b64e6	0.79450834
89	0x3f4b64e6	0.79450834
90	0x3f4b80d5	0.7949346
91	0x3f4b7c6e	0.7948674
92	0x3f4b7e4c	0.7948959
93	0x3f4b8084	0.79492974
94	0x3f4b8485	0.79499084
95	0x3f4b7b73	0.79485244
96	0x3f4b7ec4	0.79490304
97	0x3f4b7712	0.7947856
98	0x3f4b730d	0.7947243
99	0x3f4b75d5	0.7947667
100	0x3f4b7d44	0.79488015
101	0x3f4b9548	0.7952466
102	0x3f4b9977	0.79531044
103	0x3f4b75bc	0.79476523
104	0x3f4b7642	0.7947732
105	0x3f4b7297	0.79471725
106	0x3f4b7297	0.79471725
107	0x3f4b7599	0.79476315
108	0x3f470ad7	0.77750915
109	0x3f4b72c5	0.79472
110	0x3f4b64e6	0.79450834
111	0x3f4b7a9d	0.7948397
112	0x3f4b64e5	0.7945083
113	0x3f4b9d3c	0.79536796
114	0x3f4ba148	0.7954297
115	0x3f4b7642	0.7947732
116	0x3f4b750e	0.79475486
117	0x3f4b7bbb	0.7948567
118	0x3f4b734f	0.7947282
119	0x3f4b7437	0.79474205
120	0x3f4b7edd	0.79490453
121	0x3f4b7285	0.7947162
122	0x3f4b769e	0.7947787
123	0x3f4b78f1	0.79481417
124	0x3f4b64e5	0.7945083
125	0x3f4b7a00	0.7948303
126	0x3f4b8161	0.7949429
127	0x3f4b6b95	0.7946103
128	0x3f4b72d9	0.7947212
129	0x3f4b79ff	0.79483026
130	0x3f4b64e5	0.7945083
131	0x3f4b717d	0.79470044
132	0x3f4b64e5	0.7945083
133	0x3f4b64e6	0.79450834
134	0x3f4b64e5	0.7945083
135	0x3f4b7615	0.79477054
136	0x3f4b64e5	0.7945083
137	0x3f4b9fd9	0.79540783
138	0x3f4b9c50	0.7953539
139	0x3f4b759c	0.7947633
140	0x3f4b7a84	0.7948382
141	0x3f4b755d	0.7947596
142	0x3f4b7551	0.79475886
143	0x3f4b7540	0.79475784
144	0x3f4b7692	0.794778
145	0x3f4b7b14	0.7948468
146	0x3f4b7b50	0.79485035
147	0x3f4b8690	0.795022
148	0x3f4b7549	0.7947584
149	0x3f4b7faf	0.79491705
150	0x3f4b781a	0.79480135
151	0x3f4b64e5	0.7945083
152	0x3f4b84a0	0.79499245
153	0x3f4b80d9	0.7949348
154	0x3f4b7831	0.7948027
155	0x3f4b70cd	0.79468995
156	0x3f4b70cd	0.79468995
157	0x3f4b64e5	0.7945083
158	0x3f4b6bee	0.7946156
159	0x3f4b6fcc	0.79467463
160	0x3f4b6e21	0.7946492
161	0x3f4b6e21	0.7946492
162	0x3f41bd80	0.7567978
163	0x3f41afe5	0.7565902
164	0xbe79407a	-0.24341002
165	0x3f41afe5	0.7565902
166	0x3f41a151	0.75636774
167	0x3f41a151	0.75636774
168	0x3f419d99	0.756311
169	0x3f419d99	0.756311
170	0x3f419d99	0.756311
171	0x3f41b584	0.75667596
172	0x3f41b1d4	0.7566197
173	0x3f41b341	0.75664145
174	0x3f41b4f0	0.75666714
175	0x3f41b8a0	0.7567234
176	0x3f41b0aa	0.7566019
177	0x3f41b38d	0.756646
178	0x3f41ad18	0.75654745
179	0x3f41a921	0.75648695
180	0x3f41abd2	0.756528
181	0x3f41b241	0.7566262
182	0x3f41c6c5	0.75693923
183	0x3f41ca73	0.7569954
184	0x3f41ac3c	0.75653434
185	0x3f41ac26	0.756533
186	0x3f41a8bd	0.756481
187	0x3f41a8bd	0.756481
188	0x3f41ab9b	0.75652474
189	0x3f3fda89	0.74942833
190	0x3f41a8e4	0.7564833
191	0x3f419d98	0.75631094
192	0x3f41b027	0.7565941
193	0x3f419d98	0.75631094
194	0x3f41cdb0	0.7570448
195	0x3f41d120	0.75709724
196	0x3f41ac9e	0.7565402
197	0x3f41aaef	0.7565145
198	0x3f41b0fc	0.7566068
199	0x3f41aa20	0.75650215
200	0x3f41aa27	0.75650257
201	0x3f41b3b4	0.7566483
202	0x3f41a994	0.7564938
203	0x3f41ac67	0.7565369
204	0x3f41aeba	0.75657237
205	0x3f419d98	0.75631094
206	0x3f41af6b	0.7565829
207	0x3f41b5c0	0.75667953
208	0x3f41a34d	0.756398
209	0x3f41a9b7	0.7564959
210	0x3f41af66	0.7565826
211	0x3f419d99	0.756311
212	0x3f41a7e9	0.75646836
213	0x3f419d99	0.756311
214	0x3f419d99	0.756311
215	0x3f419d98	0.75631094
216	0x3f41ac0a	0.75653136
217	0x3f419d99	0.756311
218	0x3f41d074	0.757087
219	0x3f41cceb	0.75703305
220	0x3f41ab99	0.7565246
221	0x3f41b027	0.7565941
222	0x3f41ab74	0.7565224
223	0x3f41ab66	0.7565216
224	0x3f41ab54	0.7565205
225	0x3f41ac59	0.75653607
226	0x3f41b09f	0.7566013
227	0x3f41b09c	0.7566011
228	0x3f41ba4a	0.7567488
229	0x3f41ab56	0.7565206
230	0x3f41b44a	0.75665724
231	0x3f41ada1	0.7565556
232	0x3f419d99	0.756311
233	0x3f41b873	0.7567207
234	0x3f41b53c	0.75667167
235	0x3f41adfe	0.75656116
236	0x3f41a822	0.75647175
237	0x3f41a822	0.75647175
238	0x3f419d98	0.75631094
239	0x3f41a3f2	0.75640786
240	0x3f41a69a	0.7564484
241	0x3f41a55e	0.75642955
242	0x3f41a55e	0.75642955
243	0x3f48ed2c	0.78486896
244	0x3f48ddbd	0.78463346
245	0x3f48ddbd	0.78463346
246	0xbe5c8914	-0.21536666
247	0x3f48cdf9	0.7843929
248	0x3f48cdf9	0.7843929
249	0x3f48c9b9	0.78432804
250	0x3f48c9b9	0.78432804
251	0x3f48c9b9	0.78432804
252	0x3f48e40e	0.78472984
253	0x3f48e000	0.78466797
254	0x3f48e1ac	0.7846935
255	0x3f48e3c6	0.78472555

INN.linear_list.0.weight f4 [10, 19]
0	0x3f805699	1.0026428
1	0xbe85c2af	-0.26125094
2	0xbf2a6167	-0.66554874
3	0xbe8ebd45	-0.27878776
4	0x3f358242	0.7090188
5	0x3f7717cf	0.96520704
6	0x3cc3d414	0.023904838
7	0xbdfb4061	-0.12268139
8	0xbd8c7dc8	-0.06859928
9	0x3f8a96d2	1.0827277
10	0xbdf9f89b	-0.12205621
11	0x3df0e550	0.11762488
12	0xbdd3f834	-0.10350075
13	0x3dcb94c0	0.09940481
14	0x3e0cf7bb	0.13766377
15	0xbe9ebd2d	-0.31003705
16	0x3df0c454	0.117561966
17	0x3f7686a8	0.9629922
18	0x3f635393	0.887994
19	0x3f755d78	0.95845747
20	0xbf5c4ddb	-0.860563
21	0xbfb3bfde	-1.4042928
22	0xbe8752d8	-0.26430392
23	0x3f7041a3	0.93850154
24	0x3f495f2d	0.7866085
25	0xbe8202b5	-0.2539269
26	0xbe242957	-0.16031395
27	0xbea12c00	-0.31478882
28	0x3f84ea26	1.0383956
29	0xbe5732cf	-0.21015476
30	0x3d70c2fd	0.058779705
31	0xbd6dbde3	-0.05804242
32	0xbe1343dd	-0.14381357
33	0xbde91ccc	-0.11382446
34	0xbcabe2eb	-0.020982226
35	0x3bdc4bc9	0.0067229015
36	0x3fa377a7	1.277089
37	0x3f905052	1.1274512
38	0x3f68fd8c	0.9101188
39	0x3d1a017b	0.037599068
40	0xbebcad96	-0.36851186
41	0xbd820fd2	-0.06350674
42	0x3f25a985	0.6471179
43	0x3f6411c2	0.89089596
44	0xbe6f0824	-0.23342949
45	0x3c3b5f09	0.011436232
46	0xbe141b70	-0.14463592
47	0x3f8a0c84	1.078507
48	0x3d30cf07	0.043166187
49	0xbe2e43e1	-0.17018081
50	0x3d5e49ec	0.054269716
51	0xbd397259	-0.045275066
52	0xbddea36f	-0.10871016
53	0x3d17c2b1	0.037050907
54	0x3e0161f5	0.12635024
55	0x3f46fae0	0.77726555
56	0x3f531b9b	0.82464
57	0xbfa08383	-1.2540134
58	0x3d5a0512	0.05322749
59	0x3f43f58c	0.7654655
60	0x3e3fb920	0.18722963
61	0xbf876aa0	-1.0579414
62	0xbf53ff50	-0.8281145
63	0x3dee9525	0.11649541
64	0x3ce49500	0.02790308
65	0xbe1a10af	-0.15045427
66	0xbf57f310	-0.8435526
67	0xbdef99e9	-0.11699278
68	0x3c85eefa	0.016349304
69	0x3d957441	0.07297564
70	0x3d51456c	0.051091596
71	0x3e877e20	0.26463413
72	0x3e1ad9b0	0.15122104
73	0x3dcba78e	0.09944068
74	0xbf76c277	-0.9639048
75	0xbf95ab96	-1.1692989
76	0x3f9b55d5	1.2135569
77	0xbec542fc	-0.38527668
78	0xbf48d480	-0.7844925
79	0xbe022ee1	-0.12713195
80	0x3f5fa43a	0.87359965
81	0x3f721040	0.94556046
82	0xbc9fbb06	-0.01949836
83	0x3e352f5e	0.1769385
84	0xbd6b9aa7	-0.057520535
85	0x3f530c21	0.8244038
86	0x3e5c01b2	0.21485022
87	0x3e14051b	0.14455073
88	0x3e0f4651	0.13991667
89	0x3ddfea2a	0.10933335
90	0x3c448a4f	0.011995866
91	0xbda01461	-0.07816387
92	0xbdfdbb01	-0.12389184
93	0x3f61c096	0.8818449
94	0x3f5c1aef	0.859786
95	0xbf8cd237	-1.1001652
96	0x3eefa081	0.46802142
97	0x3f683349	0.90703255
98	0x3e92d651	0.28679135
99	0xbf67d605	-0.9056094
100	0xbf606e16	-0.8766798
101	0xbd26f75c	-0.040763244
102	0xbd716985	-0.058938522
103	0x3debecb7	0.11519759
104	0xbf69213f	-0.91066355
105	0xbdd0fef2	-0.10204877
106	0xbcc34c29	-0.023840027
107	0x3da7b0c1	0.0818801
108	0xbe3acd57	-0.18242393
109	0xbd40d1f6	-0.047075234
110	0x3e2f016d	0.17090388
111	0xbde32133	-0.110903166
112	0xbf8719e6	-1.0554779
113	0xbf61422b	-0.8799159
114	0x3f6bc616	0.9209913
115	0xbeddfe75	-0.43358198
116	0xbf3a2259	-0.7270866
117	0xbece8a16	-0.40339726
118	0x3f1e56c5	0.6185115
119	0x3f85ac6d	1.0443245
120	0x3e00513a	0.12530985
121	0xbe0394f8	-0.12849796
122	0x3e72409c	0.23657459
123	0x3f38bb21	0.72160536
124	0xbb38ba7e	-0.002818733
125	0xbccf5c36	-0.025312524
126	0x3d7aae19	0.06120119
127	0x3d25e352	0.040499993
128	0x3d6f468e	0.058416896
129	0xbd950804	-0.072769195
130	0xbe0518d5	-0.12997754
131	0x3f7ae787	0.9800953
132	0x3f7f5133	0.99733275
133	0xbf89fb77	-1.0779866
134	0x3ea30f82	0.3184777
135	0x3f3fb119	0.74879605
136	0x3ef8d96a	0.48603374
137	0xbf5ccc29	-0.86249024
138	0xbf3199b9	-0.6937519
139	0xbe55b147	-0.20868407
140	0xbdbac50d	-0.09119616
141	0x3cd59377	0.026071293
142	0xbf78045a	-0.9688164
143	0x3dcfcd1b	0.10146543
144	0x3e47be51	0.19506194
145	0xbd75716f	-0.05992263
146	0x3d037361	0.032092456
147	0x3d19448a	0.03741888
148	0x3eabda01	0.3356476
149	0xbe687e2a	-0.22704378
150	0xbf877e23	-1.0585369
151	0xbf545905	-0.82948333
152	0xbf5eeafa	-0.87077296
153	0x3d6cee5d	0.05784451
154	0x3f0f6f29	0.5602899
155	0x3d7e1202	0.062028892
156	0xbf75712e	-0.95875823
157	0xbf5b2b4c	-0.8561294
158	0x3e637cb0	0.22215533
159	0xb987ec51	-0.00025925276
160	0xbe0ccaff	-0.13749312
161	0xbf8d67b5	-1.1047274
162	0x3d54d4bd	0.051960696
163	0x3d9ec3bc	0.07752177
164	0xbdaca08d	-0.0842906
165	0x3c40a733	0.011758613
166	0x3e62bcb9	0.22142304
167	0xbd4d2e6a	-0.050093092
168	0xbc82a11f	-0.01594597
169	0xbf57c8cf	-0.84290785
170	0xbf3b602a	-0.7319361
171	0x3fb90234	1.4453797
172	0xbe62e7a7	-0.22158681
173	0xbf8ead41	-1.1146623
174	0xbee8cb3b	-0.45467553
175	0x3fa1faa6	1.2654617
176	0x3fa87055	1.3159281
177	0x3c820941	0.015873553
178	0x3d8cd161	0.06875873
179	0xbe8d0fd4	-0.27551138
180	0x3fa037e1	1.2517053
181	0xbce0d916	-0.027447265
182	0xbd7def3d	-0.061995734
183	0xbe156a26	-0.14591274
184	0xbdc27c9a	-0.09496422
185	0xbe281930	-0.16415858
186	0xbceb0e18	-0.028693244
187	0x3d55cb45	0.052195806
188	0x3faa6d8a	1.3314679
189	0x3fba3bf9	1.4549552

INN.linear_list.0.bias f4 [10]
0	0x3f46c783	0.7764818
1	0x3f666675	0.9000009
2	0x3f868c17	1.0511502
3	0xbf8e92d9	-1.1138564
4	0x3f7a181d	0.97693044
5	0xbf384163	-0.7197477
6	0x3f396b9e	0.72429836
7	0xbf8cea64	-1.100903
8	0xbf80b2e9	-1.0054599
9	0x3fb3cfa9	1.4047748

INN.linear_list.1.weight f4 [10, 10]
0	0xbe7c9464	-0.24665982
1	0xbdf48281	-0.11938954
2	0xbdd433d3	-0.10361447
3	0x3e4ae2b7	0.19813047
4	0xbe5549d6	-0.20828947
5	0x3e8922ec	0.26784456
6	0xbe478ece	-0.1948807
7	0x3e8b99cc	0.27265775
8	0x3d61750f	0.055043276
9	0xbe9cc624	-0.3061992
10	0xbd2c0f2e	-0.042006664
11	0xbe12ba3e	-0.14328858
12	0x3e57f0fe	0.21088025
13	0x3e6abf8f	0.22924636
14	0x3e14b242	0.14521125
15	0x3e65d76c	0.22445458
16	0x3d33df73	0.04391427
17	0x3dabf1a2	0.08395697
18	0x3e052888	0.13003743
19	0x3e26b8f3	0.1628149
20	0xbeab98a9	-0.33514908
21	0xbd49132f	-0.04909056
22	0xbe1c3f33	-0.15258484
23	0x3e1fe1e5	0.15613516
24	0xbe4d62fb	-0.2005729
25	0x3a6d368b	0.000904896
26	0xbe068656	-0.13137183
27	0x3e7e09dd	0.2480845
28	0x3db4fd37	0.088373594
29	0x3d78ce3a	0.060743548
30	0x3e489605	0.19588478
31	0x3ddd13ea	0.10794814
32	0x3e0f0cb8	0.13969696
33	0x3e04223d	0.12903686
34	0x3e87872d	0.26470318
35	0xbcbe34dc	-0.023218565
36	0x3eb631d5	0.35584894
37	0xbe455f06	-0.1927453
38	0xbe96ea3b	-0.2947558
39	0x3e748682	0.23879436
40	0xbd963aab	-0.07335409
41	0x3eb7ad09	0.35874203
42	0xbd422541	-0.04739881
43	0x3d5927c0	0.053016424
44	0x3c233e0d	0.0099635245
45	0x3d0eaf67	0.034835245
46	0x3e526a84	0.20548445
47	0xbda1f229	-0.079075165
48	0x3df48d9c	0.11941072
49	0xbe425a3d	-0.18979736
50	0x3e971ad8	0.29512668
51	0x3e894b8f	0.2681546
52	0x3e987d17	0.29782936
53	0x3e254f72	0.16143587
54	0xbbb841d1	-0.0056230803
55	0xbe921708	-0.28533196
56	0x3db8405e	0.08996652
57	0x3e3c0dc2	0.18364623
58	0xbec0630d	-0.3757557
59	0x3d795afd	0.06087779
60	0xbe6d9f72	-0.23205355
61	0xbe2f6893	-0.17129736
62	0xbdb33ea5	-0.08752183
63	0x3e7d82af	0.24756883
64	0xbe9cf715	-0.3065726
65	0x3edf4dff	0.43614194
66	0xbd2923f9	-0.04129407
67	0x3e8c1415	0.2735907
68	0x3e1bbeb9	0.15209474
69	0xbe680c36	-0.22660908
70	0x3ea0204c	0.3127464
71	0x3dab7ae2	0.083730474
72	0x3e7db8d2	0.24777535
73	0x3e23a18b	0.15979593
74	0x3ec19f8c	0.37817037
75	0xbecf7198	-0.40516353
76	0x3e078f3e	0.13238236
77	0xbec437dc	-0.38323867
78	0x3bc7b341	0.006094367
79	0xbd457996	-0.048211657
80	0xbe141580	-0.14461327
81	0xbe6fb939	-0.234105
82	0xbddd57d1	-0.10807765
83	0x3c49bdcd	0.012313318
84	0x3cfdfa63	0.031003183
85	0x3dbe9e26	0.09307508
86	0x3db8a9fb	0.09016796
87	0xbd2d05ab	-0.042241734
88	0xbd262345	-0.04056098
89	0xbe014c40	-0.12626743
90	0xbe40b6d9	-0.18819751
91	0xbe0ff287	-0.1405736
92	0x3e14924d	0.14508934
93	0x3dce6b51	0.10079063
94	0x3d45b326	0.048266552
95	0x3ddc38d5	0.10753027
96	0x3e5202b1	0.20508839
97	0x3c60a91b	0.013712193
98	0x3e37dc0a	0.17955032
99	0x3e251cb9	0.16124238

INN.linear_list.1.bias f4 [10]
0	0xbf3f0885	-0.74622375
1	0xbf393b45	-0.72356063
2	0xbf688927	-0.9083428
3	0x3f5547e5	0.8331283
4	0xbeb51614	-0.35368407
5	0x3f54f722	0.83189595
6	0xbf692aba	-0.9108082
7	0x3f9c565f	1.2213858
8	0xbf1036a5	-0.5633338
9	0xbf133b24	-0.57512116

INN.linear_list.2.weight f4 [1, 10]
0	0x3eafb0f7	0.343147
1	0x3c1a35be	0.009412227
2	0x3e93179a	0.28728944
3	0xbeb2a674	-0.3489262
4	0xbcee4608	-0.029086128
5	0xbe71038b	-0.23536508
6	0x3e9c9c43	0.30587968
7	0xbe62e381	-0.22157098
8	0x3b2794e3	0.002557092
9	0x3a049514	0.0005057615
