runtime data/model30_save.pt (torch, 33285 bytes, 8 tensors)

GNN.adjacency_matrix f4 [80, 80]
00000000: 0000 80bf b559 333f 0000 80bf 0000 80bf
00000010: 0000 80bf 0000 80bf 0000 80bf 0000 80bf
00000020: 0000 80bf 0000 80bf 0000 80bf 0000 80bf
00000030: 0000 80bf 0000 80bf 0000 80bf 0000 80bf
00000040: 0000 80bf 0000 80bf 0000 80bf 0000 80bf
00000050: 0000 80bf 0000 80bf 0000 80bf 0000 80bf
00000060: 0000 80bf 0000 80bf 0000 80bf 0000 80bf
00000070: 0000 80bf 0000 80bf 0000 80bf 0000 80bf
00000080: 0000 80bf 0000 80bf 0000 80bf 0000 80bf
00000090: 0000 80bf 0000 80bf 0000 80bf 0000 80bf
000000a0: 0000 80bf 0000 80bf 0000 80bf 0000 80bf
000000b0: 0000 80bf 0000 80bf 0000 80bf 0000 80bf
000000c0: 0000 80bf 0000 80bf 0000 80bf 0000 80bf
000000d0: 0000 80bf 0000 80bf 0000 80bf 0000 80bf
000000e0: 0000 80bf 0000 80bf 0000 80bf 0000 80bf
000000f0: 0000 80bf 0000 80bf 0000 80bf 0000 80bf
00000100: 0000 80bf 0000 80bf 0000 80bf 0000 80bf
00000110: 0000 80bf 0000 80bf 0000 80bf 0000 80bf
00000120: 0000 80bf 0000 80bf 0000 80bf 0000 80bf
00000130: 0000 80bf 0000 80bf 0000 80bf 0000 80bf
00000140: da18 2a3f 0000 80bf 0000 80bf 0000 80bf
00000150: 0000 80bf 0000 80bf 0000 80bf 0000 80bf
00000160: 0000 80bf 0000 80bf 0000 80bf 0000 80bf
00000170: 0000 80bf 0000 80bf 0000 80bf 0000 80bf
00000180: 0000 80bf 0000 80bf 0000 80bf 0000 80bf
00000190: 0000 80bf 0000 80bf 0000 80bf 0000 80bf
000001a0: 0000 80bf 0000 80bf 0000 80bf 0000 80bf
000001b0: 0000 80bf 0000 80bf 0000 80bf 0000 80bf
000001c0: 0000 80bf 0000 80bf 0000 80bf 0000 80bf
000001d0: 0000 80bf 0000 80bf 0000 80bf 0000 80bf
000001e0: 0000 80bf 0000 80bf 0000 80bf 0000 80bf
000001f0: 0000 80bf 0000 80bf 0000 80bf 0000 80bf
00000200: 0000 80bf 0000 80bf 0000 80bf 0000 80bf
00000210: 0000 80bf 0000 80bf 0000 80bf 0000 80bf
00000220: 0000 80bf 0000 80bf 0000 80bf 0000 80bf
00000230: 0000 80bf 0000 80bf 0000 80bf 0000 80bf
00000240: 0000 80bf 0000 80bf 0000 80bf 0000 80bf
00000250: 0000 80bf 0000 80bf 0000 80bf 0000 80bf
00000260: 0000 80bf 0000 80bf 0000 80bf 0000 80bf
00000270: 0000 80bf 0000 80bf 0000 80bf 0000 80bf
00000280: 0000 80bf 0000 80bf 0000 80bf 0000 80bf
00000290: 0000 80bf 0000 80bf 0000 80bf 0000 80bf
000002a0: 0000 80bf 0000 80bf 0000 80bf 0000 80bf
000002b0: 0000 80bf 0000 80bf 0000 80bf 0000 80bf
000002c0: 0000 80bf 0000 80bf 0000 80bf 0000 80bf
000002d0: 0000 80bf 0000 80bf 0000 80bf 0000 80bf
000002e0: 0000 80bf 0000 80bf 0000 80bf 0000 80bf
000002f0: 0000 80bf 0000 80bf 0000 80bf 0000 80bf
00000300: 0000 80bf 0000 80bf 0000 80bf 0000 80bf
00000310: 0000 80bf 0000 80bf 0000 80bf 0000 80bf
00000320: 0000 80bf 0000 80bf 0000 80bf 0000 80bf
00000330: 0000 80bf 0000 80bf 0000 80bf 0000 80bf
00000340: 0000 80bf 0000 80bf 0000 80bf 0000 80bf
00000350: 0000 80bf 0000 80bf 0000 80bf 0000 80bf
00000360: 0000 80bf 0000 80bf 0000 80bf 0000 80bf
00000370: 0000 80bf 0000 80bf 0000 80bf 0000 80bf
00000380: 0000 80bf 0000 80bf 0000 80bf 0000 80bf
00000390: 0000 80bf 0000 80bf 0000 80bf 0000 80bf
000003a0: 0000 80bf 0000 80bf 0000 80bf 0000 80bf
000003b0: 0000 80bf 0000 80bf 0000 80bf 0000 80bf
000003c0: 0000 80bf 0000 80bf 0000 80bf 0000 80bf
000003d0: 0000 80bf 0000 80bf 0000 80bf 0000 80bf
000003e0: 0000 80bf 0000 80bf 0000 80bf 0000 80bf
000003f0: 0000 80bf 0000 80bf 0000 80bf 0000 80bf
-1.0 0.7005876 -1.0 -1.0 -1.0 -1.0 -1.0 -1.0
-1.0 -1.0 -1.0 -1.0 -1.0 -1.0 -1.0 -1.0
-1.0 -1.0 -1.0 -1.0 -1.0 -1.0 -1.0 -1.0
-1.0 -1.0 -1.0 -1.0 -1.0 -1.0 -1.0 -1.0
-1.0 -1.0 -1.0 -1.0 -1.0 -1.0 -1.0 -1.0
-1.0 -1.0 -1.0 -1.0 -1.0 -1.0 -1.0 -1.0
-1.0 -1.0 -1.0 -1.0 -1.0 -1.0 -1.0 -1.0
-1.0 -1.0 -1.0 -1.0 -1.0 -1.0 -1.0 -1.0
-1.0 -1.0 -1.0 -1.0 -1.0 -1.0 -1.0 -1.0
-1.0 -1.0 -1.0 -1.0 -1.0 -1.0 -1.0 -1.0
0.6644417 -1.0 -1.0 -1.0 -1.0 -1.0 -1.0 -1.0
-1.0 -1.0 -1.0 -1.0 -1.0 -1.0 -1.0 -1.0
-1.0 -1.0 -1.0 -1.0 -1.0 -1.0 -1.0 -1.0
-1.0 -1.0 -1.0 -1.0 -1.0 -1.0 -1.0 -1.0
-1.0 -1.0 -1.0 -1.0 -1.0 -1.0 -1.0 -1.0
-1.0 -1.0 -1.0 -1.0 -1.0 -1.0 -1.0 -1.0
-1.0 -1.0 -1.0 -1.0 -1.0 -1.0 -1.0 -1.0
-1.0 -1.0 -1.0 -1.0 -1.0 -1.0 -1.0 -1.0
-1.0 -1.0 -1.0 -1.0 -1.0 -1.0 -1.0 -1.0
-1.0 -1.0 -1.0 -1.0 -1.0 -1.0 -1.0 -1.0
-1.0 -1.0 -1.0 -1.0 -1.0 -1.0 -1.0 -1.0
-1.0 -1.0 -1.0 -1.0 -1.0 -1.0 -1.0 -1.0
-1.0 -1.0 -1.0 -1.0 -1.0 -1.0 -1.0 -1.0
-1.0 -1.0 -1.0 -1.0 -1.0 -1.0 -1.0 -1.0
-1.0 -1.0 -1.0 -1.0 -1.0 -1.0 -1.0 -1.0
-1.0 -1.0 -1.0 -1.0 -1.0 -1.0 -1.0 -1.0
-1.0 -1.0 -1.0 -1.0 -1.0 -1.0 -1.0 -1.0
-1.0 -1.0 -1.0 -1.0 -1.0 -1.0 -1.0 -1.0
-1.0 -1.0 -1.0 -1.0 -1.0 -1.0 -1.0 -1.0
-1.0 -1.0 -1.0 -1.0 -1.0 -1.0 -1.0 -1.0
-1.0 -1.0 -1.0 -1.0 -1.0 -1.0 -1.0 -1.0
-1.0 -1.0 -1.0 -1.0 -1.0 -1.0 -1.0 -1.0

GNN.self_temp_w f4 [80]
00000000: 2284 833f 51ef 843f 110e 9a3f 3d1d 963f
00000010: ff33 953f 9a09 883f 2fc4 5e3f 073b 5f3f
00000020: 1565 7a3f bed3 983f aa92 973f a159 983f
00000030: f1c6 963f 86a6 923f 79da 823f aaf5 953f
00000040: 7b34 983f 6444 973f 6250 6a3f b0aa 6d3f
00000050: ed11 963f 4e07 983f 53b9 973f abfc 973f
00000060: 64c9 6c3f c699 673f 4614 743f 2ca0 6a3f
00000070: 1d7d 673f 65fe 983f e9e6 983f 2806 853f
00000080: bdde 8f3f a03d 983f 7ad8 963f 7435 963f
00000090: d046 973f 9179 823f 7d64 7a3f 183b 613f
000000a0: 180b 6f3f 7737 683f 90c9 6d3f a45c 743f
000000b0: 994e 883f e253 973f 3e22 7a3f 11d0 5d3f
000000c0: d028 5a3f 2e89 983f 5259 993f e644 993f
000000d0: cf46 983f 7f89 6f3f af00 7f3f a4cf 963f
000000e0: 9167 963f e61d 933f f257 993f f1e7 983f
000000f0: c612 983f 79d0 983f 0a67 973f 1433 973f
00000100: 2d7c 813f 77c5 823f 1bcc 983f e82b 963f
00000110: 7d19 963f 3635 983f debf 6b3f 1383 713f
00000120: 2bfd 953f 1e5d 613f 7004 613f c66e 5f3f
00000130: 8b8f 983f 2d5c 973f d20c 983f 3c18 993f
1.0274699 1.0385534 1.2035543 1.1727673 1.1656493 1.062793 0.870181 0.87199444
0.9781049 1.1939619 1.1841633 1.1902353 1.1779462 1.1457069 1.0222923 1.1715596
1.1891016 1.1817746 0.91528904 0.92838573 1.172422 1.1877229 1.1853431 1.1873983
0.924948 0.90469015 0.95343435 0.9165065 0.9042528 1.1952635 1.1945468 1.0392504
1.1239849 1.1893806 1.1784813 1.1735063 1.1818485 1.0193349 0.9780958 0.87980795
0.933763 0.9070963 0.92885685 0.9545386 1.0648986 1.1822474 0.977085 0.8664561
0.85218525 1.1916864 1.1980383 1.1974151 1.1896609 0.9356918 0.9961042 1.1782117
1.1750356 1.1493499 1.1979964 1.1945783 1.1880729 1.1938621 1.182832 1.1812463
1.011602 1.0216511 1.1937288 1.1732149 1.1726528 1.1891239 0.9208964 0.9434063
1.1717886 0.8803271 0.87897396 0.872784 1.1918806 1.1825005 1.1878912 1.1960521

GNN.other_temp_w f4 [80]
00000000: b69c 5d3e e323 673e cdcc 4c3e cdcc 4c3e
00000010: cdcc 4c3e fc7a 4f3e ea54 633e e982 573e
00000020: d9dd 833e cdcc 4c3e cdcc 4c3e cdcc 4c3e
00000030: cdcc 4c3e 5f11 ff3d 04f7 633e cdcc 4c3e
00000040: cdcc 4c3e cdcc 4c3e ee45 8c3e 5e65 8f3e
00000050: cdcc 4c3e cdcc 4c3e cdcc 4c3e cdcc 4c3e
00000060: 0dc9 913e 1a21 6a3e 1b6e 813e efb2 903e
00000070: 5dda 913e cdcc 4c3e cdcc 4c3e 5171 743e
00000080: ea21 133e cdcc 4c3e cdcc 4c3e cdcc 4c3e
00000090: cdcc 4c3e 5150 5f3e f6c9 5a3e 289c 4a3e
000000a0: afa5 8b3e 7676 8f3e 4024 923e fc4e 8d3e
000000b0: 01f0 423e cdcc 4c3e 7c7e 373e ea08 573e
000000c0: 6866 673e cdcc 4c3e cdcc 4c3e cdcc 4c3e
000000d0: cdcc 4c3e 8cb0 8a3e 2d0a 903e cdcc 4c3e
000000e0: 36ee 1db2 fcdc d93d cdcc 4c3e cdcc 4c3e
000000f0: cdcc 4c3e cdcc 4c3e cdcc 4c3e cdcc 4c3e
00000100: 56d9 683e ed03 6e3e cdcc 4c3e cdcc 4c3e
00000110: cdcc 4c3e cdcc 4c3e cab4 8b3e 0497 8b3e
00000120: cdcc 4c3e 4cd6 433e 8c61 463e ce81 5a3e
00000130: cdcc 4c3e cdcc 4c3e cdcc 4c3e cdcc 4c3e
0.21641812 0.22572283 0.2 0.2 0.2 0.20261759 0.22200361 0.21046032
0.25755194 0.2 0.2 0.2 0.2 0.12454485 0.22262198 0.2
0.2 0.2 0.27397102 0.28007025 0.2 0.2 0.2 0.2
0.28473702 0.2286419 0.25279316 0.28261515 0.2848691 0.2 0.2 0.23871352
0.14368406 0.2 0.2 0.2 0.2 0.21807982 0.21366104 0.19786131
0.27274844 0.28020066 0.28543282 0.27599323 0.19036867 0.2 0.17919344 0.20999494
0.22597659 0.2 0.2 0.2 0.2 0.2708782 0.28132764 0.2
-9.192766e-09 0.106378525 0.2 0.2 0.2 0.2 0.2 0.2
0.22739157 0.23243685 0.2 0.2 0.2 0.2 0.2728637 0.27263653
0.2 0.19124717 0.19373149 0.21338579 0.2 0.2 0.2 0.2

INN.linear_list.0.weight f4 [20, 19]
00000000: d813 313e 5c1d eebc c42e bf3f 2a30 53be
00000010: 6013 1fbc a45a 9cbc 0ed7 7f3d c522 1cbd
00000020: eb61 5cbe dc2b 003e d0f2 95bd 1945 d0bc
00000030: 3e80 0a3d 95d7 c139 bff8 a4bd 580e 013e
00000040: aa6b 64bd 3437 223e 990f f73e dfd6 edbd
00000050: 16f7 923e 97c7 a6bd 534b 29bf 1615 1abd
00000060: d43a eebc 6db6 d8bd 2e84 fabc c24d 3ebd
00000070: a963 2d3d f3f9 853e 15cf 2a3d 7562 bcbb
00000080: 4abc 0bbd b02e 993c 6e52 60be 048a 5ebe
00000090: 13cf a8be 5416 01be 8468 0a40 9bf5 403e
000000a0: 0f02 27bd 8343 94be 2898 a73e fc52 393e
000000b0: 70ba ddbc 4757 bfbd e36b 393d a80b 8f3e
000000c0: 49fc 33be e4e0 013e 1eb8 c53c 5af3 fdbc
000000d0: 5d5f 603e 2901 64be 818a 393e e65c da3e
000000e0: 6eb9 0d3f 371f 53be 2e00 09be af67 fc3e
000000f0: 49c9 20bd 69c9 e1bd 849b 5d3e 6e30 9abd
00000100: 1d54 18bd ddba 1dbe edd4 573e 2507 08be
00000110: 0e0b d23a f717 8e3c 51ed 9dbc 3fdd 12bd
00000120: fb91 b83d c79c c6bd d58b 063e 3af3 ebbd
00000130: 39d6 813e 5b50 99bd 27b5 e6be 0ee0 8c3e
00000140: eee0 603d 7a42 70bd 9b7d 7e3d 0fe8 50bc
00000150: 1879 b43d 284d e03c da53 393d d401 75bc
00000160: 7aca 16bc 5476 ef3c 175a d73c 14d2 253d
00000170: fd96 3ebd 803e 123e f6ca 8dbd b36d a9be
00000180: 3115 86bd 42f8 88bf d93c 0f3f 1a60 dabd
00000190: d77b fbbd e35c 4e3e faa0 e1bb 3f90 32bd
000001a0: ef56 b5bd 5320 a83e fe61 adbc 7ce9 d4bc
000001b0: 2f03 4c3d 2f38 393e 8786 a23d 1040 413e
000001c0: 3ed3 69be ad24 b4bd 8889 9cbe 0780 203e
000001d0: 121f 97bf e72e 103f 09c6 aa3d 9793 4bbe
000001e0: c1b9 15bc 1fbc c2bc fad1 34bd 855e 3bbe
000001f0: 4b4f 1bbd 3520 7f3c 88ad 153c 7e29 eabc
00000200: 168a 8b3d 4c0d 0a3d 83be a73c 4724 2b3e
00000210: 073f 263e 9786 a7be a689 27be d9e0 cf3f
00000220: c79a 833e 0251 653e d08b 82bc 1363 fc3d
00000230: 7a04 cf3c a769 dabb e605 aabb 1e3b 15bf
00000240: f117 d7bb 5738 ed3c 0298 84bb 120e 00be
00000250: f2e6 5abb c53a 65bd 5327 2cbe 5b84 09be
00000260: 18d2 16c0 5717 0cbd 0941 d73d 6514 3e3e
00000270: 9c61 32be 94a0 3abe 64d7 4b3d 767b a7bd
00000280: c9bd bdbd f88c cabd 58d3 91be 5ef2 973d
00000290: 7f8d bfbc a629 723d f6b3 10be 7b45 fa3d
000002a0: a5f8 78be 2099 26bf f0b2 11bf 957b 55be
000002b0: 8a9c fd3d 56c6 653e e942 86be 589f 27bc
000002c0: aaa2 1d3c 73c7 03bc 19a8 9cbc 0a12 7bbe
000002d0: 7d43 a13d 68d7 e3bd 106e 543c 65bc 663c
000002e0: cdff 3abd 95a1 0bbd 2787 2fbd 5db9 08be
000002f0: bb80 07be de90 a5be c2d9 b53d 0855 bdbd
00000300: 438f 7fbf e9b8 fdbe 73f1 f93d 9193 0a3e
00000310: 6919 483d fb8e babc de52 223e 8fe5 91be
00000320: e346 bb3e 1829 00bc f316 a7bc 6812 4a3d
00000330: 25b9 5b3d aef0 553c 41c0 2dbd b783 c63d
00000340: 9766 793b 16e5 eb3f c569 293c 7f32 053e
00000350: be19 20bf 0808 413d 78fb 3a3e 1978 713e
00000360: 8875 15be 13b0 0fbd e055 a43d 2b5a aabd
00000370: a8b8 8cbd 390b b23d ee48 4b3d 24ac a9be
00000380: ff82 7e3e f628 d6bd 5fc8 c53e 4d2b bf3e
00000390: f6db 603e de95 0d3d 8f1d 9f3e 2b69 04bf
000003a0: 0e82 623e d758 d1bd 508a 9dbd bfd7 1bbc
000003b0: 3dc9 3bbd 5999 dcbd b29b 20be e8eb 673c
000003c0: 3e82 ab3c 46d5 dcbd 3e7b ae3c b924 c83c
000003d0: 90f1 e1bd b58d 74be 7b16 abbc 2cba d13f
000003e0: 30d4 0d3e 81a7 99be d787 d9bd 74cd 28be
000003f0: bf6d 353e a096 7fbb d264 abbc 36a9 c43d
0.17292726 -0.029066734 1.4936147 -0.20623842 -0.009709209 -0.01908619 0.06246095 -0.038119096
-0.21521728 0.12516731 -0.073217034 -0.025423573 0.033813708 0.0003697245 -0.08055257 0.12603128
-0.05576674 0.15841371 0.48254088 -0.11613249 0.28704137 -0.081435375 -0.6613056 -0.037617765
-0.029080786 -0.1058167 -0.030580606 -0.046460874 0.04233137 0.2616726 0.041701395 -0.0057490417
-0.034115113 0.01869902 -0.21906444 -0.21732336 -0.32970485 -0.12606174 2.1626291 0.18843691
-0.040773448 -0.28957757 0.32733274 0.18098062 -0.02706644 -0.09342819 0.045268904 0.2793858
-0.17576708 0.12683445 0.024135645 -0.030999828 0.21911378 -0.22266068 0.18119241 0.42649
0.5536107 -0.20617376 -0.13378975 0.49297854 -0.03925446 -0.11024744 0.21641356 -0.075287685
-0.03718959 -0.15403314 0.21077318 -0.13283975 0.0016025023 0.017345412 -0.0192782 -0.035855528
0.090122186 -0.09697872 0.13139279 -0.11521001 0.2535875 -0.0748603 -0.45060083 0.2751469
0.05490201 -0.058657147 0.062131505 -0.01275064 0.08812159 0.027380541 0.045245983 -0.014954049
-0.009203548 0.029231228 0.026288075 0.04048355 -0.046530712 0.14281654 -0.06923477 -0.33091506
-0.06547011 -1.0700762 0.5595222 -0.10662861 -0.1227948 0.20152621 -0.006885645 -0.043594595
-0.08854472 0.3283716 -0.02116489 -0.02599024 0.049807724 0.18087839 0.07935815 0.18872094
-0.22834489 -0.08796058 -0.30573678 0.15673839 -1.1806357 0.5632157 0.083385535 -0.1988052
-0.009138525 -0.023771344 -0.04414556 -0.18297775 -0.037917417 0.015571644 0.009135611 -0.028584238
0.06813447 0.033704087 0.020476585 0.16713057 0.1623498 -0.3271987 -0.16361102 1.6240493
0.25704023 0.22394183 -0.015935808 0.123235844 0.02527069 -0.006665427 -0.0051886914 -0.5829333
-0.0065641333 0.028957529 -0.004046441 -0.12505367 -0.0033401814 -0.05596425 -0.16811876 -0.13429396
-2.356573 -0.034201946 0.10510451 0.18562467 -0.17420048 -0.18225318 0.04976596 -0.08177845
-0.09264714 -0.09890169 -0.28481555 0.07419275 -0.0233829 0.05912175 -0.1413115 0.122202836
-0.243136 -0.650774 -0.5691366 -0.20847924 0.12383373 0.2243894 -0.26222923 -0.010230862
0.009621302 -0.008043158 -0.019123124 -0.245186 0.078742005 -0.1112507 0.012965694 0.014083003
-0.045654107 -0.034089644 -0.0428535 -0.1335196 -0.132327 -0.32337087 0.08879425 -0.09244734
-0.99827975 -0.49555138 0.12204256 0.13532855 0.048852358 -0.022773257 0.15851924 -0.28495452
0.3657752 -0.0078222975 -0.020396685 0.04933396 0.053643364 0.013057871 -0.042419676 0.09693091
0.0038055533 1.8429286 0.010340159 0.13007544 -0.6253928 0.0471268 0.1825999 0.2358097
-0.14595616 -0.035080027 0.08024192 -0.083179794 -0.06871158 0.08693547 0.049630098 -0.33139145
0.24854659 -0.104570314 0.38629434 0.37337723 0.21958908 0.034566753 0.3107724 -0.51722974
0.22119924 -0.10222023 -0.07692397 -0.009511887 -0.045846213 -0.10771436 -0.15684393 0.0141553655
0.020936128 -0.10782866 0.021299 0.024431573 -0.110324025 -0.23882182 -0.020884743 1.638494
0.13850474 -0.30010608 -0.106216125 -0.16484624 0.17717646 -0.0038999692 -0.020922098 0.09602587

INN.linear_list.0.bias f4 [20]
00000000: 9527 3d3e 7d24 163e d17b d43e 7983 fb3d
00000010: aeb0 d63d a76a 56bd 0b1c 523d d157 e23d
00000020: 0d9c 5ebe 3e4b 83be 20cd 073d 1273 843d
00000030: b364 5dbd 7e5d 123e 8632 bb3d 1d38 aa3d
00000040: 7c21 a1be 9d99 953d e461 0ebe 5abe 153d
0.1847213 0.14662357 0.41500714 0.12280936 0.10482918 -0.052347805 0.051296275 0.11051906
-0.21739216 -0.25643343 0.033154607 0.064672604 -0.054051112 0.14293477 0.09140496 0.08311484
-0.3147086 0.0730469 -0.1390453 0.036558487

INN.linear_list.1.weight f4 [20, 20]
00000000: af8f d03b 74ce c1bb 1744 6cbb 0fab 833c
00000010: 7005 3fbc dee8 943c 6130 1f3d 87c6 a73b
00000020: ad13 58b9 a2f3 89bb aad2 00b9 eda4 103d
00000030: e18e 1cbd 541a 1fbb 23dd b0bc ef9f 71ba
00000040: 9f8c 353c ab46 9bbc 7efc 06bc c8d4 7f3b
00000050: 7133 f3bc 51ba 34bc e290 8bbe c9d6 5b3c
00000060: 3988 e13c 001f 3f3c 0884 9d3d 20af 4ebd
00000070: 6d7a 433e 09ca ed3b 0653 553d 2000 3cbd
00000080: 56f3 b2bb 88c7 8bbc bd88 c33d 2268 34bd
00000090: 32c0 933d e77a 483d 4920 1d3d c1d4 123c
000000a0: 8704 1c3d cf16 1f3d 82f3 f6bc c4a0 ca3c
000000b0: 8ecd c1ba 89a1 273c 960a 62bc f6ff 22bd
000000c0: 375f 88bd e2eb 973b 22b1 073c 4db5 a83d
000000d0: f80e 133c 40a8 55bb 403f 2c3c df92 80bd
000000e0: a6b7 bb3c b9c6 c13c d4b1 a93c b29a 9c3c
000000f0: be62 bb3c 7714 043d a485 35bc b085 d63b
00000100: 5a87 1ebc 5799 62bc 3987 af3b 19f4 40bc
00000110: 3474 08bd f2c3 d9bc 8499 863c d8eb 573c
00000120: b8a1 02bd e2e2 a9bb 8e04 3e3c f5aa f83c
00000130: 08e1 2d3d a503 963b f00c 1c3d 55b1 5f3c
00000140: 388d 12bb af41 a4bc 498f 62bb eb4a 013b
00000150: 4c7d f039 8650 3fbc 5db2 2b3c 1939 e13b
00000160: 356c 013b ebf8 f03c 3ee0 903c 655d 023d
00000170: c2f4 073d f9d3 f0bb ed37 70bc 6330 643d
00000180: 187e 52bc 5132 7e3a fb6e 81bc 8da0 95bc
00000190: 4112 abbb 78d6 f33c ba71 98bb dbc1 8e3c
000001a0: 4578 a53c 90ca 69bc 3db2 b43c bb81 19bd
000001b0: c9a1 32bc b368 b3bc 8197 3a3d 7a5f 37bb
000001c0: 383f 07bc 8bdc 6f3c 98c1 943c 51ee c2bc
000001d0: aa83 783b ba85 eb3c 0036 b43c 233c 4e3c
000001e0: 6c19 97bc e0f9 32bd a044 083d 8481 2fbd
000001f0: d938 81bc fe95 6b3c ceef 5fbb 0982 b23c
00000200: d0c2 9e3d 61db 2f3c fcb8 0fbd 7878 b8bd
00000210: 8430 92bb 967e 45bc 7dec c0bb eeba 123d
00000220: 784a fdbc d2f5 dcbb fedc f7bc 1481 b5bc
00000230: 45a5 633b afe2 9f3c cc89 053c 0969 a03b
00000240: 0324 ecbc b563 413b 22a5 f6bb 36d8 0fbc
00000250: 55ae 073d 8f9b 12bc 1a5c 6bbc 538f 7bbc
00000260: e94a 663b 2f74 273d cdab 95bb 1e72 36bc
00000270: fc02 10bc 91a7 d53c 8f72 dfbc 4e42 93bc
00000280: 96d0 923d fe56 6ebb 9177 d73d 3e70 5f3d
00000290: 391f 3ebd 8731 f53b af91 16bd 1ae7 34bd
000002a0: cd1d 8c3e 5ed3 9ebd 500c f4bc f943 86be
000002b0: 348f 51bd 53f9 9f3d 9241 b6bb 129c 823d
000002c0: 6f29 1cbe 2435 b1bd 5b0c a63c 5b12 a0bc
000002d0: 8103 c03b 7cfd 093c 2717 c13b 5978 7f3c
000002e0: 97d2 083d 28b6 f93c 7b0d c93c b51f f5bc
000002f0: a58b c73c 3c2e 013d cc9e bf38 9472 c8bb
00000300: 14a2 0dbd befa 43bc dd4a 243c 5a33 1abd
00000310: b1da 9cbc b2cf 5dbb d0dd 373c 0711 973b
00000320: b187 863d 1f26 003d b231 1c3a a782 e43c
00000330: 5ff9 393d 559d 053d fbf2 24bb 3276 c0bb
00000340: 9ca7 803c 3725 b73c 5cb0 533c 7802 f33b
00000350: 16d9 173d da0d 8f3c bfae 443d b24a 61bc
00000360: 4d51 59bc 45a0 2f3d 8c12 6c3d a9ad fd3c
00000370: 56c6 07bd f2f1 a5bc cd13 b93c 9759 32bc
00000380: 17cf 53bc 3272 823c a110 f43a b5a7 a13c
00000390: 1080 533d 77c9 f9bc fc8b 633c 5f9b 9abd
000003a0: 4947 afbc 41f1 c3bb 4b80 0e3d 15ab 423d
000003b0: f0b0 8abc 2299 a0bc 4d79 05bd a3ac 86bc
000003c0: c0ef 373c b5f8 25bc 4e5a 9fba f2b9 1dbc
000003d0: 5d2a 443c 5844 843c 0bb3 2e3d f864 323c
000003e0: 9910 1b3c 145a 283b 440b 35bc a6a2 3f3d
000003f0: b8de acbc b147 adbc 4c9f 31bc f43e 763c
0.0063647847 -0.0059145037 -0.0036051327 0.016072778 -0.011659011 0.018177446 0.038864497 0.005120102
-0.00020606695 -0.0042099515 -0.0001228551 0.035313535 -0.038222197 -0.0024277167 -0.021589821 -0.00092172524
0.01108089 -0.018954596 -0.00823891 0.003903674 -0.029687615 -0.011030749 -0.27258974 0.013417908
0.027530776 0.011665106 0.076911986 -0.05045998 0.1908967 0.0072567505 0.05208113 -0.045898557
-0.005461137 -0.017062917 0.09547565 -0.04404462 0.07214393 0.048945334 0.038360868 0.008961857
0.038090255 0.03884011 -0.03014541 0.024734862 -0.0014785992 0.010231384 -0.013796469 -0.039794885
-0.06658786 0.0046362737 0.008281978 0.082377054 0.008975737 -0.0032601506 0.010513127 -0.062780134
0.022914719 0.023654329 0.020714678 0.019116733 0.022874232 0.03224608 -0.011079226 0.0065466985
-0.009675825 -0.013830504 0.005356696 -0.011776947 -0.033313945 -0.026582692 0.016430624 0.013178788
-0.03189251 -0.0051845172 0.011597766 0.030354956 0.042450935 0.004578071 0.038098276 0.013653119
-0.0022362005 -0.020050852 -0.0034570268 0.0019728492 0.0004586972 -0.011676913 0.010479537 0.0068732616
0.0019748334 0.029415568 0.017685052 0.03182735 0.033192404 -0.007349488 -0.014661771 0.055710208
-0.012847446 0.0009696829 -0.01579999 -0.018265033 -0.005220682 0.029765353 -0.004652229 0.017426422
0.02019895 -0.014269486 0.022057647 -0.037477236 -0.01090283 -0.02190051 0.04555464 -0.0027980492
-0.008254819 0.014639984 0.018158719 -0.023795279 0.0037920275 0.02875029 0.021998405 0.01258758
-0.01844474 -0.04369533 0.03326857 -0.042848125 -0.015774177 0.014379023 -0.0034170034 0.021790521
0.07752001 0.010733456 -0.035088524 -0.090073526 -0.00446135 -0.012054106 -0.0058875666 0.0358228
-0.030919299 -0.0067431713 -0.030256744 -0.022156276 0.003473596 0.01951727 0.008150529 0.0048953337
-0.028825765 0.0029508893 -0.0075270096 -0.008779576 0.03312524 -0.008948221 -0.01436522 -0.015353995
0.0035139865 0.040882286 -0.0045675994 -0.011135606 -0.008789774 0.026080878 -0.027276305 -0.017975952
0.07168691 -0.003636777 0.10520852 0.054550402 -0.046416495 0.0074827108 -0.03676003 -0.044165708
0.27366486 -0.07755159 -0.029791027 -0.26223734 -0.05116196 0.07811227 -0.005562016 0.06377424
-0.1525018 -0.08652714 0.020269563 -0.019540003 0.0058597927 0.008422252 0.0058926526 0.015592658
0.03340396 0.030482367 0.02454256 -0.029922346 0.02435858 0.031538233 9.137168e-05 -0.0061171744
-0.034578398 -0.011961637 0.010027614 -0.03764663 -0.019147249 -0.003384572 0.011222318 0.004610184
0.0656885 0.031286355 0.0005958333 0.027894331 0.045403834 0.032620747 -0.0025169242 -0.005873465
0.015704922 0.022356613 0.012920465 0.007416066 0.037072264 0.01746266 0.048018213 -0.013750719
-0.0132640125 0.042877454 0.057634875 0.030966597 -0.033148132 -0.02025697 0.02259245 -0.010885618
-0.012927792 0.015923593 0.0018620678 0.01973329 0.0516358 -0.030491574 0.013888355 -0.07549166
-0.021396296 -0.0059796874 0.03479032 0.047526438 -0.016930073 -0.01960427 -0.032586385 -0.016439741
0.011226594 -0.010130097 -0.001215765 -0.009626852 0.011972991 0.01614587 0.042651217 0.010888331
0.009464406 0.0025688456 -0.011050049 0.046785973 -0.021102294 -0.02115235 -0.010841202 0.015029658

INN.linear_list.1.bias f4 [20]
00000000: 6410 1ebe 68ca 02bf a332 fabd cd52 76bd
00000010: dd61 a03d fc8e df3d a5ca a73d bd65 8fbe
00000020: 4524 853e 7d25 6cbe 0fa4 823e 54db 913d
00000030: 6f02 cf3d 0ac1 913e a08e 89be 000f d4be
00000040: 2efb b73d 2aa1 fa3d 3fde 893e c48c 45be
-0.1543594 -0.510901 -0.122166894 -0.06013756 0.07831166 0.10915944 0.08192948 -0.28007308
0.26004234 -0.23061176 0.25515792 0.07121912 0.10107886 0.2846759 -0.26866627 -0.41417694
0.089834556 0.12237771 0.26927373 -0.19291979

INN.linear_list.2.weight f4 [1, 20]
00000000: db41 a2ba b565 10be 2404 b7bb 1549 abbb
00000010: 43cd 203b b9f7 09bb 1813 fb3b fe3c 2e3a
00000020: 4d11 223c 49e7 13ba 6c41 afbb 9603 f53b
00000030: e27a 2ab9 47f4 6aba 7d38 843b 546c 34bd
00000040: 763f b73b d481 be3b 1d2e e13a 4a62 ab3a
-0.0012379246 -0.14101298 -0.0055852104 -0.005227218 0.0024536408 -0.0021052195 0.0076621883 0.0006646662
0.00989182 -0.0005642069 -0.005348375 0.007477234 -0.00016258241 -0.0008962792 0.0040350542 -0.044048622
0.005592282 0.0058138166 0.001717988 0.0013075557
