runtime data/model60_save.pt (torch, 33285 bytes, 8 tensors)

GNN.adjacency_matrix f4 [80, 80]
-1.0 0.9852084 -1.0 -1.0 -1.0 -1.0 -1.0 -1.0
-1.0 -1.0 -1.0 -1.0 -1.0 -1.0 -1.0 -1.0
-1.0 -1.0 -1.0 -1.0 -1.0 -1.0 -1.0 -1.0
-1.0 -1.0 -1.0 -1.0 -1.0 -1.0 -1.0 -1.0
-1.0 -1.0 -1.0 -1.0 -1.0 -1.0 -1.0 -1.0
-1.0 -1.0 -1.0 -1.0 -1.0 -1.0 -1.0 -1.0
-1.0 -1.0 -1.0 -1.0 -1.0 -1.0 -1.0 -1.0
-1.0 -1.0 -1.0 -1.0 -1.0 -1.0 -1.0 -1.0
-1.0 -1.0 -1.0 -1.0 -1.0 -1.0 -1.0 -1.0
-1.0 -1.0 -1.0 -1.0 -1.0 -1.0 -1.0 -1.0
0.8600876 -1.0 -1.0 -1.0 -1.0 -1.0 -1.0 -1.0
-1.0 -1.0 -1.0 -1.0 -1.0 -1.0 -1.0 -1.0
-1.0 -1.0 -1.0 -1.0 -1.0 -1.0 -1.0 -1.0
-1.0 -1.0 -1.0 -1.0 -1.0 -1.0 -1.0 -1.0
-1.0 -1.0 -1.0 -1.0 -1.0 -1.0 -1.0 -1.0
-1.0 -1.0 -1.0 -1.0 -1.0 -1.0 -1.0 -1.0
-1.0 -1.0 -1.0 -1.0 -1.0 -1.0 -1.0 -1.0
-1.0 -1.0 -1.0 -1.0 -1.0 -1.0 -1.0 -1.0
-1.0 -1.0 -1.0 -1.0 -1.0 -1.0 -1.0 -1.0
-1.0 -1.0 -1.0 -1.0 -1.0 -1.0 -1.0 -1.0
-1.0 -1.0 -1.0 -1.0 -1.0 -1.0 -1.0 -1.0
-1.0 -1.0 -1.0 -1.0 -1.0 -1.0 -1.0 -1.0
-1.0 -1.0 -1.0 -1.0 -1.0 -1.0 -1.0 -1.0
-1.0 -1.0 -1.0 -1.0 -1.0 -1.0 -1.0 -1.0
-1.0 -1.0 -1.0 -1.0 -1.0 -1.0 -1.0 -1.0
-1.0 -1.0 -1.0 -1.0 -1.0 -1.0 -1.0 -1.0
-1.0 -1.0 -1.0 -1.0 -1.0 -1.0 -1.0 -1.0
-1.0 -1.0 -1.0 -1.0 -1.0 -1.0 -1.0 -1.0
-1.0 -1.0 -1.0 -1.0 -1.0 -1.0 -1.0 -1.0
-1.0 -1.0 -1.0 -1.0 -1.0 -1.0 -1.0 -1.0
-1.0 -1.0 -1.0 -1.0 -1.0 -1.0 -1.0 -1.0
-1.0 -1.0 -1.0 -1.0 -1.0 -1.0 -1.0 -1.0
00000000: 0000 80bf 9e36 7c3f 0000 80bf 0000 80bf
00000010: 0000 80bf 0000 80bf 0000 80bf 0000 80bf
00000020: 0000 80bf 0000 80bf 0000 80bf 0000 80bf
00000030: 0000 80bf 0000 80bf 0000 80bf 0000 80bf
00000040: 0000 80bf 0000 80bf 0000 80bf 0000 80bf
00000050: 0000 80bf 0000 80bf 0000 80bf 0000 80bf
00000060: 0000 80bf 0000 80bf 0000 80bf 0000 80bf
00000070: 0000 80bf 0000 80bf 0000 80bf 0000 80bf
00000080: 0000 80bf 0000 80bf 0000 80bf 0000 80bf
00000090: 0000 80bf 0000 80bf 0000 80bf 0000 80bf
000000a0: 0000 80bf 0000 80bf 0000 80bf 0000 80bf
000000b0: 0000 80bf 0000 80bf 0000 80bf 0000 80bf
000000c0: 0000 80bf 0000 80bf 0000 80bf 0000 80bf
000000d0: 0000 80bf 0000 80bf 0000 80bf 0000 80bf
000000e0: 0000 80bf 0000 80bf 0000 80bf 0000 80bf
000000f0: 0000 80bf 0000 80bf 0000 80bf 0000 80bf
00000100: 0000 80bf 0000 80bf 0000 80bf 0000 80bf
00000110: 0000 80bf 0000 80bf 0000 80bf 0000 80bf
00000120: 0000 80bf 0000 80bf 0000 80bf 0000 80bf
00000130: 0000 80bf 0000 80bf 0000 80bf 0000 80bf
00000140: b32e 5c3f 0000 80bf 0000 80bf 0000 80bf
00000150: 0000 80bf 0000 80bf 0000 80bf 0000 80bf
00000160: 0000 80bf 0000 80bf 0000 80bf 0000 80bf
00000170: 0000 80bf 0000 80bf 0000 80bf 0000 80bf
00000180: 0000 80bf 0000 80bf 0000 80bf 0000 80bf
00000190: 0000 80bf 0000 80bf 0000 80bf 0000 80bf
000001a0: 0000 80bf 0000 80bf 0000 80bf 0000 80bf
000001b0: 0000 80bf 0000 80bf 0000 80bf 0000 80bf
000001c0: 0000 80bf 0000 80bf 0000 80bf 0000 80bf
000001d0: 0000 80bf 0000 80bf 0000 80bf 0000 80bf
000001e0: 0000 80bf 0000 80bf 0000 80bf 0000 80bf
000001f0: 0000 80bf 0000 80bf 0000 80bf 0000 80bf
00000200: 0000 80bf 0000 80bf 0000 80bf 0000 80bf
00000210: 0000 80bf 0000 80bf 0000 80bf 0000 80bf
00000220: 0000 80bf 0000 80bf 0000 80bf 0000 80bf
00000230: 0000 80bf 0000 80bf 0000 80bf 0000 80bf
00000240: 0000 80bf 0000 80bf 0000 80bf 0000 80bf
00000250: 0000 80bf 0000 80bf 0000 80bf 0000 80bf
00000260: 0000 80bf 0000 80bf 0000 80bf 0000 80bf
00000270: 0000 80bf 0000 80bf 0000 80bf 0000 80bf
00000280: 0000 80bf 0000 80bf 0000 80bf 0000 80bf
00000290: 0000 80bf 0000 80bf 0000 80bf 0000 80bf
000002a0: 0000 80bf 0000 80bf 0000 80bf 0000 80bf
000002b0: 0000 80bf 0000 80bf 0000 80bf 0000 80bf
000002c0: 0000 80bf 0000 80bf 0000 80bf 0000 80bf
000002d0: 0000 80bf 0000 80bf 0000 80bf 0000 80bf
000002e0: 0000 80bf 0000 80bf 0000 80bf 0000 80bf
000002f0: 0000 80bf 0000 80bf 0000 80bf 0000 80bf
00000300: 0000 80bf 0000 80bf 0000 80bf 0000 80bf
00000310: 0000 80bf 0000 80bf 0000 80bf 0000 80bf
00000320: 0000 80bf 0000 80bf 0000 80bf 0000 80bf
00000330: 0000 80bf 0000 80bf 0000 80bf 0000 80bf
00000340: 0000 80bf 0000 80bf 0000 80bf 0000 80bf
00000350: 0000 80bf 0000 80bf 0000 80bf 0000 80bf
00000360: 0000 80bf 0000 80bf 0000 80bf 0000 80bf
00000370: 0000 80bf 0000 80bf 0000 80bf 0000 80bf
00000380: 0000 80bf 0000 80bf 0000 80bf 0000 80bf
00000390: 0000 80bf 0000 80bf 0000 80bf 0000 80bf
000003a0: 0000 80bf 0000 80bf 0000 80bf 0000 80bf
000003b0: 0000 80bf 0000 80bf 0000 80bf 0000 80bf
000003c0: 0000 80bf 0000 80bf 0000 80bf 0000 80bf
000003d0: 0000 80bf 0000 80bf 0000 80bf 0000 80bf
000003e0: 0000 80bf 0000 80bf 0000 80bf 0000 80bf
000003f0: 0000 80bf 0000 80bf 0000 80bf 0000 80bf

GNN.self_temp_w f4 [80]
0.8390486 0.9506066 1.194967 1.0063093 1.0096848 0.88424647 0.8033674 0.80027384
0.8747962 1.1991738 1.1340177 1.1570275 1.0879416 0.93175524 0.7846545 0.98029923
1.1145759 1.0469955 0.87675786 0.8700693 1.0251716 1.1278661 1.1510694 1.1481069
0.88820803 0.77337027 0.8471155 0.9068371 0.88655216 1.1933336 1.1693773 0.7967649
0.8436527 1.1525205 1.1212411 1.0032399 1.0757219 0.8645497 0.8739776 0.8003301
0.869703 0.86606866 0.9044503 0.85979915 0.95226735 1.0911485 0.87892556 0.81902486
0.823199 1.0971807 1.1723483 1.1986542 1.1918954 0.8738998 0.8548671 1.0717056
0.9373301 0.99205124 1.1617279 1.2077175 1.1393641 1.1287353 1.0808306 1.0706174
0.8462009 0.9004075 1.1750635 1.0194678 1.0228721 1.1332005 0.8481713 0.8940076
1.0218666 0.81774765 0.8030415 0.8260214 1.169393 1.0911803 1.0987049 1.166107
00000000: e4cb 563f f45a 733f aef4 983f bece 803f
00000010: 5a3d 813f fa5d 623f 7ca9 4d3f bfde 4c3f
00000020: a5f2 5f3f 877e 993f 7e27 913f 7a19 943f
00000030: ac41 8b3f 8387 6e3f 1edf 483f e4f4 7a3f
00000040: 6caa 8e3f f303 863f 3473 603f ddbc 5e3f
00000050: d338 833f eb5d 903f 3e56 933f 2bf5 923f
00000060: 9a61 633f 98fb 453f 90dc 583f 7a26 683f
00000070: 15f5 623f 28bf 983f 28ae 953f c9f8 4b3f
00000080: a0f9 573f cb85 933f d484 8f3f 2a6a 803f
00000090: 41b1 893f 2153 5d3f ffbc 5f3f 6fe2 4c3f
000000a0: dba4 5e3f adb6 5d3f 0e8a 673f cc1b 5c3f
000000b0: cbc7 733f c1aa 8b3f 4401 613f 9dab 513f
000000c0: 2bbd 523f 6b70 8c3f 820f 963f 806d 993f
000000d0: 0790 983f e6b7 5f3f 92d8 5a3f a62d 893f
000000e0: def4 6f3f 12f7 7d3f 80b3 943f 7d96 9a3f
000000f0: afd6 913f 667a 903f a858 8a3f fe09 893f
00000100: 9fa0 583f 1b81 663f 7b68 963f ec7d 823f
00000110: 79ed 823f b70c 913f c121 593f afdd 643f
00000120: 86cc 823f e957 513f 2194 4d3f 2376 533f
00000130: abae 953f ccab 8b3f 5da2 8c3f ff42 953f

GNN.other_temp_w f4 [80]
0.23739514 0.19029039 0.2 0.2 0.2 0.20636638 0.14191669 0.17650388
0.22844309 0.2 0.2 0.2 0.2 0.2003299 0.20071775 0.2
0.2 0.2 0.2614388 0.25567636 0.2 0.2 0.2 0.2
0.2713823 0.1567853 0.21487182 0.27336988 0.28786045 0.2 0.2 0.18931058
0.1823531 0.2 0.2 0.2 0.2 0.22600563 0.15340322 0.20167296
0.23377956 0.2532497 0.27200145 0.22923893 0.2247841 0.2 0.17178673 0.17869496
0.19514345 0.2 0.2 0.2 0.2 0.2535555 0.22605672 0.2
0.1397794 0.21296811 0.2 0.2 0.2 0.2 0.2 0.2
0.24119507 0.22627544 0.2 0.2 0.2 0.2 0.2305494 0.2648265
0.2 0.18197891 0.17981102 0.20319788 0.2 0.2 0.2 0.2
00000000: b617 733e 7cdb 423e cdcc 4c3e cdcc 4c3e
00000010: cdcc 4c3e b551 533e 9c52 113e 6fbd 343e
00000020: fcec 693e cdcc 4c3e cdcc 4c3e cdcc 4c3e
00000030: cdcc 4c3e 4823 4d3e f488 4d3e cdcc 4c3e
00000040: cdcc 4c3e cdcc 4c3e 4edb 853e 03e8 823e
00000050: cdcc 4c3e cdcc 4c3e cdcc 4c3e cdcc 4c3e
00000060: 9ff2 8a3e 538c 203e 5c07 5c3e 23f7 8b3e
00000070: 7262 933e cdcc 4c3e cdcc 4c3e a2da 413e
00000080: c5ba 3a3e cdcc 4c3e cdcc 4c3e cdcc 4c3e
00000090: cdcc 4c3e 056e 673e bc15 1d3e 5b83 4e3e
000000a0: e963 6f3e f2a9 813e c643 8b3e 9cbd 6a3e
000000b0: ce2d 663e cdcc 4c3e dce8 2f3e d0fb 363e
000000c0: afd3 473e cdcc 4c3e cdcc 4c3e cdcc 4c3e
000000d0: cdcc 4c3e 07d2 813e 6a7b 673e cdcc 4c3e
000000e0: 5522 0f3e 5014 5a3e cdcc 4c3e cdcc 4c3e
000000f0: cdcc 4c3e cdcc 4c3e cdcc 4c3e cdcc 4c3e
00000100: d7fb 763e c0b4 673e cdcc 4c3e cdcc 4c3e
00000110: cdcc 4c3e cdcc 4c3e 2415 6c3e 5797 873e
00000120: cdcc 4c3e ae58 3a3e 6120 383e 1b13 503e
00000130: cdcc 4c3e cdcc 4c3e cdcc 4c3e cdcc 4c3e

INN.linear_list.0.weight f4 [20, 19]
0.5204113 0.22454876 0.016464176 -0.23869576 0.1631426 0.06799404 -0.14294717 -0.0113409795
0.17683002 -0.0071918317 -0.058950707 -0.05900957 0.014897813 -0.13424724 0.029363751 0.065650634
0.039763846 -0.080693066 0.13308083 0.30861586 0.16194862 -0.10021159 -0.00072510843 -0.074789956
-0.05931707 0.013707789 -0.051385764 -0.08910875 0.012222507 0.025704555 0.04054881 -0.074419595
0.08891054 0.14319731 -0.29676142 0.07496019 0.28553495 0.24143532 -0.04904496 0.24179842
-0.3227486 -0.11103757 0.20098826 -0.0003483195 -0.15542321 0.035562158 -0.061823323 -0.12495516
-0.18520945 0.038089134 0.08734104 -0.20956159 -0.16357934 -0.29149854 -0.08311615 -0.09001811
-0.01592695 -0.8745156 -0.3952357 -0.17713292 0.5920873 -0.2078047 -0.3220734 -0.25015256
0.035169676 -0.16736653 -0.25190553 -0.011524604 0.093467265 -0.11831118 0.04991978 -0.0865223
0.18180473 0.21017544 -0.13124648 -0.3666557 0.61626786 0.14030765 -0.38306603 -0.17886524
-0.1289263 0.029552754 0.16742775 0.009849399 -0.04399018 0.052212592 0.35481957 -0.057509482
-0.035151154 0.012670817 0.053741217 0.22460999 -0.18901318 0.1188509 -0.11874816 0.38808373
0.1976196 0.14460893 -0.11162899 0.16739318 -0.13603875 -0.20048675 -0.0027221614 0.40424812
-0.24200322 -0.041587465 0.018250206 -0.013972047 -0.030733293 0.06350007 0.08290667 0.30970004
0.08786877 0.035046455 -0.13641751 -0.10635308 -0.18082865 0.60776347 0.08912066 0.063079946
0.056375466 0.00515022 -0.0543835 -0.07349302 -0.04808371 -0.011338929 0.03940454 -0.05175974
-0.074470736 -0.0042653237 0.0828485 -0.17363092 0.1767475 -0.6729936 0.01977053 0.09304906
0.40466547 -0.026108608 -0.12270648 0.15006392 0.027172286 -0.08758484 -0.2174104 0.25668758
-0.020504773 -0.0823888 0.27391538 -0.0220239 0.25050423 0.017702347 -0.046703838 -0.19568208
0.70721656 -0.0773442 0.0726144 -0.57990646 0.1418573 -0.052831843 0.16652203 0.13445266
0.09512241 0.27344587 0.10016411 0.064952746 -0.15864782 0.04823116 0.2127696 -0.1938554
0.17232369 0.084538445 0.20268095 0.24852157 0.08500116 0.216064 -0.43478733 0.14172862
0.028498186 -0.013931739 0.033011317 -0.009321796 0.19451705 -0.042609595 0.008851005 -0.0885192
0.07048039 0.05482855 -0.08435014 -0.17750454 0.26898685 0.12626609 0.060590886 -0.20040053
-0.051590238 0.40879926 0.04045437 -0.1800941 -0.1912316 0.004506105 0.30578023 -0.23042841
0.15752047 -0.016417306 -0.013777788 0.13893959 0.07830665 0.05842898 0.27371418 -0.24044134
0.04317495 -0.32797012 0.037111945 -0.08590388 0.26210126 0.061892323 -0.047890782 0.07630776
0.030105349 0.14052369 0.11277675 -0.2523412 -0.039192334 0.022142926 -0.043712646 -0.07680632
0.1803944 0.00976613 0.2033164 0.1218227 0.85174793 0.14927834 0.08091318 -0.53371567
-0.13826415 -0.11972301 -0.09353582 0.023012854 0.1569142 0.28489125 -0.0045938217 -0.19205418
0.21089289 -0.10734106 0.16105327 0.0081619155 0.20289314 -0.027037771 -0.018850736 0.57815826
0.44852266 0.12865202 -0.35232115 0.09817675 0.2009321 0.0008775197 -0.023208544 -0.010680113
00000000: ad39 053f 1cf0 653e e1df 863c a96c 74be
00000010: db0e 273e 7640 8b3d be60 12be 84cf 39bc
00000020: ee12 353e 75a9 ebbb 4c76 71bd 05b4 71bd
00000030: f515 743c 1c78 09be 408c f03c d773 863d
00000040: 6adf 223d 6842 a5bd 5746 083e e602 9e3e
00000050: dcd5 253e bc3b cdbd 3415 3eba 7a2b 99bd
00000060: 75f6 72bd a296 603c e179 52bd a67e b6bd
00000070: e940 483c 5c92 d23c 8216 263d 4d69 98bd
00000080: bb16 b63d 51a2 123e 1df1 97be ba84 993d
00000090: a331 923e d23a 773e 5ee3 48bd 019a 773e
000000a0: 4e3f a5be aa67 e3bd decf 4d3e a79e b6b9
000000b0: 4327 1fbe a0a9 113d 743a 7dbd 7ee8 ffbd
000000c0: 8ca7 3dbe 5a03 1c3d dcdf b23d 5097 56be
000000d0: 5881 27be 4c3f 95be cd38 aabd 6a5b b8bd
000000e0: 3c79 82bc 41e0 5fbf 555c cabe 5562 35be
000000f0: 0993 173f c1ca 54be cee6 a4be ff13 80be
00000100: 140e 103d 2262 2bbe c3f9 80be b1d1 3cbc
00000110: c46b bf3d 224d f2bd af78 4c3d 9b32 b1bd
00000120: 052b 3a3e 3b38 573e 7a65 06be 4cba bbbe
00000130: bbc3 1d3f cfac 0f3e 3b21 c4be 7328 37be
00000140: 4205 04be 9e18 f23c 2e72 2b3e 605f 213c
00000150: 0c2f 34bd dfdc 553d e9aa b53e 108f 6bbd
00000160: a8fa 0fbd 4299 4f3c c01f 5c3d 2900 663e
00000170: ac8c 41be 1a68 f33d 3c32 f3bd e9b2 c63e
00000180: cb5c 4a3e 5d14 143e bd9d e4bd 1e69 2b3e
00000190: be4d 0bbe 664c 4dbe 4a66 32bb 9cf9 ce3e
000001a0: b1cf 77be 9e57 2abd 7581 953c 03eb 64bc
000001b0: 63c4 fbbc 530c 823d f9ca a93d 0191 9e3e
000001c0: 8bf4 b33d df8c 0f3d 08b1 0bbe a5cf d9bd
000001d0: 252b 39be 6396 1b3f e584 b63d 0f30 813d
000001e0: f6e9 663d 2dc3 a83b 3cc1 5ebd 8283 96bd
000001f0: 6df3 44bd eac6 39bc a866 213d 0502 54bd
00000200: 1d84 98bd 21c4 8bbb 79ac a93d 4ecc 31be
00000210: 4cfd 343e 4f49 2cbf cef5 a13c 8190 be3d
00000220: 5030 cf3e b8e1 d5bc 894d fbbd 5baa 193e
00000230: 6a98 de3c ae5f b3bd d5a0 5ebe 8e6c 833e
00000240: a0f9 a7bc 76bb a8bd a33e 8c3e 776b b4bc
00000250: 1742 803e 8304 913c 864c 3fbd e260 48be
00000260: 250c 353f a366 9ebd dcb6 943d c074 14bf
00000270: 0a43 113e 3466 58bd c084 2a3e f5ad 093e
00000280: 8acf c23d 1901 8c3e d722 cd3d f205 853d
00000290: 9374 22be 098e 453d 46e0 593e 0882 46be
000002a0: 9f75 303e 7e22 ad3d 988b 4f3e 707c 7e3e
000002b0: 1715 ae3d e23f 5d3e 729c debe 4f21 113e
000002c0: 0775 e93c f341 64bc e036 073d 72ba 18bc
000002d0: 7a2f 473e 6687 2ebd ce03 113c 8e49 b5bd
000002e0: 0658 903d e793 603d c4bf acbd c0c3 35be
000002f0: a5b8 893e e64b 013e 262e 783d cc35 4dbe
00000300: 4950 53bd 234e d13e 7bb3 253d 966a 38be
00000310: 37d2 43be f3a7 933b 3a8f 9c3e 6df5 6bbe
00000320: 0c4d 213e 967d 86bc 3bbc 61bc 2e46 0e3e
00000330: 3d5f a03d 3a53 6f3d 4424 8c3e 4136 76be
00000340: 37d8 303d b3eb a7be b202 183d 60ee afbd
00000350: 2332 863e ce82 7d3d 2029 44bd 3e47 9c3d
00000360: 7e9f f63c 71e5 0f3e 7ff7 e63d de32 81be
00000370: 2488 20bd 1565 b53c 080c 33bd a24c 9dbd
00000380: 4fb9 383e 1e02 203c 2d32 503e 2e7e f93d
00000390: 270c 5a3f 6cdc 183e cfb5 a53d 97a1 08bf
000003a0: 1e95 0dbe 5631 f5bd b58f bfbd 7485 bc3c
000003b0: 1eae 203e 44dd 913e c587 96bb daa9 44be
000003c0: 4ef4 573e a1d5 dbbd 26eb 243e 8eb9 053c
000003d0: 38c3 4f3e 517e ddbc dc6c 9abc 2e02 143f
000003e0: c3a4 e53e 5bbd 033e 7063 b4be e410 c93d
000003f0: 25c1 4d3e 5a09 663a d81f bebc a4fb 2ebc

INN.linear_list.0.bias f4 [20]
-0.08262822 -0.029553065 -0.081029214 -0.14016809 -0.0025117302 -0.13738388 -0.24435046 0.0030729312
0.21730824 0.3218371 0.013036159 0.112092055 0.019125674 0.14728019 0.08603732 0.043229558
0.19741854 -0.1510233 0.20304662 0.34847203
00000000: fc38 a9bd 4519 f2bc a5f2 a5bd 3988 0fbe
00000010: d79b 24bb 5cae 0cbe 0237 7abe 3b63 493b
00000020: 0d86 5e3e d5c7 a43e 9d95 553c 8590 e53d
00000030: 72ad 9c3c 9ed0 163e 5634 b03d 7a11 313d
00000040: 1628 4a3e daa5 1abe 74eb 4f3e ed6a b23e

INN.linear_list.1.weight f4 [20, 20]
-0.061001614 0.06963623 0.1613458 0.11803999 -0.12814581 0.11341584 0.179613 -0.026795171
-0.023228664 0.16057982 0.077546164 -0.05811406 0.06797603 -0.17196187 -0.0072849924 0.063600875
0.100581445 -0.09831849 0.014207821 -0.20503776 -0.0326484 -0.11540799 -0.17871967 0.19924721
-0.21821146 0.0449146 -0.040888425 -0.17789577 0.04045542 0.24348973 0.06480426 0.15543433
0.012736419 -0.069816336 -0.1322639 0.0045566233 0.093223825 -0.082078904 -0.19865285 -0.15809757
-0.055388518 0.05530369 -0.019357504 0.10604747 0.10899896 0.028049678 0.05312226 0.19162339
-0.07269581 -0.04461702 -0.03412015 0.08785704 0.070192605 -0.08541579 -0.038238753 -0.030940145
0.068142705 0.062268723 0.11711853 0.009144631 0.006998678 0.03428654 -0.004235833 0.12347239
-0.0015495651 0.018190017 0.024258222 -0.08051719 -0.095057435 -0.0012418611 0.0042890627 0.043692768
0.008967733 0.002161817 0.07382158 0.0464032 0.010840626 -0.05519897 0.118974134 0.044708148
-0.032395225 0.052358158 0.006277806 -0.06781531 -0.10315587 0.031162336 -0.13121085 0.030791678
0.014442258 0.07317619 -0.086394094 -0.041814327 -0.0031865912 -0.073111564 -0.04887008 -0.1332516
0.029136028 -0.010922384 -0.012930329 -0.124651134 0.09130109 -0.18003275 -0.18889497 -0.1906386
-0.06476262 0.12318161 0.11197479 0.13781264 -0.28151304 -0.03641644 -0.1366011 -0.028052473
0.077140994 0.14858611 0.05449576 -0.09982765 -0.0783394 0.09196927 0.083147466 -0.14165747
0.13276991 -0.015130967 0.0007281895 0.038813893 0.0234126 0.042110324 -0.017741535 0.015652014
0.12712611 -0.030485215 0.08366957 -0.10247271 0.05675123 0.12716934 0.0016788398 -0.06448563
-0.004896046 -0.01210455 -0.099756636 0.006634549 0.08429635 -0.0380657 -0.035496395 -0.07555333
-0.078464404 -0.055292886 0.07961752 0.028594825 0.13557148 0.028557198 -0.093397945 -0.055326972
0.05707647 -0.105229534 -0.024389302 0.105125226 -0.065512255 0.13702574 -0.056354996 -0.12244505
0.010868221 0.041086957 -0.038363047 0.045928948 -0.16739014 0.010921262 -0.07726162 0.012696995
0.06335405 -0.017092505 -0.12143515 -0.050696753 0.26568067 -0.14283822 0.059572406 0.09267455
-0.09713564 -0.14100349 -0.09324182 -0.21804397 -0.06250906 0.15872262 -0.08900078 0.04059809
0.16365647 0.13014466 0.082374066 0.15429837 0.11105286 -0.15794025 -0.16579324 -0.2039351
0.015360964 -0.1395846 0.009256602 -0.0700151 -0.21352257 -0.0031807572 -0.06799893 -0.03722525
-0.12183723 -0.10346277 -0.006035926 -0.101909265 0.06353857 0.03140826 0.0275977 -0.073508784
-0.05718741 0.04366058 0.015457323 0.05503093 -0.0897913 -0.06550525 -0.052639138 -0.04133763
-0.055217363 0.04719283 0.01002739 -0.027489353 0.038077194 -0.011676621 -0.05248283 -0.076328054
0.02093629 -0.0026629 0.009515022 0.20891887 0.020897573 0.0054412303 -0.052464813 0.05321244
-0.07189686 -0.047810715 0.04379245 0.05054087 0.09926299 0.01724907 0.044601567 0.028534357
0.17749952 0.010567004 -0.05536958 0.16874507 -0.0010954328 -0.018704474 -0.05026864 0.15408252
-0.1885079 0.116436325 -0.03856415 -0.0036306977 0.0385903 0.08298661 0.053114384 0.05149896
00000000: d4dc 79bd 719d 8e3d d537 253e f3be f13d
00000010: a838 03be 9046 e83d 78ec 373e 8c81 dbbc
00000020: 0a4a bebc 096f 243e 86d0 9e3d 0209 6ebd
00000030: 0437 8b3d c616 30be f2b6 eebb 2d41 823d
00000040: a5fd cd3d 345b c9bd ecc7 683c 6bf5 51be
00000050: 54ba 05bd 065b ecbd 4a02 37be 7607 4c3e
00000060: d372 5fbe 5ff8 373d 9f7a 27bd 4f2a 36be
00000070: 95b4 253d 5f55 793e 19b8 843d 2d2a 1f3e
00000080: 6aac 503c defb 8ebd 3070 07be ba4f 953b
00000090: 22ec be3d fc18 a8bd a76b 4bbe 54e4 21be
000000a0: 12df 62bd 1f86 623d a193 9ebc 6a2f d93d
000000b0: d93a df3d 70c8 e53c ba96 593d ec38 443e
000000c0: 8ae1 94bd 56c0 36bd 92c1 0bbd 64ee b33d
000000d0: 24c1 8f3d 79ee aebd 3da0 1cbd 3076 fdbc
000000e0: 678e 8b3d 7d0d 7f3d d7db ef3d 5dd3 153c
000000f0: 2b55 e53b 0b70 0c3d becc 8abb 18df fc3d
00000100: c71a cbba 3b03 953c 2eb9 c63c 32e6 a4bd
00000110: 79ad c2bd f2c5 a2ba 448b 8c3b 30f7 323d
00000120: 66ed 123c 45ad 0d3b c52f 973d 4811 3e3d
00000130: e29c 313c 5118 62bd b6a8 f33d e41f 373d
00000140: dbb0 04bd 8275 563d 0eb6 cd3b c1e2 8abd
00000150: 6343 d3bd 2848 ff3c 235c 06be d43e fc3c
00000160: 389f 6c3c 66dd 953d 63ef b0bd 8045 2bbd
00000170: 21d6 50bb 84bb 95bd fe2b 48bd 1c73 08be
00000180: aeae ee3c cdf3 32bc bbd9 53bc 1849 ffbd
00000190: 11fc ba3d 815a 38be af6d 41be c436 43be
000001a0: 44a2 84bd a446 fc3d 0a53 e53d c21e 0d3e
000001b0: 7a22 90be 6829 15bd 29e1 0bbe 4dce e5bc
000001c0: 19fc 9d3d f526 183e f236 5f3d 7072 ccbd
000001d0: 6870 a0bd 625a bc3d 3849 aa3d a80e 11be
000001e0: d6f4 073e e0e7 77bc f8e3 3e3a 51fb 1e3d
000001f0: c8cb bf3c e07b 2c3d b256 91bc a738 803c
00000200: 592d 023e 21bc f9bc f45a ab3d 36dd d1bd
00000210: fa73 683d ae38 023e 840c dc3a 0b11 84bd
00000220: 036f a0bb 2a52 46bc 354d ccbd a166 d93b
00000230: 91a3 ac3d c8ea 1bbd ab64 11bd b4bb 9abd
00000240: f2b1 a0bd cb7a 62bd 830e a33d b23f ea3c
00000250: 40d3 0a3e c9f0 e93c 6c47 bfbd 899e 62bd
00000260: 04c9 693d 9582 d7bd 13cc c7bc e54b d73d
00000270: 4a2b 86bd 7a50 0c3e 7fd4 66bd 78c4 fabd
00000280: 9f10 323c cc4a 283d 9222 1dbd fe1f 3c3d
00000290: 5268 2bbe 18ef 323c 573b 9ebd 0f07 503c
000002a0: c5bf 813d 9505 8cbc feb2 f8bd 66a7 4fbd
000002b0: 4c07 883e 2f44 12be 3202 743d 28cc bd3d
000002c0: 0def c6bd 3863 10be 91f5 bebd eb46 5fbe
000002d0: c004 80bd 2f88 223e 0a46 b6bd 2f4a 263d
000002e0: 9095 273e a444 053e bcb3 a83d 6400 1e3e
000002f0: af6f e33d 17bb 21be b4c5 29be 5dd4 50be
00000300: 8eac 7b3c 44ef 0ebe 01a9 173c 1464 8fbd
00000310: a9a5 5abe 4074 50bb 0643 8bbd 8179 18bd
00000320: cc85 f9bd 4ae4 d3bd 04c9 c5bb ceb5 d0bd
00000330: 8320 823d f3a5 003d 9214 e23c c68b 96bd
00000340: 583d 6abd 70d5 323d b640 7d3c 1d68 613d
00000350: 80e4 b7bd 9e27 86bd 239c 57bd a651 29bd
00000360: 9a2b 62bd 454d 413d ec49 243c 5a31 e1bc
00000370: d5f6 1b3d 4c4f 3fbc 3cf8 56bd e251 9cbd
00000380: 9582 ab3c 0c84 2ebb e5e4 1b3c d4ee 553e
00000390: 6331 ab3c 594c b23b 58e5 56bd 4af5 593d
000003a0: a93e 93bd 2bd5 43bd b65f 333d f103 4f3d
000003b0: 654a cb3d ec4d 8d3c 22b0 363d e2c0 e93c
000003c0: 6fc2 353e 3a21 2d3c 36cb 62bd 82cb 2c3e
000003d0: a094 8fba 203a 99bc 7de6 4dbd cfc7 1d3e
000003e0: 3708 41be 2b76 ee3d 71f5 1dbd 00f1 6dbb
000003f0: dd10 1e3d e2f4 a93d 788e 593d 93f0 523d

INN.linear_list.1.bias f4 [20]
-0.24051034 -0.22885023 -0.2993383 -0.11982005 -0.12045277 0.3328257 -0.23115553 0.14774743
-0.20436476 -0.18300378 -0.081054494 -0.22970435 -0.19425982 -0.2691035 0.029332062 0.012832556
0.15187041 0.2608572 0.0003700414 0.31466484
00000000: 5848 76be b757 6abe df42 99be 3764 f5bd
00000010: f1af f6bd 2168 aa3e 09b4 6cbe 1a4b 173e
00000020: ff44 51be 5865 3bbe e6ff a5bd 9e37 6bbe
00000030: 0cec 46be efc7 89be cb49 f03c a43f 523c
00000040: eb83 1b3e 138f 853e 1e02 c239 c01b a13e

INN.linear_list.2.weight f4 [1, 20]
-0.081556626 -0.08169012 0.0030837003 -0.0055540204 -0.00070309686 0.07123259 -0.0014190306 0.0009778864
0.0037288107 -0.04732829 0.0009924175 0.00080504606 -0.0021591173 0.0017692457 0.04566493 -0.0036124215
0.1322048 0.07804463 0.0057574753 0.101938814
00000000: 2907 a7bd 264d a7bd e817 4a3b 80fe b5bb
00000010: 0850 38ba 64e2 913d c4fe b9ba 6c2c 803a
00000020: 105f 743b 4fdb 41bd 0114 823a ba09 533a
00000030: fa7f 0dbb 09e6 e73a 260b 3b3d 60be 6cbb
00000040: b260 073e ddd5 9f3d 34a9 bc3b 4cc5 d03d
