runtime data/model30_save.pt (torch, 33285 bytes, 8 tensors)

GNN.adjacency_matrix f4 [80, 80]
0	0xbf800000	-1.0
1	0x3f3e95c3	0.7444727
2	0xbf800000	-1.0
3	0xbf800000	-1.0
4	0xbf800000	-1.0
5	0xbf800000	-1.0
6	0xbf800000	-1.0
7	0xbf800000	-1.0
8	0xbf800000	-1.0
9	0xbf800000	-1.0
10	0xbf800000	-1.0
11	0xbf800000	-1.0
12	0xbf800000	-1.0
13	0xbf800000	-1.0
14	0xbf800000	-1.0
15	0xbf800000	-1.0
16	0xbf800000	-1.0
17	0xbf800000	-1.0
18	0xbf800000	-1.0
19	0xbf800000	-1.0
20	0xbf800000	-1.0
21	0xbf800000	-1.0
22	0xbf800000	-1.0
23	0xbf800000	-1.0
24	0xbf800000	-1.0
25	0xbf800000	-1.0
26	0xbf800000	-1.0
27	0xbf800000	-1.0
28	0xbf800000	-1.0
29	0xbf800000	-1.0
30	0xbf800000	-1.0
31	0xbf800000	-1.0
32	0xbf800000	-1.0
33	0xbf800000	-1.0
34	0xbf800000	-1.0
35	0xbf800000	-1.0
36	0xbf800000	-1.0
37	0xbf800000	-1.0
38	0xbf800000	-1.0
39	0xbf800000	-1.0
40	0xbf800000	-1.0
41	0xbf800000	-1.0
42	0xbf800000	-1.0
43	0xbf800000	-1.0
44	0xbf800000	-1.0
45	0xbf800000	-1.0
46	0xbf800000	-1.0
47	0xbf800000	-1.0
48	0xbf800000	-1.0
49	0xbf800000	-1.0
50	0xbf800000	-1.0
51	0xbf800000	-1.0
52	0xbf800000	-1.0
53	0xbf800000	-1.0
54	0xbf800000	-1.0
55	0xbf800000	-1.0
56	0xbf800000	-1.0
57	0xbf800000	-1.0
58	0xbf800000	-1.0
59	0xbf800000	-1.0
60	0xbf800000	-1.0
61	0xbf800000	-1.0
62	0xbf800000	-1.0
63	0xbf800000	-1.0
64	0xbf800000	-1.0
65	0xbf800000	-1.0
66	0xbf800000	-1.0
67	0xbf800000	-1.0
68	0xbf800000	-1.0
69	0xbf800000	-1.0
70	0xbf800000	-1.0
71	0xbf800000	-1.0
72	0xbf800000	-1.0
73	0xbf800000	-1.0
74	0xbf800000	-1.0
75	0xbf800000	-1.0
76	0xbf800000	-1.0
77	0xbf800000	-1.0
78	0xbf800000	-1.0
79	0xbf800000	-1.0
80	0x3ee79ab0	0.45235205
81	0xbf800000	-1.0
82	0xbf800000	-1.0
83	0xbf800000	-1.0
84	0xbf800000	-1.0
85	0xbf800000	-1.0
86	0xbf800000	-1.0
87	0xbf800000	-1.0
88	0xbf800000	-1.0
89	0x3ece9530	0.40348196
90	0xbf800000	-1.0
91	0xbf800000	-1.0
92	0xbf800000	-1.0
93	0xbf800000	-1.0
94	0xbf800000	-1.0
95	0xbf800000	-1.0
96	0xbf800000	-1.0
97	0xbf800000	-1.0
98	0xbf800000	-1.0
99	0xbf800000	-1.0
100	0xbf800000	-1.0
101	0xbf800000	-1.0
102	0xbf800000	-1.0
103	0xbf800000	-1.0
104	0xbf800000	-1.0
105	0xbf800000	-1.0
106	0xbf800000	-1.0
107	0xbf800000	-1.0
108	0xbf800000	-1.0
109	0xbf800000	-1.0
110	0xbf800000	-1.0
111	0xbf800000	-1.0
112	0xbf800000	-1.0
113	0xbf800000	-1.0
114	0xbf800000	-1.0
115	0xbf800000	-1.0
116	0xbf800000	-1.0
117	0xbf800000	-1.0
118	0xbf800000	-1.0
119	0xbf800000	-1.0
120	0xbf800000	-1.0
121	0xbf800000	-1.0
122	0xbf800000	-1.0
123	0xbf800000	-1.0
124	0xbf800000	-1.0
125	0xbf800000	-1.0
126	0xbf800000	-1.0
127	0xbf800000	-1.0
128	0xbf800000	-1.0
129	0xbf800000	-1.0
130	0xbf800000	-1.0
131	0xbf800000	-1.0
132	0xbf800000	-1.0
133	0xbf800000	-1.0
134	0xbf800000	-1.0
135	0xbf800000	-1.0
136	0xbf800000	-1.0
137	0xbf800000	-1.0
138	0xbf800000	-1.0
139	0xbf800000	-1.0
140	0xbf800000	-1.0
141	0xbf800000	-1.0
142	0xbf800000	-1.0
143	0xbf800000	-1.0
144	0xbf800000	-1.0
145	0xbf800000	-1.0
146	0xbf800000	-1.0
147	0xbf800000	-1.0
148	0xbf800000	-1.0
149	0xbf800000	-1.0
150	0xbf800000	-1.0
151	0xbf800000	-1.0
152	0xbf800000	-1.0
153	0xbf800000	-1.0
154	0xbf800000	-1.0
155	0xbf800000	-1.0
156	0xbf800000	-1.0
157	0xbf800000	-1.0
158	0xbf800000	-1.0
159	0xbf800000	-1.0
160	0xbf800000	-1.0
161	0xbf800000	-1.0
162	0xbf800000	-1.0
163	0xbf800000	-1.0
164	0xbf800000	-1.0
165	0xbf800000	-1.0
166	0xbf800000	-1.0
167	0xbf800000	-1.0
168	0xbf800000	-1.0
169	0xbf800000	-1.0
170	0xbf800000	-1.0
171	0xbf800000	-1.0
172	0xbf800000	-1.0
173	0xbf800000	-1.0
174	0xbf800000	-1.0
175	0xbf800000	-1.0
176	0xbf800000	-1.0
177	0xbf800000	-1.0
178	0xbf800000	-1.0
179	0xbf800000	-1.0
180	0xbf800000	-1.0
181	0xbf800000	-1.0
182	0xbf800000	-1.0
183	0xbf800000	-1.0
184	0xbf800000	-1.0
185	0xbf800000	-1.0
186	0xbf800000	-1.0
187	0xbf800000	-1.0
188	0xbf800000	-1.0
189	0xbf800000	-1.0
190	0xbf800000	-1.0
191	0xbf800000	-1.0
192	0xbf800000	-1.0
193	0xbf800000	-1.0
194	0xbf800000	-1.0
195	0xbf800000	-1.0
196	0xbf800000	-1.0
197	0xbf800000	-1.0
198	0xbf800000	-1.0
199	0xbf800000	-1.0
200	0xbf800000	-1.0
201	0xbf800000	-1.0
202	0xbf800000	-1.0
203	0xbf800000	-1.0
204	0xbf800000	-1.0
205	0xbf800000	-1.0
206	0xbf800000	-1.0
207	0xbf800000	-1.0
208	0xbf800000	-1.0
209	0xbf800000	-1.0
210	0xbf800000	-1.0
211	0xbf800000	-1.0
212	0xbf800000	-1.0
213	0xbf800000	-1.0
214	0xbf800000	-1.0
215	0xbf800000	-1.0
216	0xbf800000	-1.0
217	0xbf800000	-1.0
218	0xbf800000	-1.0
219	0xbf800000	-1.0
220	0xbf800000	-1.0
221	0xbf800000	-1.0
222	0xbf800000	-1.0
223	0xbf800000	-1.0
224	0xbf800000	-1.0
225	0xbf800000	-1.0
226	0xbf800000	-1.0
227	0xbf800000	-1.0
228	0xbf800000	-1.0
229	0xbf800000	-1.0
230	0xbf800000	-1.0
231	0xbf800000	-1.0
232	0xbf800000	-1.0
233	0xbf800000	-1.0
234	0xbf800000	-1.0
235	0xbf800000	-1.0
236	0xbf800000	-1.0
237	0xbf800000	-1.0
238	0xbf800000	-1.0
239	0xbf800000	-1.0
240	0xbf800000	-1.0
241	0xbf800000	-1.0
242	0xbf800000	-1.0
243	0xbf800000	-1.0
244	0xbf800000	-1.0
245	0xbf800000	-1.0
246	0xbf800000	-1.0
247	0xbf800000	-1.0
248	0xbf800000	-1.0
249	0xbf800000	-1.0
250	0xbf800000	-1.0
251	0xbf800000	-1.0
252	0xbf800000	-1.0
253	0xbf800000	-1.0
254	0xbf800000	-1.0
255	0xbf800000	-1.0

GNN.self_temp_w f4 [80]
0	0x3f8f5602	1.1198123
1	0x3f97044d	1.1798187
2	0x3fabc22e	1.3418634
3	0x3fab12dd	1.3365132
4	0x3faa3fbf	1.3300704
5	0x3f8fd8f7	1.1238087
6	0x3f62170a	0.88316405
7	0x3f553df2	0.83297646
8	0x3f7a8216	0.97854745
9	0x3f7215d9	0.94564587
10	0x3faa4570	1.3302441
11	0x3fab815b	1.3398851
12	0x3fa1ee4d	1.2650849
13	0x3fa6a725	1.3019758
14	0x3f79c6af	0.9756879
15	0x3fab4fe6	1.3383758
16	0x3f71816d	0.94338113
17	0x3f71ef54	0.9450581
18	0x3f540dc4	0.82833505
19	0x3f7210e9	0.9455705
20	0x3fab140f	1.3365496
21	0x3fab5205	1.3384405
22	0x3faa336c	1.3296943
23	0x3f995964	1.1980405
24	0x3f77eaba	0.9684254
25	0x3f81ad59	1.0131027
26	0x3f6a639b	0.91558236
27	0x3f6e8f56	0.93187463
28	0x3f7fe696	0.9996122
29	0x3faa71ae	1.3315942
30	0x3faacf5f	1.3344535
31	0x3f9edd60	1.2411308
32	0x3f8decb2	1.1087859
33	0x3fa1481c	1.2600131
34	0x3faa6d20	1.3314552
35	0x3fa0122a	1.2505543
36	0x3f822c69	1.0169803
37	0x3f814019	1.0097686
38	0x3f785d06	0.9701694
39	0x3f6f28c5	0.93421584
40	0x3f81d11f	1.0141944
41	0x3f4a303f	0.7897987
42	0x3f5bf7ac	0.8592479
43	0x3f658901	0.89662176
44	0x3f8debdb	1.1087602
45	0x3fab5c28	1.3387499
46	0x3f7bedfb	0.98410004
47	0x3f4c477b	0.7979657
48	0x3f4e38ca	0.80555403
49	0x3f8a6be9	1.0814182
50	0x3fab0372	1.3360426
51	0x3faaf823	1.3356975
52	0x3f7a3015	0.9772962
53	0x3f67ee0c	0.90597606
54	0x3f8e138a	1.1099713
55	0x3f8b42e6	1.0879791
56	0x3faa9582	1.3326876
57	0x3fa40e2e	1.2816827
58	0x3fab448f	1.3380297
59	0x3faac706	1.3341987
60	0x3faab858	1.3337507
61	0x3f9c67b4	1.2219148
62	0x3fab38c7	1.3376702
63	0x3f8ab9cd	1.0837952
64	0x3f71daad	0.944743
65	0x3f89ff5d	1.0781056
66	0x3faacb44	1.3343282
67	0x3f80e29a	1.0069153
68	0x3faa463a	1.3302681
69	0x3f812594	1.0089593
70	0x3f71aef9	0.9440761
71	0x3f72c860	0.94837
72	0x3faa3fda	1.3300736
73	0x3f567be0	0.8378277
74	0x3f669abf	0.90079874
75	0x3f5f8009	0.8730474
76	0x3faaace4	1.3334012
77	0x3faab588	1.3336649
78	0x3f82cc92	1.021868
79	0x3faadeb5	1.3349215

GNN.other_temp_w f4 [80]
0	0x3e948718	0.29009318
1	0x3e3bc876	0.18338189
2	0x3e4ccccd	0.2
3	0x3e4ccccd	0.2
4	0x3e4ccccd	0.2
5	0x3e9d3559	0.30704764
6	0x3e4655a1	0.19368602
7	0x3e40dfa0	0.18835306
8	0x3e4477a3	0.19186263
9	0x3e99c75c	0.30034912
10	0x3e4ccccd	0.2
11	0x3e4ccccd	0.2
12	0x3e29b30f	0.16572212
13	0x3e043e3f	0.1291437
14	0x3e87bb27	0.26509973
15	0x3e4ccccd	0.2
16	0x3e8ebc15	0.2787787
17	0x3e5e7478	0.21724117
18	0x3e34ce9a	0.17656937
19	0x3e7f6413	0.24940519
20	0xb4de029c	-4.135262e-07
21	0xac713100	-3.427536e-12
22	0x3e4ccccd	0.2
23	0x3e5f0f51	0.21783186
24	0x3e3edb50	0.18638349
25	0x3e8ba331	0.27272943
26	0x3e80e406	0.25173968
27	0x3e823cd5	0.25437036
28	0x3ea93f82	0.33056265
29	0x3e4ccccd	0.2
30	0x3e4ccccd	0.2
31	0x3e1fc72d	0.15603323
32	0x3e6e3b04	0.232647
33	0x3e1cfea1	0.15331508
34	0x3e4ccccd	0.2
35	0x3e361a45	0.17783459
36	0x3e6acde2	0.229301
37	0x3e69cd89	0.22832312
38	0x3e5fc77f	0.21853445
39	0x3e80b45a	0.25137597
40	0x3e70e414	0.23524505
41	0x3e63951f	0.22224854
42	0x3e4b7f9c	0.19872898
43	0x3e67b366	0.22627029
44	0x3e32a0ac	0.17444104
45	0x3e4ccccd	0.2
46	0x3e3f9987	0.1871091
47	0x3e4dbc41	0.20091344
48	0x3e4d65ec	0.20058411
49	0x3ea57deb	0.3232263
50	0x3e4ccccd	0.2
51	0x3e4ccccd	0.2
52	0x3eb69453	0.35660037
53	0x3e84c743	0.25933275
54	0x3ea93698	0.33049464
55	0x3eb1b2d9	0.34706762
56	0xb4d65e92	-3.9929415e-07
57	0x3dcef04d	0.101044275
58	0x3e4ccccd	0.2
59	0x3e4ccccd	0.2
60	0x3e4ccccd	0.2
61	0x3e5b58e8	0.21420634
62	0x3e4ccccd	0.2
63	0x3ea0f2b6	0.31435174
64	0x3e8b957f	0.27262494
65	0x3e6d6342	0.23182395
66	0x3e4ccccd	0.2
67	0x3eb74daf	0.35801455
68	0x3e4ccccd	0.2
69	0x3eaa748e	0.3329205
70	0x3e7afde7	0.24510919
71	0x3e846985	0.25861755
72	0x3e4ccccd	0.2
73	0x3e5c5a1f	0.21518753
74	0x3e4e8d23	0.20171027
75	0x3e5d92b6	0.21637997
76	0x3e4ccccd	0.2
77	0x3e4ccccd	0.2
78	0x3eae2450	0.3401208
79	0x3e4ccccd	0.2

INN.linear_list.0.weight f4 [20, 19]
0	0x3fda312b	1.7046255
1	0x3dfced41	0.1234994
2	0x3f54ae02	0.83078015
3	0xbd802bdd	-0.06258366
4	0xbe103829	-0.14083923
5	0xbe3d7f6f	-0.18505643
6	0x3d123731	0.035697166
7	0xbd270682	-0.04077769
8	0x3c9fb472	0.019495223
9	0x3f54c2c0	0.83109665
10	0x3cd2c260	0.02572745
11	0x3d6bfd3a	0.057614543
12	0x3dd691fe	0.104770645
13	0xbd9894e3	-0.07450273
14	0xbe55a990	-0.20865464
15	0x3dfc837c	0.12329766
16	0xbc99e792	-0.01878718
17	0x3cecef3a	0.028922666
18	0x3a8f569c	0.0010935846
19	0xbf4a6b30	-0.79069805
20	0x3e270b3c	0.1631288
21	0x3d445bfe	0.047939293
22	0x3d3ea91c	0.046547994
23	0xbcc3250c	-0.023821376
24	0x3d680162	0.056641944
25	0xbd62ab00	-0.05533886
26	0x3c823def	0.015898673
27	0x3b09fad3	0.0021054044
28	0xbea6a599	-0.32548216
29	0x3f7b4da4	0.98165345
30	0xbd9f8787	-0.07789522
31	0x3e01404e	0.12622187
32	0x3e1527d4	0.14565974
33	0xbe13006a	-0.14355627
34	0x3de99704	0.11405757
35	0x3bffacdc	0.007802589
36	0x3cb6e419	0.022325562
37	0xbdd05873	-0.1017312
38	0xc0704f03	-3.7548225
39	0xbcc5238c	-0.024064802
40	0xbfa8fccd	-1.3202149
41	0xbeb3720d	-0.3504795
42	0x3e823b41	0.25435832
43	0xbd1fdbca	-0.039027967
44	0xbe3a35a9	-0.18184532
45	0x3dad3d37	0.084589414
46	0x3dbb14ed	0.09134851
47	0xbfcc4ddc	-1.5961261
48	0x3e8ba752	0.27276093
49	0x3e0ee4a3	0.13954405
50	0x3e627f80	0.2211895
51	0xbe8a31c5	-0.26991096
52	0x3e64e760	0.22353888
53	0xbd4b5a0a	-0.049646415
54	0xbd2ee904	-0.04270269
55	0xbdc22edc	-0.09481594
56	0x3e36ed9b	0.17864077
57	0x3fa24b41	1.2679216
58	0x3dc84b37	0.09779971
59	0x3dfe7eed	0.12426553
60	0xbeeba094	-0.4602095
61	0xbe2785e1	-0.16359664
62	0xbdb60e16	-0.088894054
63	0x3db8e18a	0.09027393
64	0xbd118441	-0.035526518
65	0xbad2f92e	-0.001609599
66	0x3e514bab	0.20439021
67	0xbf43390b	-0.76258916
68	0xbde65974	-0.112475306
69	0xbe06b38e	-0.13154432
70	0x3ccebfca	0.025237937
71	0xbdc3f9e1	-0.09569145
72	0xbe2ceb9b	-0.16886751
73	0xbc9ed629	-0.019389229
74	0x3b9ed3af	0.004847012
75	0x3d021039	0.031753752
76	0x3e18db54	0.14927417
77	0xbd320fd9	-0.043472145
78	0x3e3198f3	0.17343502
79	0x3efc7ff9	0.49316385
80	0x3e74c8cf	0.23904727
81	0xbdff8a20	-0.12477517
82	0xbe641161	-0.22272255
83	0xb8e36fa0	-0.00010844995
84	0xbccb663b	-0.02482902
85	0x3e8e7eee	0.27831215
86	0x3f0a8f7c	0.5412519
87	0xbe34c2de	-0.17652461
88	0xbe30f219	-0.17279853
89	0x3e113dd4	0.14183742
90	0xbd9cd90b	-0.07658585
91	0xbb69ae18	-0.0035656746
92	0xbc45dbd0	-0.012076333
93	0xbd07370a	-0.033011474
94	0x3d8f0295	0.06982914
95	0xc074813f	-3.8203886
96	0x3cbb5ea9	0.022872286
97	0xc00aa3a3	-2.1662376
98	0xbfe75497	-1.807269
99	0x3e5d7c9e	0.21629569
100	0xbe885467	-0.26626894
101	0xbdbfc568	-0.09363824
102	0xbca084b1	-0.019594522
103	0xbd24f019	-0.040268037
104	0xbfe6b07e	-1.8022611
105	0x3edc81d3	0.43067798
106	0xbd96c2c7	-0.073613696
107	0xbd78ee02	-0.060773857
108	0x3e645671	0.222986
109	0xbdf171e3	-0.117893
110	0x3eb91c34	0.3615433
111	0x3e2eb851	0.17062499
112	0xbe3ff3e8	-0.18745387
113	0xbdc9a0e7	-0.09845143
114	0xbfeda264	-1.8565183
115	0xbe0ee48c	-0.13954371
116	0xbf404eaa	-0.7512003
117	0xbebe6257	-0.37184402
118	0xbc704e83	-0.014667156
119	0xbd51f586	-0.05125954
120	0x3e032894	0.12808448
121	0x3d4cd26f	0.050005373
122	0x3c7f4d2c	0.015582364
123	0xbf1f172f	-0.6214475
124	0x3ef04d75	0.46934095
125	0x3e632f4b	0.2218601
126	0xbe0a7050	-0.13519406
127	0xbda7ef2a	-0.08199914
128	0x3dc97c6b	0.09838184
129	0x3d2edd59	0.042691562
130	0xbda4463c	-0.08021209
131	0x3e1f0172	0.15527895
132	0x3d45f6ce	0.048331074
133	0xbfda4514	-1.7052331
134	0x3e811c8f	0.252171
135	0xbf494468	-0.78620005
136	0x3e528e84	0.20562178
137	0x3e1dd391	0.15412737
138	0xbd86698d	-0.06563101
139	0xbce34edf	-0.02774757
140	0x3d3a7226	0.045519017
141	0x3b58b4a0	0.0033066645
142	0xbf3ed121	-0.74537855
143	0x3f0e4930	0.55580425
144	0xbd6278c3	-0.05529095
145	0x3d941e29	0.07232315
146	0xbe21195d	-0.15732332
147	0xbd8bc287	-0.068242125
148	0x3d4e1d27	0.05032077
149	0x3c15f9e1	0.009153814
150	0x3a0967d3	0.0005241606
151	0xbdc11cd9	-0.094293304
152	0xbe747995	-0.23874505
153	0x3e0fc60b	0.14040391
154	0xbec6310e	-0.387093
155	0xbf37be89	-0.7177511
156	0xbe70f8fe	-0.23532483
157	0xbd844998	-0.064593494
158	0x3dd1b47f	0.10239505
159	0x3b57bb08	0.0032917876
160	0x3c927bab	0.017881235
161	0xbe803949	-0.25043705
162	0xbda598c8	-0.08085781
163	0x3e23ad68	0.15984118
164	0xbe12c47f	-0.1433277
165	0xbd45204f	-0.048126515
166	0x3e25bfd8	0.16186464
167	0x3e12f866	0.14352569
168	0xbc463aa4	-0.012098942
169	0xbb630935	-0.003464294
170	0x3d35b6f1	0.04436392
171	0x3fa8a728	1.3176012
172	0xbd2db182	-0.042405613
173	0x3e06f94a	0.13181034
174	0xbf109c48	-0.56488466
175	0xbddd31f9	-0.10800547
176	0xbd44c775	-0.04804178
177	0x3e1f9f56	0.15588126
178	0xbd052a62	-0.032511123
179	0xbb8eb12f	-0.004354618
180	0x3e284208	0.16431439
181	0xbf92fba7	-1.1483048
182	0x3d84d525	0.064859666
183	0xbd3a287b	-0.04544876
184	0xbc6e7f7e	-0.014556764
185	0x3c1e747c	0.009671327
186	0xbec66a08	-0.3875277
187	0x3bee9c4b	0.007281815
188	0xbce3d12a	-0.027809698
189	0x3d97e5a9	0.07416851
190	0xbf166532	-0.5874816
191	0x3e3391b9	0.17536058
192	0xbe21ced9	-0.15801562
193	0x3e893008	0.26794457
194	0xbe62153e	-0.22078416
195	0xbb0994d2	-0.0020993245
196	0x3cdb29f9	0.026753413
197	0x3c48f946	0.012266463
198	0x3cc0420b	0.023468992
199	0xbe635278	-0.22199428
200	0x3f70e6a7	0.9410195
201	0x3e293dca	0.16527477
202	0x3d5b4358	0.05353102
203	0x3c45c16b	0.01207004
204	0xbdfdb0b7	-0.12387221
205	0x3e50ffcb	0.20410077
206	0x3b9e17e0	0.0048246235
207	0xbc71bc3e	-0.014754353
208	0xbdac4b94	-0.08412853
209	0xc08aece5	-4.341418
210	0xbde3d84a	-0.11125238
211	0xc00a6c6c	-2.1628675
212	0xbfc18f1a	-1.5121796
213	0xbe037bb1	-0.12840153
214	0xbd9d6fba	-0.07687326
215	0xbdb969f5	-0.09053413
216	0xbd15b1a7	-0.036546376
217	0x3b90267b	0.0043991185
218	0xc0025197	-2.0362298
219	0xbe43bc51	-0.19114806
220	0xbe432ea1	-0.19060756
221	0xbe33f1ef	-0.17572759
222	0x3ebc319d	0.36756602
223	0xbe1fed03	-0.15617757
224	0xbe087d0d	-0.13328953
225	0xbd2ae4b3	-0.04172201
226	0x3e0a034d	0.13477822
227	0xbc40564e	-0.011739327
228	0xc0794643	-3.8949134
229	0xbd8ab349	-0.06772477
230	0xc00fd19b	-2.2471683
231	0xbfa27888	-1.2693033
232	0x3e0c703e	0.13714692
233	0xbe21bbba	-0.15794268
234	0x3e6ce7f6	0.23135361
235	0x3b844480	0.004036486
236	0xbcc4d4bf	-0.024027226
237	0xbff29a01	-1.8953248
238	0x3dec6121	0.11541963
239	0x3dbcc462	0.092171445
240	0xbebb81fa	-0.36622602
241	0x3da74175	0.08166782
242	0xbe30a335	-0.17249759
243	0xbda6f4e8	-0.08152181
244	0xbbf6af2c	-0.0075282063
245	0x3dd87234	0.105686575
246	0x3da72e02	0.08163072
247	0xc0085b5f	-2.1305768
248	0x3de160e2	0.11004807
249	0xbf10f00f	-0.566163
250	0x3e50a0c9	0.20373835
251	0x3e1de672	0.15419939
252	0xbd8b484a	-0.068008974
253	0xbc863ce2	-0.016386453
254	0x3d667c53	0.05627091
255	0x3cbde721	0.0231815

INN.linear_list.0.bias f4 [20]
0	0xbe7f12af	-0.24909471
1	0x3e730856	0.23733649
2	0xbd84005d	-0.06445382
3	0x3cb6fc62	0.022337142
4	0x3e77358c	0.2414152
5	0x3d511ff9	0.051055882
6	0xbca51698	-0.020152375
7	0x3dd5cc53	0.104393624
8	0xbd80173b	-0.06254431
9	0x3e0388dd	0.12845178
10	0xbe737189	-0.23773779
11	0xbe8d3b88	-0.2758448
12	0xbcf620af	-0.030044882
13	0x3cabfbb4	0.020994045
14	0x3e050627	0.12990628
15	0xbd883194	-0.06650081
16	0xbd991b88	-0.07475954
17	0x3d753336	0.05986329
18	0xbd89412f	-0.06701886
19	0x3e145eb9	0.14489259

INN.linear_list.1.weight f4 [20, 20]
0	0x3b890e5b	0.0041826195
1	0x3c663ecb	0.014053057
2	0xbdb928c4	-0.090409786
3	0xbc690761	-0.014222951
4	0xbb6272b8	-0.003455324
5	0x3d00bc7e	0.03142976
6	0x3c8f132f	0.017465202
7	0x3c4d8bd4	0.012545545
8	0xbbf43858	-0.0074530058
9	0xbc2fe642	-0.01073605
10	0x3c58cc10	0.013232246
11	0x3b18596c	0.002324666
12	0x3d0e5d5f	0.034757014
13	0x3c5016ca	0.012700746
14	0xbc72c039	-0.014816337
15	0xbba33574	-0.0049807373
16	0xbc63d481	-0.013905645
17	0xbc0b0b91	-0.008486644
18	0xbba2c147	-0.004966888
19	0xbb982190	-0.004642673
20	0x3c013fab	0.007888715
21	0x3bffe446	0.0078091947
22	0xbcd6dbc5	-0.026227841
23	0xbcd142da	-0.025544573
24	0x3ce8acf0	0.028402776
25	0x3b226a74	0.002478269
26	0xbc8881bf	-0.01666343
27	0xbc318106	-0.010833984
28	0x3b548a64	0.003243112
29	0x3bd45b0f	0.0064805816
30	0x3ca2d244	0.019875653
31	0xbbf2f3e3	-0.0074143275
32	0x3c46309a	0.012096548
33	0xbbcddb12	-0.0062822187
34	0xbc0f4211	-0.008743779
35	0xbc3ce339	-0.0115287835
36	0xbba224e2	-0.0049482444
37	0xbb155870	-0.0022788309
38	0x3c4d1c8c	0.012519013
39	0xbbb230e0	-0.0054379553
40	0x3b3c6c04	0.0028750906
41	0xbd18e8cf	-0.0373314
42	0x3d2577f8	0.040397614
43	0x3c9eb562	0.0193736
44	0x3c961f46	0.01832546
45	0xbcda5f8d	-0.02665689
46	0xbc9da1f0	-0.019242257
47	0x3b52aaf8	0.0032145362
48	0xbb46aa73	-0.0030313998
49	0x3af07e71	0.0018348229
50	0xbc479b85	-0.012183075
51	0xb9a173d1	-0.00030794603
52	0xbc6f2e89	-0.014598497
53	0xbc37d5c5	-0.0112204
54	0x3c80d6bd	0.015727395
55	0x3cc96e79	0.02458881
56	0x3bd92f7e	0.006627976
57	0x3baaa3c8	0.0052075125
58	0xb9a5df36	-0.00031637558
59	0x3c5599ff	0.013037204
60	0xbc9f8ff6	-0.019477826
61	0x3c7977d6	0.015226325
62	0xbd6e4d77	-0.058179345
63	0xb9077d08	-0.00012921181
64	0xbc70c7fb	-0.014696117
65	0x3d667577	0.056264367
66	0x3c0b99d4	0.008520562
67	0x3cccd861	0.025005521
68	0x3ca9bdad	0.020720327
69	0xbbe81bd2	-0.0070833946
70	0x3d255de9	0.040372763
71	0x3bb81fe5	0.0056190365
72	0xbc73b948	-0.014875717
73	0xbb27f1f5	-0.0025626395
74	0xb99feb68	-0.00030502235
75	0xbc3c8348	-0.011505909
76	0xbc23c785	-0.0099963
77	0xbc3b9e3d	-0.011451301
78	0x3c2570fd	0.010097739
79	0xbb074b7e	-0.0020644362
80	0x3c8c2c8a	0.017111082
81	0x3d3cd36e	0.046100073
82	0xbc5efd1a	-0.013610149
83	0xbc274c50	-0.010211065
84	0xbc31bd49	-0.010848352
85	0xbbeaa296	-0.007160495
86	0x3cfbb52d	0.03072604
87	0xbc64a2ed	-0.01395486
88	0xbab8d469	-0.0014101389
89	0xbc7cc012	-0.0154266525
90	0x3a8a0fc0	0.0010533258
91	0xbbcdb8ee	-0.006278149
92	0x3d80f298	0.06296271
93	0x3bad5c92	0.0052905763
94	0xbc4f2bad	-0.01264469
95	0x3b08fd02	0.0020902758
96	0x3c0142ea	0.007889489
97	0x3c14cd85	0.009082203
98	0x3c06a202	0.008217337
99	0x3c9e666d	0.01933595
100	0xbc72e2a0	-0.014824539
101	0xbd877410	-0.06613934
102	0x3cd9872c	0.026553713
103	0x3c357915	0.0110762315
104	0x3d1f5f59	0.03890929
105	0xbca15a78	-0.01969646
106	0xbcb96e67	-0.022635652
107	0xbc108d7b	-0.008822794
108	0xbc165b01	-0.00917697
109	0x3c2972a2	0.010342272
110	0xbc5ca3e6	-0.013466811
111	0xbaf41f42	-0.0018625038
112	0xbd5481b4	-0.051881507
113	0xbc9c7d3e	-0.019102689
114	0x3d16e119	0.036835764
115	0x3c653868	0.013990499
116	0x3c96df45	0.01841701
117	0x3ce00cfe	0.027349945
118	0x3ca36e19	0.01994996
119	0x3b911aa5	0.004428225
120	0x3ca95ec8	0.020675078
121	0x3cc5fde7	0.024168922
122	0x3d90dd9b	0.07073518
123	0xbbad1e5e	-0.005283161
124	0xbc975b11	-0.018476041
125	0xbc5ba45b	-0.013405885
126	0xbbaf55b9	-0.005350795
127	0xbca0eb67	-0.019643499
128	0x3babb19d	0.005239679
129	0x3cdcd358	0.026956245
130	0xbcc6e548	-0.024279252
131	0xbaa7a362	-0.0012789781
132	0xbd56fc58	-0.052486748
133	0xbc4b3130	-0.012401864
134	0x3c25385b	0.010084237
135	0xbb4bd65c	-0.003110311
136	0xbc901194	-0.017586507
137	0x3c86558f	0.01639822
138	0x3a29b7d4	0.0006474231
139	0xbcdae69a	-0.026721288
140	0xbc4068b4	-0.011743713
141	0x3c40dac8	0.0117709115
142	0xbd8683b0	-0.06568086
143	0xbab0b7a0	-0.0013482459
144	0xbc6807ae	-0.014161987
145	0x3cc98333	0.024598693
146	0x3c1510d0	0.009098247
147	0x3cff46ec	0.031161748
148	0x3c3344aa	0.010941664
149	0xbbdfd802	-0.00683117
150	0x3b17a53e	0.0023139264
151	0x3a07783c	0.00051677576
152	0x3d123a9b	0.03570042
153	0x3c18e1d7	0.009331188
154	0xbb9addae	-0.0047261333
155	0xbb2ebfd0	-0.0026664622
156	0x3ba49b15	0.00502337
157	0xbb6a3385	-0.0035736274
158	0xbad81c9c	-0.0016488018
159	0x3c0e7c8a	0.008696685
160	0xbc601d8b	-0.013678919
161	0xbd020f3e	-0.031752817
162	0x3da84e92	0.08218111
163	0x3ca96334	0.020677187
164	0x3b4c69a0	0.0031190887
165	0xbd838211	-0.064212926
166	0xbc8f05d0	-0.017458826
167	0xbc775a6f	-0.015097245
168	0xbb2180ae	-0.002464335
169	0x3c4417c8	0.0119685605
170	0xbceab306	-0.028649818
171	0xbbca9c2a	-0.006183167
172	0xbcb1a030	-0.021682829
173	0xbc2d32fb	-0.010571237
174	0x3c91237b	0.017717114
175	0xbc0c7c8f	-0.008574619
176	0x3c618efa	0.013766998
177	0x3c1cbf85	0.009567146
178	0x3c21ad09	0.009867915
179	0x3aa27311	0.0012393912
180	0xbcca1429	-0.024667816
181	0x3ccbc609	0.024874704
182	0xbdad9d8d	-0.08477316
183	0x38f483b0	0.000116593554
184	0x3bff3f2e	0.007789514
185	0x3d6f3153	0.05839665
186	0xbb42e240	-0.0029736906
187	0x3d02dd61	0.031949405
188	0x3b610eef	0.0034341177
189	0xbc498fa1	-0.01230231
190	0x3cf68f0c	0.030097507
191	0x3ac2a2f1	0.0014849586
192	0x3ca4febf	0.020141004
193	0xbbdea55e	-0.0067946156
194	0x3b7cc127	0.0038567276
195	0xbb6ae4b1	-0.0035841877
196	0xbc01eb11	-0.007929579
197	0xbad4474b	-0.0016195563
198	0x3be37d96	0.0069424612
199	0xbc4540a9	-0.012039342
200	0xbc127cb8	-0.008940868
201	0x3cf09eeb	0.029372653
202	0xbd33e926	-0.04392352
203	0xbc783f55	-0.015151818
204	0xbccbd1e4	-0.024880357
205	0xbabfc7c4	-0.0014631678
206	0x3bd0a964	0.006367849
207	0x3c98a79e	0.018634614
208	0x3c63e46a	0.013909439
209	0xbadebe76	-0.0016994018
210	0x3cce3810	0.025173217
211	0x3ab12b0b	0.0013516856
212	0x3cf71f28	0.030166224
213	0x3bd0c2a2	0.0063708583
214	0xbc5e0146	-0.013550108
215	0xbcef2f59	-0.029197382
216	0xbc3a08b3	-0.011354613
217	0xbc240e0e	-0.0100131165
218	0xbc3e5db4	-0.01161902
219	0xbc489167	-0.012241698
220	0xbcd26883	-0.0256846
221	0xba6399c9	-0.00086822786
222	0x3e02fd12	0.12791851
223	0x3c96bd66	0.01840086
224	0xbc9101e9	-0.017701106
225	0xbd8d53ed	-0.06900773
226	0xbc1a856a	-0.009431222
227	0xbd1ca574	-0.038243726
228	0xbc8f2ba1	-0.017476859
229	0x3c3cfa22	0.011534246
230	0xbcab9c6a	-0.020948607
231	0xbbcd4c32	-0.0062651867
232	0xbc7f3b1e	-0.0155780595
233	0xbc0f02bb	-0.008728678
234	0xbbf95f0e	-0.0076102084
235	0xbca16def	-0.01970574
236	0x3c81f8d9	0.01586573
237	0x3c2c5818	0.01051905
238	0xbca9ad32	-0.020712469
239	0xbb8c305e	-0.0042782268
240	0xbc94f943	-0.018185263
241	0x3ca468f6	0.02006958
242	0xbd6d2bf4	-0.057903245
243	0x3aeee94d	0.0018227488
244	0x3c1d70d1	0.009609417
245	0x3d3f881e	0.04676067
246	0x3ab4b816	0.0013787772
247	0x3c9970a6	0.018730473
248	0xbc355251	-0.011066989
249	0xbc7c73a8	-0.015408434
250	0x3c8b36ed	0.016993964
251	0xba617532	-0.00086005323
252	0x3cd5b720	0.026088297
253	0xbb97cb58	-0.0046323948
254	0xbb375bea	-0.002797837
255	0x3bb8176e	0.0056180274

INN.linear_list.1.bias f4 [20]
0	0x3be9b0df	0.0071316804
1	0xbed99f8a	-0.4250453
2	0xbd94bd46	-0.072626635
3	0x3ec7851e	0.38968748
4	0xbf0040c5	-0.5009883
5	0x3d89f09d	0.067353465
6	0x3e796023	0.2435308
7	0xbe061a79	-0.13096036
8	0xbd6f4af3	-0.058421087
9	0xbc2d782e	-0.010587735
10	0xbe6d2247	-0.23157607
11	0x3d908519	0.07056636
12	0xbebea4de	-0.3723516
13	0x3e73b407	0.23799144
14	0xbd0c077b	-0.03418682
15	0xbd08ce6f	-0.033399995
16	0x3e7dcc7d	0.24785037
17	0xbeca3819	-0.39495924
18	0xbc844fa6	-0.01615126
19	0xbe5aa48f	-0.21351837

INN.linear_list.2.weight f4 [1, 20]
0	0x3b2ad13f	0.0026064662
1	0xba8f58b5	-0.0010936471
2	0xba3bb32d	-0.0007160183
3	0x3ba16925	0.0049258643
4	0xba4b29e6	-0.0007750079
5	0xbb4a9e9a	-0.0030917288
6	0xbbacb500	-0.0052706003
7	0x3b2d999c	0.0026489263
8	0xbbf7500a	-0.007547383
9	0x3bb6e6d8	0.005581718
10	0x3b13e01e	0.0022564004
11	0xbc20b054	-0.009807665
12	0x3bd04a32	0.006356501
13	0x3e33a84d	0.1754467
14	0xbc236996	-0.009973904
15	0xbb9c2b48	-0.0047659017
16	0x3be6f1a1	0.0070478474
17	0x3b7d2a36	0.0038629896
18	0x3b524b4a	0.0032088333
19	0xb967a142	-0.0002208995
